models/Dueling_DDQN_20251205_193312_finetuned.pt (torch, 822882 bytes, 11 tensors)

feature_layer.0.weight f4 [128, 200]
0.07137778 -0.003032898 -0.042584937 -0.0034343873 -0.09913155 0.011021097 -0.11266248 0.022771731
-0.041385762 0.07469713 0.04041191 -0.0025551473 -0.022623695 -0.037111416 -0.113492854 0.11795695
0.05230646 0.058083415 -0.073644064 -0.04097937 -0.05063787 0.052923422 0.08219393 0.009063819
0.023593696 0.06765867 -0.0051847757 0.017561419 0.031140896 -0.06859368 -0.035598237 -0.046850856
-0.019835345 0.042016365 -0.06280144 -0.01722433 0.058863286 0.083643995 -0.037425302 0.015836505
-0.012356142 0.004774323 0.035198633 -0.020824132 0.08203486 -0.005947198 0.038183864 0.003987049
0.036594473 -0.07620074 -0.037828505 -0.09434323 0.0043884907 0.035622086 -0.04601692 -0.08791728
0.0035086414 -0.0056747347 0.0070325057 0.12994872 0.030639552 0.0053145913 -0.031042244 -0.005636304
0.05067995 0.0543975 0.049963377 0.022920256 -0.053285994 0.0033530474 -0.015074436 0.040386617
0.01641059 -0.010951008 0.0019674266 -0.050239276 -0.030748779 -0.022316625 -0.013824556 0.021938413
0.0064724428 0.04795286 0.004707605 0.054899868 0.000317777 0.03736166 0.01903717 -0.026677374
-0.061262496 -0.033290926 -0.07087323 0.071040176 0.042374697 -0.022402221 0.012055602 0.034073804
-0.059250083 -0.07905722 -0.020040477 -0.04623275 0.053641796 0.096540324 0.0375065 -0.010213943
0.013297922 0.04394006 0.029932618 -0.0006083643 -0.098444946 0.018863713 -0.0852936 0.092474535
0.07457316 0.029089205 0.006459854 0.008808407 0.0019487733 0.043638326 -0.040536843 0.014109938
0.045162845 0.039723165 0.010701489 -0.07421542 -0.027328849 -0.042745363 0.060297683 0.0018444295
-0.039525714 -0.015710983 0.016742775 0.03226743 0.035075944 -0.07193611 -0.031242417 -0.0077866656
-0.036876354 0.09909335 0.038038775 0.011092761 0.04871685 -0.01829478 -0.009511973 -0.09451982
-0.084965736 -0.0057675303 -0.060906976 -0.02924236 -0.054171216 0.01804285 -0.020204147 0.0077980226
0.07713668 -0.012587356 -0.03801381 0.0049844366 -0.059195463 -0.027024448 -0.040484495 0.046874836
-0.055487197 0.025784673 0.05059144 -0.04539783 -0.056029286 0.015914576 -0.038344268 0.01298823
0.034073666 -0.049042366 -0.02661187 0.01992475 -0.037292782 -0.03596383 0.03301609 -0.05387603
-0.0031041997 0.028038125 0.033054158 0.09922492 0.004880743 0.038005367 -0.048735864 0.0878919
0.08105019 -0.027672648 -0.059649404 -0.0019034959 -0.0121062575 0.03191787 -0.009241785 0.052417703
0.004100196 0.0525729 0.031550627 -0.0075765634 -0.02455463 0.023159252 -0.07727746 -0.069381416
-0.0810147 -0.037298843 0.08929472 -0.0054918546 -0.016863339 0.03469479 0.05929532 0.04643977
0.08327363 0.01388947 0.047032688 -0.06374241 0.018866157 -0.026431635 -0.051424988 0.07147987
-0.11626431 -0.020316198 0.02786871 0.020454874 0.014906397 -0.0103907995 -0.02465827 0.042988967
-0.03771169 0.0076544113 0.010269243 -0.04886062 0.03427158 -0.039876964 0.042945646 -0.085886165
-0.0014933541 -0.03729849 -0.11052485 0.05215901 -0.07770928 -0.051184576 -0.0014188236 0.018758876
-0.05948597 0.06429206 -0.008510716 0.04068146 -0.032541357 0.03880508 0.021280998 -0.017029012
-0.058315706 -0.075767815 0.030846784 -0.14090079 -0.12210214 -0.04139694 -0.09672049 0.039326686
00000000: 832e 923d 96c3 46bb 8b6d 2ebd 7513 61bb
00000010: 7b05 cbbd d591 343c 96bb e6bd c88b ba3c
00000020: 1e84 29bd cffa 983d f586 253d 4274 27bb
00000030: 5455 b9bc 2402 18bd f16e e8bd 6a93 f13d
00000040: 4c3f 563d e0e8 6d3d b3d2 96bd fcd9 27bd
00000050: a869 4fbd 3bc6 583d 4b55 a83d 6a80 143c
00000060: 9147 c13c a190 8a3d 0de5 a9bb f7dc 8f3c
00000070: 311b ff3c d87a 8cbd 75cf 11bd afe6 3fbd
00000080: bc7d a2bc 5a19 2c3d 0b9e 80bd 0a1a 8dbc
00000090: a11a 713d 8b4d ab3d 464b 19bd 8fbb 813c
000000a0: 6a71 4abc ed71 9c3b 712c 103d 5f97 aabc
000000b0: e501 a83d b6e0 c2bb af66 1c3d cba5 823b
000000c0: 16e4 153d 220f 9cbd 10f2 1abd 0637 c1bd
000000d0: 54cd 8f3b 77e8 113d 3d7c 3cbd fa0d b4bd
000000e0: 3cf1 653b 20f3 b9bb ef70 e63b 4711 053e
000000f0: ccff fa3c 0626 ae3b 4e4c febc bfb0 b8bb
00000100: c795 4f3d eacf 5e3d 66a6 4c3d 43c3 bb3c
00000110: 6a42 5abd cdbe 5b3b c4fa 76bc 706c 253d
00000120: 806f 863c db6b 33bc f1ef 003b b3c7 4dbd
00000130: dde4 fbbc 5bd1 b6bc 6480 62bc 30b8 b33c
00000140: c916 d43b 386a 443d 4142 9a3b afde 603d
00000150: 4f9b a639 8a08 193d d7f3 9b3c 828a dabc
00000160: 62ee 7abd 115c 08bd fc25 91bd 837d 913d
00000170: 1791 2d3d dd84 b7bc dc84 453c f990 0b3d
00000180: 37b0 72bd c0e8 a1bd ed2b a4bc 8d5e 3dbd
00000190: 80b7 5b3d efb6 c53d 6aa0 193d 6258 27bc
000001a0: 87df 593c 7efa 333d 4035 f53c a37a 1fba
000001b0: 819d c9bd 1388 9a3c 69ae aebd 4a63 bd3d
000001c0: d0b9 983d 7c4c ee3c 2fad d33b 2351 103c
000001d0: fb6d ff3a 1abe 323d f609 26bd 5f2d 673c
000001e0: adfc 383d c2b4 223d 4c55 2f3c 41fe 97bd
000001f0: c0e0 dfbc c315 2fbd b4fa 763d c9c0 f13a
00000200: b7e5 21bd 52b4 80bc 2528 893c da2a 043d
00000210: cbab 0f3d 3d53 93bd 19f0 ffbc 4927 ffbb
00000220: a90b 17bd 74f1 ca3d 8cce 1b3d 69be 353c
00000230: 528b 473d efde 95bc 1bd8 1bbc 9b93 c1bd
00000240: 8402 aebd 8dfd bcbb 9879 79bd ac8d efbc
00000250: a3e2 5dbd 99ce 933c 2b83 a5bc 8e86 ff3b
00000260: d6f9 9d3d 333b 4ebc 5eb4 1bbd 7c54 a33b
00000270: f176 72bd 6062 ddbc 12d3 25bd d4ff 3f3d
00000280: 8b46 63bd 613a d33c f838 4f3d 13f3 39bd
00000290: f77e 65bd 495f 823c e10e 1dbd 96cc 543c
000002a0: d490 0b3d a6e0 48bd 2301 dabc 3b39 a33c
000002b0: 51c0 18bd cf4e 13bd e13b 073d 1dad 5cbd
000002c0: d46f 4bbb 36b0 e53c cc63 073d 6f36 cb3d
000002d0: a4ee 9f3b 84ab 1b3d 429f 47bd ab00 b43d
000002e0: a4fd a53d c0b1 e2bc ef52 74bd b97e f9ba
000002f0: 5359 46bc 50bc 023d db6a 17bc f2b3 563d
00000300: f05a 863b ae56 573d 3b3b 013d d244 f8bb
00000310: cb26 c9bc 79b8 bd3c a543 9ebd d817 8ebd
00000320: 09eb a5bd acc6 18bd 26e0 b63d 04f5 b3bb
00000330: fc24 8abc 201c 0e3d a6df 723d a137 3e3d
00000340: 5d8b aa3d a990 633c 59a5 403d 618b 82bd
00000350: 338d 9a3c 2887 d8bc 02a3 52bd 0a64 923d
00000360: fc1b eebd 286e a6bc ec4c e43c fb90 a73c
00000370: f639 743c 2c3e 2abc 2400 cabc 3315 303d
00000380: 9377 1abd dbd1 fa3b 5440 283c 1322 48bd
00000390: 5b60 0c3d 0756 23bd c6e7 2f3d 16e5 afbd
000003a0: a6bc c3ba 4dc6 18bd da5a e2bd b0a4 553d
000003b0: 0b26 9fbd eba6 51bd d2f7 b9ba 37ac 993c
000003c0: 8fa7 73bd 8eab 833d 8870 0bbc 9aa1 263d
000003d0: 164a 05bd 13f2 1e3d 7d55 ae3c 6d80 8bbc
000003e0: 73dc 6ebd 282c 9bbd 65b2 fc3c 4c48 10be
000003f0: b010 fabd d68f 29bd 6415 c6bd 0515 213d

feature_layer.0.bias f4 [128]
-0.08787167 0.08324709 0.07241192 0.1249712 -0.05718496 -0.07999627 -0.044229124 0.078411475
-0.01515743 -0.036520015 -0.047878455 0.09379145 -0.02642089 0.10810242 -0.060271222 -0.09760167
-0.0061086644 0.034195863 -0.07238958 -0.050105788 -0.08622678 0.12123744 0.054657914 0.07371244
0.026841784 0.09960574 -0.011287749 -0.07456967 0.014511285 0.109758824 0.016736208 0.09790669
0.012515732 0.0990521 -0.023404788 0.066121444 0.057994578 0.017496947 -0.014582136 0.08075236
0.07263725 0.06999634 0.043389067 0.09617904 -0.015138531 -0.054334015 0.15419585 0.16722311
-0.008464593 -0.049127363 0.055768132 0.08708348 -0.045720052 -0.04149614 0.115357436 0.14512888
-0.004552484 0.017537791 0.07256844 -0.011452546 -0.02655189 -0.037618034 -0.011747379 0.11856923
0.09847472 0.022784723 0.09815991 0.16608827 0.09337745 0.06323773 -0.06259207 -0.03540178
-0.007617977 -0.0054697506 0.024361935 0.13528626 -0.03709563 -0.022913584 -0.10439643 -0.054968983
0.06776261 0.08235266 0.033750378 0.08762127 -0.02157057 0.14615485 0.0040877783 0.08336414
0.06380457 0.051361937 -0.073396534 0.05563527 -0.00042576133 -0.013910908 -0.014026154 -0.0076966844
0.037786428 0.09488558 -0.06302883 0.058243684 0.037150066 -0.09662758 0.036510214 -0.014013449
0.025069343 0.11812949 -0.06558813 -0.004274736 0.10800782 0.034276415 0.15746231 -0.010407421
0.077206984 -0.06938727 -0.113274336 0.093060024 -0.047379445 0.061115865 -0.04169822 -0.10121564
0.059983432 0.13176663 -0.0016100893 0.15515116 0.011909632 0.10471251 0.108732164 -0.007866362
00000000: 10f6 b3bd 737d aa3d b34c 943d e7f0 ff3d
00000010: c73a 6abd 16d5 a3bd 9929 35bd 3296 a03d
00000020: df56 78bc 0396 15bd 331c 44bd bb15 c03d
00000030: 9f70 d8bc cd64 dd3d f5de 76bd 62e3 c7bd
00000040: 312b c8bb f610 0c3d fd40 94bd ba3b 4dbd
00000050: ab97 b0bd 564b f83d fae0 5f3d 8cf6 963d
00000060: 4de3 db3c 18fe cb3d 40f0 38bc fcb7 98bd
00000070: bec0 6d3c 3cc9 e03d 5f1a 893c 4d83 c83d
00000080: c90e 4d3c d4db ca3d 66bb bfbc ae6a 873d
00000090: b98b 6d3d c255 8f3c e9e9 6ebc 7e61 a53d
000000a0: d7c2 943d 3e5a 8f3d bcb8 313d 84f9 c43d
000000b0: 9a07 78bc 588d 5ebd 84e5 1d3e 893c 2b3e
000000c0: 14af 0abc c639 49bd 206d 643d d358 b23d
000000d0: f344 3bbd dbf7 29bd 8540 ec3d aa9c 143e
000000e0: 012d 95bb 6aab 8f3c c39e 943d 76a3 3bbc
000000f0: 5983 d9bc 5e15 1abd 1478 40bc 6dd4 f23d
00000100: 1dad c93d 07a7 ba3c 1008 c93d 0b13 2a3e
00000110: ad3c bf3d c882 813d 4530 80bd 7501 11bd
00000120: 39a0 f9bb 983b b3bb ae92 c73c 7b88 0a3e
00000130: 96f1 17bd 45b5 bbbc cccd d5bd 2827 61bd
00000140: 20c7 8a3d 83a8 a83d d63d 0a3d c872 b33d
00000150: c4b4 b0bc 9ea9 153e c5f2 853b d1ba aa3d
00000160: f8ab 823d e560 523d ec50 96bd cfe1 633d
00000170: b838 dfb9 94ea 63bc f4cd 65bc 7834 fcbb
00000180: f1c5 1a3d 5f53 c23d 4215 81bd ee90 6e3d
00000190: ab2a 183d aee4 c5bd bc8b 153d aa98 65bc
000001a0: 395e cd3c e0ed f13d 1253 86bd 1613 8cbb
000001b0: 3433 dd3d 6d65 0c3d cd3d 213e e383 2abc
000001c0: b21e 9e3d ea1a 8ebd 60fc e7bd 4196 be3d
000001d0: f310 42bd a154 7a3d c1cb 2abd 254a cfbd
000001e0: 30b1 753d d5ed 063e a209 d3ba f2df 1e3e
000001f0: 9e20 433c 8373 d63d f8ae de3d eae1 00bc

feature_layer.3.weight f4 [128, 128]
-0.006659006 -0.0751437 -0.05873141 0.005438784 0.045764614 -0.07983108 0.061643563 0.012277636
0.03273645 0.074870065 -0.017762206 0.137083 -0.025645517 -0.058275122 -0.015943917 0.051065378
0.015786143 0.07696326 0.06333435 0.095382474 -0.0061961603 -0.08045978 -0.08307643 -0.06340221
0.018357242 0.02964973 0.09311607 0.0580304 -0.08215883 -0.08177263 0.051546883 -0.021359136
-0.06474719 -0.031122744 0.09733615 0.11753009 0.08505641 -0.022572286 -0.010240287 0.076336116
0.078878395 -0.04221122 0.020092063 -0.07008378 0.057473205 0.079280496 0.013271415 0.09260644
0.0680662 0.07281965 0.049181927 -0.034011725 -0.06915439 -0.012081545 0.06433853 -0.020957582
0.0550784 -0.081899725 0.014459573 0.11780534 -0.06767247 0.0131179085 -0.016409358 0.11980521
-0.055802763 -0.10585579 -0.059479605 -0.100248806 0.061390456 0.091756105 -0.07199273 -0.06564741
-0.08263692 0.07801618 0.041404195 -0.06969145 0.034185015 -0.09728375 0.0027503679 0.08305227
-0.035269234 -0.015391518 -0.094018355 0.075683765 0.019389618 -0.075951375 -0.007797149 -0.07992838
-0.017490948 -0.16230804 -0.06474959 0.14422897 0.0116705205 -0.0804001 0.03349964 0.038242627
-0.031181209 -0.08474861 -0.032105975 -0.10044865 -0.20312695 -0.028026033 0.013611373 0.102495104
-0.061678227 -0.069300294 0.043382674 -0.019232607 0.1018375 -0.0711273 -0.013630073 -0.019042004
0.09295146 0.047520828 -0.09691646 -0.01685676 0.040276233 0.013318782 -0.1430597 -0.006882837
0.008906167 -0.06595262 0.0813494 -0.03820282 0.025391802 0.02431367 -0.03558902 -0.06593692
0.021128695 -0.054413207 -0.018763999 0.021532351 -0.073342875 0.0131509835 -0.0039675348 -0.0066764215
0.018569646 0.06667697 0.026467582 -0.00014028835 0.021643832 -0.011094099 -0.12007412 0.04679837
-0.09874852 -0.0957497 0.034476653 -0.015495131 0.09507896 0.070085056 -0.13928035 -0.010479621
9.9236066e-05 -0.035069887 0.061926126 0.03956717 0.08547562 -0.06977297 0.024363922 0.093983956
-0.029070625 0.00013927567 -0.021890266 0.0087379115 0.01291226 -0.055768464 -0.06229941 0.014947628
-0.020636154 -0.07602863 0.029411403 0.08492394 0.022054456 -0.02017644 0.040767476 0.009771093
-0.0795224 -0.00055450416 -0.016399924 0.10686484 0.046218116 -0.015449176 -0.16199201 0.032531098
-0.041522287 -0.005457377 0.03606872 -0.041395005 0.019412296 0.041846495 -0.09765432 0.0005693407
-0.072208606 -0.03654336 0.069605626 -0.07208324 0.107082255 0.09643795 -0.10362335 -0.014573411
0.04108833 0.021195669 0.030099634 -0.034945697 -0.051118348 0.035820406 -0.009664155 -0.024022687
0.08932857 0.067316994 0.05617174 -0.04168799 0.05555916 -0.027344858 0.015705753 -0.119803794
-0.085715875 0.058060937 -0.08742219 -0.08549379 -0.009563529 -0.056732 -0.048079588 0.075959414
-0.02000975 -0.09288404 0.013921221 -0.05217055 -0.08438775 0.046719138 -0.08153244 0.054998733
-0.07863303 -0.1131019 -0.053012166 -0.10131239 -0.096162684 -0.034606587 -0.012772506 0.0001168231
-0.0651476 0.088107415 0.016018609 0.0015444821 0.051544897 0.08450698 0.14134231 0.04756237
0.051972542 0.01590544 0.06207287 -0.097626634 0.102569476 -0.08475793 -0.1210753 0.039999943
00000000: ca33 dabb f1e4 99bd 5990 70bd d437 b23b
00000010: ad73 3b3d 7a7e a3bd f67d 7c3d 2328 493c
00000020: a816 063d 7a55 993d 0c82 91bc 7c5f 0c3e
00000030: 8c16 d2bc e5b1 6ebd d19c 82bc ee29 513d
00000040: f151 813c ea9e 9d3d 71b5 813d e357 c33d
00000050: 2909 cbbb 19c8 a4bd fa23 aabd 05d9 81bd
00000060: ed61 963c fee3 f23c a3b3 be3d 49b1 6d3d
00000070: e342 a8bd 6978 a7bd d322 533d 5bf9 aebc
00000080: 2d9a 84bd 20f5 febc 2d58 c73d 9eb3 f03d
00000090: 0e32 ae3d 84e9 b8bc e0c6 27bc 1c56 9c3d
000000a0: ff8a a13d ace5 2cbd 1c98 a43c 1688 8fbd
000000b0: 0669 6b3d d05d a23d 5970 593c 72a8 bd3d
000000c0: 4b66 8b3d 7822 953d fd72 493d e14f 0bbd
000000d0: d1a0 8dbd acf1 45bc ebc3 833d 3caf abbc
000000e0: e399 613d 0bbb a7bd d8e7 6c3c ed43 f13d
000000f0: dd97 8abd 7fec 563c eb6c 86bc 6f5c f53d
00000100: 7091 64bd ecca d8bd e3a0 73bd 3f4f cdbd
00000110: 8f74 7b3d a0ea bb3d ed70 93bd 2672 86bd
00000120: 8c3d a9bd f2c6 9f3d 7297 293d 64ba 8ebd
00000130: 9605 0c3d b43c c7bd 843f 343b 4f17 aa3d
00000140: 7976 10bd b52c 7cbc b28c c0bd 1700 9b3d
00000150: fad6 9e3c 658c 9bbd 3a7f ffbb 7eb1 a3bd
00000160: 2d49 8fbc 1434 26be 6f9b 84bd c2b0 133e
00000170: b635 3f3c cfa8 a4bd eb36 093d 4da4 1c3d
00000180: bc6f ffbc ae90 adbd 8e81 03bd 06b8 cdbd
00000190: 8300 50be da96 e5bc 3c02 5f3c f4e8 d13d
000001a0: 4fa2 7cbd 50ed 8dbd 08b2 313d b38d 9dbc
000001b0: 2e90 d03d 31ab 91bd ab50 5fbc fafd 9bbc
000001c0: 565d be3d 33a5 423d 237c c6bd 3017 8abc
000001d0: b1f8 243d 0537 5a3c 3e7e 12be 6c89 e1bb
000001e0: 2ceb 113c 2b12 87bd 849a a63d 8f7a 1cbd
000001f0: 7802 d03c 762d c73c cbc5 11bd f009 87bd
00000200: 1616 ad3c 62e0 5ebd f5b6 99bc 9d64 b03c
00000210: ca34 96bd 3977 573c 1802 82bb e2c5 dabb
00000220: 5f1f 983c ef8d 883d 8bd2 d83c 5e1a 13b9
00000230: 684e b13c 06c4 35bc 6ce9 f5bd a6af 3f3d
00000240: aa3c cabd 6b18 c4bd 6437 0d3d 4adf 7dbc
00000250: c2b8 c23d c188 8f3d 829f 0ebe b7b2 2bbc
00000260: f51c d038 71a5 0fbd 40a6 7d3d 2f11 223d
00000270: d80d af3d 22e5 8ebd d996 c73c a97a c03d
00000280: 8525 eebc 870a 1239 3753 b3bc 7529 0f3c
00000290: f28d 533c 796d 64bd ab2d 7fbd e5e6 743c
000002a0: 270d a9bc e6b4 9bbd 2ff0 f03c 9aec ad3d
000002b0: 8cab b43c 1049 a5bc ccfb 263d ef16 203c
000002c0: a4dc a2bd 255c 11ba 2259 86bc f4db da3d
000002d0: 354f 3d3d 8a1e 7dbc 3ce1 25be 543f 053d
000002e0: 4613 2abd ccd3 b2bb cbbc 133d cf8d 29bd
000002f0: 8906 9f3c 3b67 2b3d fdfe c7bd cf3f 153a
00000300: 1be2 93bd 7eae 15bd 658d 8e3d 61a0 93bd
00000310: f14d db3d 4381 c53d 7b38 d4bd 51c5 6ebc
00000320: 3d4c 283d 8aa2 ad3c 8293 f63c 3823 0fbd
00000330: 7961 51bd 6bb8 123d 6756 1ebc 3acb c4bc
00000340: e6f1 b63d 7edd 893d 5714 663d 07c1 2abd
00000350: 0092 633d 5302 e0bc 5aa9 803c b15b f5bd
00000360: ce8b afbd 4ed1 6d3d 680a b3bd 5e17 afbd
00000370: 59b0 1cbc d05f 68bd 1aef 44bd 9c90 9b3d
00000380: 7deb a3bc fd39 bebd d515 643c c9b0 55bd
00000390: 7cd3 acbd 915c 3f3d 7bfa a6bd 5a46 613d
000003a0: 5b0a a1bd f8a1 e7bd 4923 59bd df7c cfbd
000003b0: f1f0 c4bd a3bf 0dbd c643 51bc edfe f438
000003c0: 1b6c 85bd a971 b43d 7539 833c 3870 ca3a
000003d0: be20 533d ff11 ad3d 0abc 103e c2d0 423d
000003e0: 29e1 543d 204c 823c 1f40 7e3d 79f0 c7bd
000003f0: f20f d23d 9195 adbd 54f6 f7bd fbd6 233d

feature_layer.3.bias f4 [128]
0.03706018 0.04184382 0.15282536 -0.12610988 -0.0004276901 -0.017284807 0.120996915 0.010966813
-0.14691512 -0.16335149 -0.1466077 0.033100124 -0.02526228 0.116115384 -0.032065913 0.06801569
0.11398354 0.02656475 -0.07114696 0.0056560566 -0.042928007 0.07153672 0.024588931 0.089849405
0.035831008 -0.02520022 -0.020627739 0.011736682 -0.06588506 -0.15940365 0.08149483 -0.010665944
0.0829575 -0.021327347 0.07771337 -0.045689832 0.042311974 0.042672027 0.043712027 0.10610133
-0.028191673 0.004718794 0.1646947 -0.14869668 -0.15540695 0.13530597 0.010073398 -0.0068294145
-0.16468562 -0.06373364 -0.12791048 0.054068398 0.108095676 0.046625935 3.712842e-05 0.0922145
-0.013591722 -0.124095425 -0.16223246 0.015015061 0.10448499 -0.031735454 -0.020944659 -0.08038088
0.14562152 -0.09761015 0.027459925 0.10100013 0.07884774 0.14887057 -0.047746085 0.013840971
0.13170674 0.13438031 0.066597395 -0.115334675 -0.11329723 0.13297264 0.060221072 -0.019886922
0.14332294 -0.011200224 0.13192573 0.11337673 0.114388265 0.052849647 0.0036017073 -0.035674926
-0.023538083 0.12617376 -0.100236215 0.06668741 0.08227253 0.03832564 0.12834308 -0.035921257
0.10604044 0.16378616 -0.07635827 -0.053191755 0.15339874 -0.12523177 0.020164136 -0.14377925
-0.012092761 -0.044613756 0.1110792 0.11642522 0.06447848 -0.08067924 0.112717725 0.088318035
-0.051625572 -0.13481057 0.13164154 -0.009064944 0.042905413 0.12747137 0.038042992 -0.10006161
0.07652601 -0.17047295 -0.114285424 0.13451546 -0.103798516 0.03662615 0.06352709 -0.012751306
00000000: 6acc 173d 6d64 2b3d 407e 1c3e f322 01be
00000010: 983b e0b9 de98 8dbc 3bcd f73d 26ae 333c
00000020: eb70 16be 9d45 27be 5420 16be ff93 073d
00000030: d7f2 cebc e7cd ed3d 8c57 03bd cf4b 8b3d
00000040: 3470 e93d 529e d93c 7fb5 91bd 7156 b93b
00000050: 47d5 2fbd d881 923d ba6e c93c f702 b83d
00000060: 89c3 123d b170 cebc 81fb a8bc 364b 403c
00000070: bfee 86bd b63a 23be c3e6 a63d 36c0 2ebc
00000080: 9fe5 a93d b0b6 aebc 3028 9f3d 4325 3bbd
00000090: 524f 2d3d ddc8 2e3d 620b 333d a74b d93d
000000a0: 39f2 e6bc 1da0 9a3b baa5 283e f143 18be
000000b0: 0023 1fbe a68d 0a3e e50a 253c 48c9 dfbb
000000c0: 59a3 28be c886 82bd f7fa 02be d376 5d3d
000000d0: 4461 dd3d d6fa 3e3d 56ba 1b38 f5da bc3d
000000e0: d0af 5ebc be25 febd 4420 26be bb01 763c
000000f0: 3afc d53d 09fd 01bd 2294 abbc bb9e a4bd
00000100: cf1d 153e d5e7 c7bd a3f3 e03c 28d9 ce3d
00000110: ed7a a13d 8771 183e 6691 43bd 3dc5 623c
00000120: 22de 063e fe9a 093e 3764 883d 9634 ecbd
00000130: 6108 e8bd fb29 083e 5faa 763d e6e9 a2bc
00000140: 40c3 123e 2581 37bc 8a17 073e 0f32 e83d
00000150: 6544 ea3d df78 583d 9f0a 6c3b df1f 12bd
00000160: f0d2 c0bc b233 013e a548 cdbd 6993 883d
00000170: 807e a83d 59fb 1c3d 5e6c 033e 2b22 13bd
00000180: bb2b d93d 8fb7 273e ba61 9cbd 99df 59bd
00000190: 8f14 1d3e c23c 00be 422f a53c de3a 13be
000001a0: b720 46bc eabc 36bd 7e7d e33d 5970 ee3d
000001b0: 4b0d 843d 283b a5bd 8dd8 e63d 16e0 b43d
000001c0: 5675 53bd c80b 0abe 0acd 063e 2285 14bc
000001d0: 96bd 2f3d db87 023e f8d2 1b3d 1aed ccbd
000001e0: abb9 9c3d 7690 2ebe 7a0e eabd 6cbe 093e
000001f0: 5194 d4bd 4d05 163d 7e1a 823d dbea 50bc

value_stream.0.weight f4 [128, 128]
0.0026361598 -0.004868825 -0.013121388 0.029092042 0.012911573 0.014827939 0.0129998885 0.025138078
0.004553317 0.025601842 -0.024375621 -0.028990187 0.019702043 0.011147234 -0.006429525 -0.010143769
0.004163795 0.00471445 0.01919318 0.004403077 -0.024843492 0.020384993 -0.035891604 -0.0022326054
-0.022212261 0.0004127972 0.0089261765 0.019047167 -0.00838897 0.010643361 -0.025903555 0.019673832
-0.0019532412 -0.0051438343 -0.0067807967 0.029169159 0.008516737 0.009132747 0.021565897 -0.025496362
0.01019622 0.006195614 -0.009202473 0.0035747252 -0.007890896 -0.022398608 -0.016686484 -0.019195927
0.025442602 0.006757177 7.1271694e-05 -0.03924649 -0.014869528 -0.023039617 -0.026725497 -0.027011292
-0.00923362 0.02858514 -0.010442202 -0.018196931 -0.027684828 0.028231192 -0.005474601 -0.0066254605
-0.026790492 -0.0085674925 -0.0001875714 -0.01329761 0.012762803 0.0021580758 -0.014163878 0.024306886
-0.04220643 0.020289421 -0.0073424764 -0.008616206 0.019992609 -0.03275248 -0.004546213 -0.019268794
-0.014189281 -0.0146514755 0.024513204 0.0003767679 0.03290964 -0.015891986 -0.016745051 0.0025736908
0.023504307 -0.017074939 0.012265181 -0.0048680417 0.035045695 -0.034361694 0.011321255 -0.028401114
-0.002227859 -0.008194256 0.0114030605 -0.007180408 -0.0276424 0.026009975 -0.0070202462 -0.0046286234
-0.025480049 0.0036836925 -0.007087143 -0.009066642 -0.016018996 -0.015919182 0.024617845 -0.0021010854
0.023791822 0.015181009 0.014391889 0.0019008763 -0.0035859765 0.005147913 -0.019404218 0.01655339
0.01935262 0.025892155 0.009232998 -0.014777561 -0.0063204356 0.013599028 -0.020196687 -1.3757595e-05
0.062612474 0.04125008 0.04861026 0.006180607 -0.026787734 -0.030641103 0.031927567 -0.09819766
-0.014944569 -0.053993285 0.062442 0.022058921 -0.01227345 0.107563294 -0.016279453 -0.044489853
0.06555713 0.03530322 -0.055922862 -0.03366662 -0.03492347 0.028009035 -0.00790305 -0.062596135
-0.068213366 -0.006512706 0.043662492 -0.05440786 -0.10878212 0.04036932 -0.038676012 -0.0010678167
0.07671915 0.021037553 0.021025008 0.046763636 -0.03309448 0.03383672 -0.033583146 0.024070533
-0.03963843 -0.021951325 0.040407363 0.022494545 0.032484174 -0.031625323 0.070428066 -0.056404255
0.03905874 -0.07843721 -0.08700339 -0.040690236 -0.04939448 -0.037887365 -0.049507804 0.027203089
0.049073856 0.025419647 0.033534676 0.03728088 0.04407268 -0.026804026 -0.085138194 0.017287936
0.0430312 0.022318237 0.016209032 -0.0034810675 -0.032785174 0.06086289 -0.00038317963 -0.05906828
0.026340565 0.053643316 -0.08234277 -0.017873816 -0.04929453 0.056669258 -0.0018674029 0.06953299
-0.033173397 -0.08130331 -0.018506948 0.056237083 -0.027253577 0.039638747 -0.030902512 -0.037979484
-0.053491596 0.045816272 0.059205275 -0.05637755 0.05632046 -0.09262765 -0.027060127 -0.031501636
-0.004560815 0.024793359 0.033235047 0.029806243 0.11920546 -0.08361815 0.03374125 -0.044481914
-0.04259251 -0.06846907 0.021825934 -0.050804336 0.0067890873 -0.0014130704 0.04834611 0.052115705
-0.09632221 0.015675198 0.054295346 -0.008489986 -0.007396717 0.093562335 0.03155083 0.05137428
-0.01996009 -0.05239122 -0.07644982 -0.04000396 -0.018664705 -0.0033069479 0.08433338 -0.025464194
00000000: 6cc3 2c3b aa8a 9fbb 17fb 56bc 6f52 ee3c
00000010: 108b 533c e2f0 723c 7cfd 543c 5fee cd3c
00000020: fe33 953b f4ba d13c 62af c7bc d47c edbc
00000030: 2e66 a13c e3a2 363c c4ae d2bb 0d32 26bc
00000040: 7270 883b ac7b 9a3b 043b 9d3c b047 903b
00000050: 9484 cbbc 6efe a63c 1303 13bd e750 12bb
00000060: 7df6 b5bc b46c d839 193f 123c ce08 9c3c
00000070: e471 09bc 7e61 2e3c b133 d4bc 042b a13c
00000080: f301 00bb 9c8d a8bb 7231 debb 29f4 ee3c
00000090: c989 0b3c 84a1 153c f7aa b03c bfdd d0bc
000000a0: 0c0e 273c 9404 cb3b f8c5 16bc f045 6a3b
000000b0: d148 01bc 497d b7bc 18b2 88bc c740 9dbc
000000c0: 016d d03c 4f6b dd3b b377 9538 edc0 20bd
000000d0: 529f 73bc 94bd bcbc 6eef dabc c946 ddbc
000000e0: 9c48 17bc 622b ea3c c515 2bbc bb11 95bc
000000f0: 4bcb e2bc 1a45 e73c 4864 b3bb 641a d9bb
00000100: bc77 dbbc ab5e 0cbc d0ae 44b9 38de 59bc
00000110: 131b 513c 816e 0d3b 9c0f 68bc 3c1f c73c
00000120: a6e0 2cbd 0036 a63c 2899 f0bb fd2a 0dbc
00000130: 8ac7 a33c 7727 06bd 66f8 94bb 97d9 9dbc
00000140: 287a 68bc be0c 70bc eacf c83c ee88 c539
00000150: 42cc 063d e92f 82bc eb2c 89bc 5eab 283b
00000160: 1b8c c03c bee0 8bbc e6f3 483c 1884 9fbb
00000170: 138c 0f3d d9be 0cbd c97c 393c 74a9 e8bc
00000180: 4601 12bb 3341 06bc e7d3 3a3c a149 ebbb
00000190: 5072 e2bc df12 d53c 180a e6bb b5ab 97bb
000001a0: 89bb d0bc 1b6a 713b 443b e8bb 418c 14bc
000001b0: 453a 83bc f268 82bc 5dab c93c 5db2 09bb
000001c0: 11e7 c23c c4b9 783c f5cb 6b3c d326 f93a
000001d0: b402 6bbb d3af a83b 98f5 9ebc fa9a 873c
000001e0: 6389 9e3c c91b d43c 0046 173c 951d 72bc
000001f0: a81b cfbb 75ce 5e3c 8673 a5bc 6cd0 66b7
00000200: f83a 803d d8f5 283d 8d1b 473d b086 ca3b
00000210: f371 dbbc 0d03 fbbc 7bc6 023d db1b c9bd
00000220: 11da 74bc 1028 5dbd 2fc3 7f3d e9b4 b43c
00000230: 9516 49bc 254a dc3d 7d5c 85bc fe3a 36bd
00000240: d142 863d 1c9a 103d 5f0f 65bd 02e6 09bd
00000250: ea0b 0fbd 3473 e53c cb7b 01bc 6732 80bd
00000260: 73b3 8bbd 8a68 d5bb 71d7 323d c7da 5ebd
00000270: 29c9 debd 4d5a 253d bd6a 1ebd fcf5 8bba
00000280: ee1e 9d3d f256 ac3c a33c ac3c 3a8b 3f3d
00000290: 148e 07bd 5f98 0a3d 7b8e 09bd 912f c53c
000002a0: e85b 22bd 44d3 b3bc 3182 253d 7b46 b83c
000002b0: 200e 053d 8e89 01bd 973c 903d 2608 67bd
000002c0: 0ffc 1f3d b0a3 a0bd d52e b2bd ceaa 26bd
000002d0: de51 4abd c82f 1bbd b2c8 4abd 03d9 de3c
000002e0: ab01 493d dd3c d03c a85b 093d d6b3 183d
000002f0: 8e85 343d 1e94 dbbc ef5c aebd 6e9f 8d3c
00000300: 7c41 303d bcd4 b63c cec8 843c 9f22 64bb
00000310: bf49 06bd 5e4b 793d 80e5 c8b9 95f1 71bd
00000320: 2bc8 d73c 18b9 5b3d 54a3 a8bd 1c6c 92bc
00000330: 10e9 49bd 061e 683d a5c3 f4ba 5067 8e3d
00000340: d4e0 07bd 5a82 a6bd e29b 97bc db58 663d
00000350: e542 dfbc 3d5c 223d 4427 fdbc 6090 1bbd
00000360: 011a 5bbd d8a9 3b3d 3b81 723d 25ec 66bd
00000370: 48b0 663d 91b3 bdbd 33ad ddbc dc07 01bd
00000380: e472 95bb 711b cb3c 7921 083d 392c f43c
00000390: fe21 f43d fe3f abbd 4434 0a3d ab32 36bd
000003a0: 7c75 2ebd 8339 8cbd 4dcc b23c 3518 50bd
000003b0: fe76 de3b c636 b9ba 9206 463d 4777 553d
000003c0: 9444 c5bd 4669 803c cc64 5e3d 9519 0bbc
000003d0: 2960 f2bb 9c9d bf3d 713b 013d d66d 523d
000003e0: 5883 a3bc 2d98 56bd b991 9cbd 31db 23bd
000003f0: b9e6 98bc 61b9 58bb fbb6 ac3d 499a d0bc

value_stream.0.bias f4 [128]
-0.01508649 0.11235695 -1.157499e-13 0.048543576 0.003108832 0.03742867 0.004147103 0.014175173
0.059059005 -0.06934337 0.009859438 -0.05307096 0.0494354 -0.02566302 0.16674595 0.024684072
0.102238014 -0.057474446 0.00030351133 0.11623607 -0.028226055 0.10902121 0.045254156 0.00609354
0.15848185 -0.042058006 0.019393208 0.054220732 0.037575316 0.11721802 -0.0065049203 0.008830298
-1.9827907e-12 0.0544905 0.058349848 -0.0077121793 -0.056229714 -0.08677359 0.09512413 -0.059773736
0.07872513 0.088334724 0.07924322 0.049113087 0.08054051 0.11650785 0.123909935 -0.016415782
0.00026685803 0.06330238 0.0036438678 -5.5365755e-21 -0.013985293 -0.014444756 0.029920328 -0.062053334
0.12735109 0.13077946 0.064424306 0.12508157 -3.493401e-06 0.06022725 -0.0178893 -0.008471328
0.10215893 -0.008414055 -0.084091075 -0.07412308 -0.082841076 -0.038204998 -0.03042964 -7.006476e-05
-0.043515805 -0.031038772 0.0582831 0.054181147 0.0130303465 -0.11667029 0.09181867 0.07977497
-0.06671012 0.021509884 0.15577745 0.04755153 0.046583027 -0.008673199 -3.573374e-11 -0.0327197
-0.06352148 -5.555822e-05 -0.08386583 -0.019563904 0.13062003 -0.0002759204 -1.6682819e-25 0.0040111346
-0.009460841 -9.87998e-07 0.021785289 -0.025636848 -0.05307714 0.010455409 -0.030003468 0.13764933
0.048855968 0.03605796 -0.061183516 0.1485365 0.028758436 0.10670448 0.13120618 -0.0011406882
0.07115741 0.03663036 0.08431118 0.111769445 0.04416403 0.035994343 -0.06681398 -0.09637596
-0.050224975 0.12610035 0.090298 -0.011815083 0.0036365155 -0.03982859 0.074324936 -3.3728458e-16
00000000: 532d 77bc 671b e63d a352 02aa a1d5 463d
00000010: 8cbd 4b3b ce4e 193d 6ce4 873b fc3e 683c
00000020: dbe7 713d e603 8ebd 7b89 213c ef60 59bd
00000030: c67c 4a3d 413b d2bc 73bf 2a3e 4036 ca3c
00000040: 2a62 d13d 536a 6bbd 9a20 9f39 2d0d ee3d
00000050: 543a e7bc 8346 df3d 6c5c 393d 52ac c73b
00000060: 1149 223e 0445 2cbd 81de 9e3c 8f16 5e3d
00000070: 93e8 193d 0010 f03d 3a27 d5bb f4ac 103c
00000080: c886 0bac 6e31 5f3d 4000 6f3d 73b6 fcbb
00000090: 2151 66bd 5ab6 b1bd 71d0 c23d 4ed5 74bd
000000a0: a43a a13d d6e8 b43d 454a a23d ce2a 493d
000000b0: 6cf2 a43d ab9b ee3d 7ec4 fd3d 647a 86bc
000000c0: 14e9 8b39 aea4 813d f5cd 6e3b 792a d19d
000000d0: 9222 65bc b3a9 6cbc 7a1b f53c a32b 7ebd
000000e0: 5368 023e 0deb 053e e4f0 833d 6215 003e
000000f0: 2c70 6ab6 d9b0 763d 958c 92bc 53cb 0abc
00000100: b338 d13d 1bdb 09bc f137 acbd d7cd 97bd
00000110: 95a8 a9bd d87c 1cbd 9547 f9bc bbef 92b8
00000120: a13d 32bd 0645 febc 43ba 6e3d 0ded 5d3d
00000130: 3c7d 553c d5f0 eebd 6d0b bc3d 0f61 a33d
00000140: 519f 88bd 7f35 b03c 2084 1f3e 65c5 423d
00000150: d8cd 3e3d 091a 0ebc 9d28 1dae 1805 06bd
00000160: 8d17 82bd 2f07 69b8 d9c1 abbd 7b44 a0bc
00000170: 42c1 053e 69a9 90b9 f785 4e96 d66f 833b
00000180: a501 1bbc 5a9b 84b5 1077 b23c 5e04 d2bc
00000190: 6a67 59bd 2a4d 2b3c d5c9 f5bc f2f3 0c3e
000001a0: 321d 483d 83b1 133d 919b 7abd f419 183e
000001b0: d096 eb3c e187 da3d ea5a 063e 2583 95ba
000001c0: faba 913d b709 163d 57ab ac3d 61e7 e43d
000001d0: 58e5 343d ce6e 133d c5d5 88bd c260 c5bd
000001e0: b4b8 4dbd 7320 013e 28ee b83d 0d94 41bc
000001f0: 9b52 6e3b 4e23 23bd ac37 983d 6b6e c2a5

value_stream.2.weight f4 [1, 128]
-0.008777119 0.05328807 5.742027e-06 0.1046218 0.022215225 0.05776176 -0.03021584 0.05503626
0.09556948 -0.03834502 -0.047169678 -0.0039864075 0.06747358 -0.023584425 0.05124658 0.08002423
0.08883398 -0.008387805 -0.024821209 0.11139804 -0.03277934 0.11512497 0.07800238 0.0016823728
0.10086247 0.10044948 -0.005280192 0.049275964 0.03568644 0.076469496 0.0016984995 0.07226437
1.0876313e-21 -0.014658302 0.10307653 -0.05291772 -0.02608209 -0.013140983 0.07171119 -0.03745535
0.086936764 0.05622967 0.08334578 -0.03525881 0.05194428 0.081127234 0.04740531 0.0007997679
0.035878986 -0.005303539 -0.060244195 -3.9845087e-09 0.024729347 -0.0067674895 -0.014871769 0.011776636
0.03349235 0.106777325 -0.058114626 0.105761684 1.1038176e-12 0.04753118 0.008603346 -0.000116349685
0.040661417 -0.001410762 -0.029044693 -0.017503789 -0.039797224 0.0063720974 0.013090524 0.06883286
0.038226876 0.005514023 -0.034996588 0.010420531 -0.035533033 -0.052976806 0.06473032 0.11884671
0.04278997 -0.048412748 0.07499739 -0.0087423995 0.061646275 0.10418469 -1.7957214e-11 0.050026234
-0.032576457 4.480735e-07 0.034264263 -0.037522994 0.0970755 -0.059596322 5.0502377e-11 0.055068508
-0.0032129507 -1.5058898e-16 -0.030041572 -0.00037557847 -0.026063025 -0.0365237 0.0026539795 0.07320015
-0.034901664 0.0778198 -0.04238436 0.07197656 0.044665918 0.08723889 0.061051387 0.00050735334
0.10776428 0.11540353 0.020848349 0.047517184 0.11834237 -0.06372022 0.09944701 0.02635896
-0.0044549946 0.050586205 0.06682679 -0.03670504 0.083784275 0.0046837684 0.03654859 4.92164e-40
00000000: e8cd 0fbc 9744 5a3d a3ab c036 f443 d63d
00000010: b4fc b53c 9897 6c3d 3687 f7bc b46d 613d
00000020: eeb9 c33d ab0f 1dbd fe34 41bd 69a0 82bb
00000030: 972f 8a3d 2034 c1bc efe7 513d bee3 a33d
00000040: 97ee b53d 016d 09bc d955 cbbc a824 e43d
00000050: a143 06bd a4c6 eb3d b6bf 9f3d 1083 dc3a
00000060: fc90 ce3d 75b8 cd3d 7605 adbb 98d5 493d
00000070: f22b 123d 0a9c 9c3d 30a0 de3a 58ff 933d
00000080: b35b a41c 6029 70bc ca19 d33d 40c0 58bd
00000090: 1baa d5bc 474d 57bc 51dd 923d c86a 19bd
000000a0: e70b b23d 1551 663d 31b1 aa3d 8b6b 10bd
000000b0: 86c3 543d 0926 a63d 122c 423d 84a7 513a
000000c0: d8f5 123d 4fc9 adbb 9ec2 76bd 1ce8 88b1
000000d0: 3395 ca3c d1c1 ddbb b8a8 73bc cbf2 403c
000000e0: 462f 093d 12ae da3d 9a09 6ebd 9599 d83d
000000f0: 3859 9b2b 0eb0 423d 0cf5 0c3c c300 f4b8
00000100: 968c 263d 51e9 b8ba 23ef edbc 1b64 8fbc
00000110: 6a02 23bd 07cd d03b a379 563c 3ef8 8c3d
00000120: c993 1c3d faae b43b 9558 0fbd e0ba 2a3c
00000130: 168b 11bd 35fe 58bd 5491 843d e765 f33d
00000140: 8944 2f3d 724c 46bd 3b98 993d 483c 0fbc
00000150: ce80 7c3d c85e d53d 0df4 9dad 4fe8 4c3d
00000160: e46e 05bd c18e f034 af58 0c3d b6b1 19bd
00000170: 85cf c63d 461b 74bd 9f1c 5e2e 848f 613d
00000180: 5e90 52bb 069e 2da5 be19 f6bc 4ae9 c4b9
00000190: 2082 d5bc e099 15bd 63ee 2d3b f6e9 953d
000001a0: 0cf5 0ebd fd5f 9f3d 399b 2dbd 7268 933d
000001b0: 9cf3 363d 4eaa b23d 0511 7a3d e8ff 043a
000001c0: 85b3 dc3d b058 ec3d 28ca aa3c 61a1 423d
000001d0: 7c5d f23d bf7f 82bd e0aa cb3d bfee d73c
000001e0: 34fb 91bb 7b33 4f3d 7cdc 883d 0658 16bd
000001f0: 1797 ab3d 4c7a 993b f9b3 153d f45b 0500

advantage_stream.0.weight f4 [128, 128]
-0.032127168 -0.03505345 -0.09157515 0.010937532 -0.05988577 -0.051740848 0.060649864 0.034329552
0.101431906 -0.07865634 0.0407904 -0.004944205 -0.09335608 0.025224276 0.03518493 0.054255478
0.07647492 0.06718624 0.07166603 -0.10021079 0.08067541 0.06459435 0.06299898 -0.08045761
0.07052082 0.033073317 0.06777067 0.029031064 0.12097204 -0.051855132 -0.16450171 -0.007286993
0.10135534 -0.08446266 -0.04754801 -0.011440879 -0.083711766 -0.009676494 0.15793864 0.11118754
-0.108183384 0.083223246 -0.026242847 -0.080319725 0.055608254 -0.112989105 0.17266397 -0.016932616
0.025415635 -0.076862924 0.014262774 0.0415013 0.0145419 0.024719527 -0.061177984 0.07434473
0.12367384 0.078492925 -0.04638041 0.14161028 -0.10134561 -0.04841119 0.02986947 0.0689866
0.1220675 0.00037347007 -0.026702376 -0.06120758 -0.027013633 -0.08362583 0.11941734 0.07507492
-0.09235804 -0.03079177 -0.058065522 0.0118627045 0.037764087 -0.04222461 -0.07742896 0.012419348
-0.015652696 0.111683756 0.025852408 -0.0033666748 0.02077498 0.008103423 -0.05874514 -0.09162565
-0.0273174 0.04364309 -0.0047913287 0.020575203 -0.004898923 -0.10163096 -0.026604846 0.05852878
-0.09602707 -0.07027037 0.0046997773 -0.08061246 -0.029890891 0.13135536 0.0041043186 -0.031508647
-0.07311396 -0.096567996 0.0038024446 0.019984456 0.034506198 0.07084612 -0.11550019 -0.05603463
-0.074957654 -0.018614653 -0.17167887 -0.114673965 -0.03352191 0.05164574 0.084883586 -0.0764729
-0.043896955 -0.09698272 -0.099615686 0.020810567 0.07085823 -0.09491984 0.07196226 0.044261754
-0.092187606 0.024041852 -0.06536545 0.04756102 -0.11604373 -0.067204446 0.020086026 -0.00086429046
0.0057693073 -0.09024546 -0.050820872 -0.047587033 -0.05711254 -0.052579906 0.068198316 0.040365174
-0.0182046 0.033047915 0.07851426 -0.10652379 -0.07760749 -0.00091794424 -0.07364597 0.07332648
0.01436875 -0.0151528735 0.008352185 0.06438892 -0.0360077 -0.05923676 -0.03869076 0.010828636
0.09552447 -0.102354676 0.049921084 -0.040960606 -0.0423458 -0.0036620812 0.108146824 0.071684256
0.03189252 -0.018646521 -0.02476683 -0.087690555 -0.033205334 -0.057037525 -0.04271518 -0.085443325
-0.056130122 0.023277665 -0.028315894 -0.043983698 0.070125714 -0.07568818 0.01875424 0.013914987
0.15464386 -0.016969599 -0.044682946 -0.00052984746 0.084426954 -0.05332773 0.11066126 0.045086283
-0.030081542 0.09070526 0.024360284 0.011144583 0.10782208 0.07668194 0.02119317 -0.078147426
0.047843754 0.1447304 0.072248325 -0.012141895 0.030062953 0.035129737 0.02947659 0.13307244
-0.0464375 0.08225798 -0.015261767 0.030433679 0.07059206 -0.05656413 -0.027145535 0.056465287
-0.025672374 0.05908386 0.022804918 0.015074333 0.037407186 0.07674049 -0.048300553 0.08516114
0.08267627 -0.026605675 -0.07966855 -0.10182456 -0.015980756 0.0716848 -0.0656546 0.0029746513
-0.08421471 -0.057373416 0.03886203 0.045474082 -0.011389745 0.008571095 0.03184847 -0.0620647
0.012288885 -0.0017508831 -0.0004638805 -0.04520971 0.004161657 0.020579727 0.0926107 0.020099228
0.031858627 0.022323744 0.083567776 0.099592365 -0.085584626 -0.017562581 0.034012605 0.052381787
00000000: c797 03bd 3594 0fbd c18b bbbd 5633 333c
00000010: c84a 75bd 36ee 53bd fe6b 783d 259d 0c3d
00000020: 88bb cf3d 9316 a1bd d613 273d ff02 a2bb
00000030: 7931 bfbd 24a3 ce3c 131e 103d fe3a 5e3d
00000040: e29e 9c3d f098 893d a4c5 923d 513b cdbd
00000050: 2639 a53d 0b4a 843d 9c05 813d f6c6 a4bd
00000060: 386d 903d e377 073d 59cb 8a3d 8ed2 ed3c
00000070: 30c0 f73d 0c66 54bd 2373 28be bac7 eebb
00000080: 6393 cf3d c2fa acbd b4c1 42bd 8672 3bbc
00000090: 1371 abbd 288a 1ebc abba 213e 4bb6 e33d
000000a0: 408f ddbd f370 aa3d 3dfb d6bc ab7e a4bd
000000b0: 7bc5 633d d566 e7bd d3ce 303e 45b6 8abc
000000c0: 7334 d03c 4f6a 9dbd 69ae 693c 44fd 293d
000000d0: 2641 6e3c 9b80 ca3c c495 7abd 0d42 983d
000000e0: b648 fd3d e6c0 a03d 63f9 3dbd 4902 113e
000000f0: 4a8e cfbd d04a 46bd d2b0 f43c d948 8d3d
00000100: 87fe f93d 4ece c339 f1be dabc cdb4 7abd
00000110: b24b ddbc 0544 abbd 1491 f43d e1c0 993d
00000120: 3626 bdbd 063f fcbc 1dd6 6dbd ca5b 423c
00000130: 84ae 1a3d b6f3 2cbd 1393 9ebd 857a 4b3c
00000140: 153a 80bc 74ba e43d 6ec8 d33c 6ea3 5cbb
00000150: 4a30 aa3c 38c4 043c be9e 70bd 3ba6 bbbd
00000160: bdc8 dfbc 19c3 323d 9400 9dbb 548d a83c
00000170: 2587 a0bb e523 d0bd 68f2 d9bc e0bb 6f3d
00000180: d7a9 c4bd e9e9 8fbd 9700 9a3b 2518 a5bd
00000190: bedd f4bc 0582 063e 857d 863b 360f 01bd
000001a0: c6bc 95bd 71c5 c5bd 6f32 793b 71b6 a33c
000001b0: 5f56 0d3d c517 913d 5d8b ecbd 9184 65bd
000001c0: 6683 99bd c27d 98bc 96cc 2fbe 2fda eabd
000001d0: 454e 09bd 7c8a 533d 72d7 ad3d d39d 9cbd
000001e0: 4bcd 33bd e09e c6bd 4f03 ccbd ec7a aa3c
000001f0: 1f1e 913d 5565 c2bd f360 933d d04b 353d
00000200: dbcc bcbd 6bf3 c43c 52de 85bd 58cf 423d
00000210: 56a8 edbd 7ca2 89bd 738b a43c 8d91 62ba
00000220: 750c bd3b 9dd2 b8bd 8c29 50bd 9fea 42bd
00000230: d7ee 69bd 075e 57bd 8fab 8b3d f455 253d
00000240: d021 95bc 405d 073d 16cc a03d 2529 dabd
00000250: adf0 9ebd 32a2 70ba b3d3 96bd 322c 963d
00000260: e86a 6b3c c243 78bc 9ad7 083c 57de 833d
00000270: cf7c 13bd 3fa2 72bd 347a 1ebd 976a 313c
00000280: 55a2 c33d 549f d1bd 0d7a 4c3d 4fc6 27bd
00000290: ca72 2dbd 87ff 6fbb 157c dd3d 32cf 923d
000002a0: bba1 023d 97c0 98bc cfe3 cabc 1b97 b3bd
000002b0: 5102 08bd 2ea0 69bd 1df6 2ebd e9fc aebd
000002c0: b3e8 65bd cdb0 be3c bcf6 e7bc 4028 34bd
000002d0: 129e 8f3d 6802 9bbd 7ea2 993c b0fb 633c
000002e0: f65a 1e3e d403 8bbc 7705 37bd 76e5 0aba
000002f0: 0ae8 ac3d 2e6e 5abd 5fa2 e23d 65ac 383d
00000300: 916d f6bc aec3 b93d 388f c73c c597 363c
00000310: d3d1 dc3d 6c0b 9d3d 4d9d ad3c c20b a0bd
00000320: d0f7 433d 3534 143e eef6 933d ccee 46bc
00000330: 9546 f63c 33e4 0f3d e478 f13c 2444 083e
00000340: 3f35 3ebd df76 a83d 7e0c 7abc 0d50 f93c
00000350: 9292 903d caaf 67bd 5060 debc 2548 673d
00000360: df4e d2bc eb01 723d 61d1 ba3c 56fa 763c
00000370: 4738 193d 1e2a 9d3d cdd6 45bd f768 ae3d
00000380: 2d52 a93d 25f4 d9bc 4429 a3bd 6589 d0bd
00000390: 13ea 82bc 7bcf 923d eb75 86bd 5ef2 423b
000003a0: c378 acbd 6300 6bbd cb2d 1f3d 0843 3a3d
000003b0: 0e9c 3abc c76d 0c3c 8b73 023d 8e37 7ebd
000003c0: 5257 493c e37d e5ba fd34 f3b9 d12d 39bd
000003d0: 825e 883b d196 a83c aeaa bd3d 23a7 a43c
000003e0: 317e 023d 49e0 b63c 9525 ab3d 15f7 cb3d
000003f0: fe46 afbd 67df 8fbc cd50 0b3d 498e 563d

advantage_stream.0.bias f4 [128]
0.083012275 0.0036892963 0.10034768 0.002426636 -1.4094547e-06 0.109444745 0.060527258 -0.06210632
0.096959844 0.09895424 0.06526857 -0.015520739 0.045767836 0.063945524 0.08776421 0.119348355
0.080356926 0.055242527 0.05953228 -0.041399635 0.09722781 0.03671636 0.061809916 0.06290187
0.030057436 0.13785842 0.0976398 -0.010984719 0.07857841 0.060832076 0.067963876 0.049500164
0.0025838825 -1.1965993e-05 0.08091789 0.0007819224 -0.0062040873 0.0036480404 0.02278007 0.025226438
-0.044127923 0.046219304 0.005625537 0.018172897 0.037716575 0.101238854 0.024988571 -2.7629516e-05
-0.037047252 0.007162052 0.095352225 0.08318236 0.06890973 0.019345343 0.093139544 0.01520601
0.112276115 -0.067277975 0.085659236 -0.042972222 -0.008360696 0.09487659 0.053682566 0.032404635
-0.030781236 0.04970019 -0.005098642 -0.010924323 0.020574046 0.09849945 0.08708144 0.08493366
0.030767418 -0.015478362 -0.008045274 -0.019389577 0.08124781 0.0771037 0.0022492423 0.07522126
0.06458124 0.08324414 0.02638365 -0.0042530103 0.039478898 -0.024057765 -0.0047140648 0.002865244
-0.06321136 0.10231656 -0.03525032 0.010855374 0.010093034 -0.022102397 0.11233906 0.093986906
0.041110042 -0.020417366 -7.404677e-08 0.037867587 -0.017367179 0.12075172 0.112161204 -0.040695325
0.03020192 -0.026796632 -0.0008258896 -0.028475843 -0.06655588 0.073467456 0.049440466 0.058407776
-0.032332323 0.11286426 0.11656153 0.039125763 0.036831565 0.13125539 0.049027473 0.09397433
-0.013096697 0.029305195 -0.018803319 0.057837225 0.008927259 0.016993811 0.091689825 0.1138176
00000000: 5702 aa3d 1fc8 713b 1683 cd3d 3208 1f3b
00000010: 7f2c bdb5 9124 e03d 6eeb 773d 3263 7ebd
00000020: e292 c63d 85a8 ca3d 87ab 853d b34a 7ebc
00000030: 0e77 3b3d dff5 823d b9bd b33d e96c f43d
00000040: 2c92 a43d fd45 623d 1fd8 733d aa92 29bd
00000050: 601f c73d e563 163d 652c 7d3d b2d2 803d
00000060: 033b f63c c22a 0d3e 60f7 c73d 40f9 33bc
00000070: b8ed a03d 0e2b 793d a530 8b3d afc0 4a3d
00000080: 5b56 293b 8cc1 48b7 47b8 a53d edf9 4c3a
00000090: a84b cbbb f613 6f3b 459d ba3c ada7 ce3c
000000a0: 7bbf 34bd 7450 3d3d 6d56 b83b 54df 943c
000000b0: b27c 1a3d 5156 cf3d d5b4 cc3c efc5 e7b7
000000c0: dcbe 17bd a6af ea3b 0748 c33d 835b aa3d
000000d0: 8b20 8d3d 207a 9e3c f2bf be3d a122 793c
000000e0: 05f1 e53d 09c9 89bd 1c6e af3d a403 30bd
000000f0: 4dfb 08bc a84e c23d 40e2 5b3d b9ba 043d
00000100: ee28 fcbc 6d92 4b3d 8212 a7bb effb 32bc
00000110: e78a a83c 14ba c93d c157 b23d b3f1 ad3d
00000120: f40b fc3c f598 7dbc 53d0 03bc e4d6 9ebc
00000130: 4065 a63d 8be8 9d3d 0668 133b 9b0d 9a3d
00000140: 2b43 843d e77b aa3d 8622 d83c d65c 8bbb
00000150: a0b4 213d ca14 c5bc 7178 9abb d1c6 3b3b
00000160: f574 81bd 588b d13d a462 10bd bdda 313c
00000170: 415d 253c 1610 b5bc 0512 e63d 357c c03d
00000180: 0163 283d 5242 a7bc a403 9fb3 0b1b 1b3d
00000190: 9d45 8ebc ae4c f73d c6b4 e53d 24b0 26bd
000001a0: 046a f73c 9c84 dbbc 8380 58ba 2c46 e9bc
000001b0: 734e 88bd 1b76 963d 1682 4a3d fe3c 6f3d
000001c0: e66e 04bd 6125 e73d d0b7 ee3d 5642 203d
000001d0: b2dc 163d d067 063e 08d1 483d 9d75 c03d
000001e0: 8793 56bc 7311 f03c 6b09 9abc bae6 6c3d
000001f0: a343 123c 9b36 8b3c e0c7 bb3d 3419 e93d

advantage_stream.2.weight f4 [1000, 128]
-0.03939272 0.04252412 0.057435114 -0.077651985 4.90833e-40 0.066488355 0.028323561 -0.024371274
0.006962315 0.113924004 -0.020565828 -0.0227766 0.1069158 0.09820305 -0.035069056 0.10461714
-0.07072024 0.032599583 0.06265235 -0.003715398 0.0069423257 -0.0051852977 0.09162303 -0.0987289
-0.097418964 0.08875203 0.07703855 -0.010368864 -0.063465 0.014955583 0.02200379 0.06456011
0.022817032 1.2252872e-36 0.07792238 -0.093459606 0.08757907 0.019504074 -0.09946054 0.013614033
0.069923185 0.045950416 0.119109266 0.10660541 0.08169845 -0.051571507 0.023085263 5.04242e-40
-0.058233816 -0.032054458 0.05820101 -0.050153926 0.0758758 -0.06519129 -0.0078919 0.036178436
0.046705846 0.029158166 0.0065594967 0.002350796 0.05541497 -0.038342014 0.01542082 -0.060989153
0.036042232 0.00959327 6.648692e-09 0.028478744 -0.0061228275 0.03128758 -0.032410063 0.0037569692
-0.009376766 0.0012648114 0.004812063 -0.05121504 -0.008212484 -0.044690933 -0.10100021 0.047077008
-0.048666272 0.055463925 0.0054353294 0.012228165 -0.04514293 0.0543383 -0.06838305 0.003235287
0.030479144 0.04876846 -0.04547241 -0.027140545 -0.00307841 0.050685827 0.034350324 0.0805421
0.11989611 0.021828301 -4.92327e-40 0.0074361544 0.0926709 -0.036514092 -0.05118744 -0.032804616
0.026385315 -0.011201227 0.04372798 -0.00556257 0.0053154053 0.088259906 0.021325821 -0.08038718
0.08165543 -0.051681336 0.03732988 -0.007559422 -0.008420513 0.061205767 0.045801125 0.051511247
0.043817747 -0.032040656 -0.030703368 -0.04971373 0.029229729 0.072798364 0.02883012 -0.0053809863
0.02193387 -0.047284182 -0.008960156 -0.044629186 -4.94983e-40 0.094931714 0.03375751 -0.026695622
-0.08578053 -0.04136212 -0.029064786 -0.08840918 -0.006701802 0.079455875 -0.080615774 -0.007793423
-0.11864387 0.051027026 -0.0151696475 0.0053773015 0.039123926 0.016492484 -0.067638576 0.056956057
-0.065672785 0.013104746 0.011394703 -0.027189072 0.06881395 -0.053330384 0.08948963 -0.07030387
-0.059602086 -4.94947e-40 0.01973471 -0.009346171 -0.059083425 -0.088968255 -0.0031457033 0.049602345
0.00260606 -0.004715762 0.056768604 0.036739647 -0.075674005 0.050879236 0.023061767 7.03311e-20
-0.033758894 0.07401097 0.062407646 -0.051554877 0.065895095 -0.054234855 -0.06773202 -0.0069227447
-0.02561551 -0.038410243 0.048537083 -0.06731951 0.045960125 -0.058872774 0.055973597 -0.08861864
0.024065375 0.06328134 -2.5531385e-06 -0.08150577 -0.03862946 0.04888914 0.0038536086 0.046683636
-0.07934674 0.024058158 -0.059980724 0.0015967668 0.09383584 0.042398628 0.04330148 0.060288616
-0.07900323 0.034910295 0.027682265 -0.11232453 -0.010927392 -0.10219834 0.047718737 -0.024326507
-0.015662305 0.051794376 -9.528262e-05 0.025215767 0.0704202 0.051498394 -0.07142467 -0.022611829
0.023007663 0.0129115535 4.91424e-40 0.009733841 0.0025941124 -0.0017786983 0.04202972 -0.072731026
0.028631713 -0.00075356243 -0.0010166608 -0.1276668 0.005882427 0.0640457 0.016016662 -0.08093287
-0.031017909 -0.0023726379 0.08140605 0.0067194025 0.057587788 0.07872909 -0.0674738 0.031187302
-0.06625334 -0.03855952 -0.04078478 0.085795246 -0.0026007467 -0.022361863 0.031903494 -0.040890872
00000000: 435a 21bd c62d 2e3d 1541 6b3d 0108 9fbd
00000010: 3e58 0500 0c2b 883d d006 e83c 44a6 c7bc
00000020: 2224 e43b fd50 e93d ab79 a8bc fe95 babc
00000030: acf6 da3d ae1e c93d 92a4 0fbd 8341 d63d
00000040: c6d5 90bd 2487 053d e04f 803d 097e 73bb
00000050: 737c e33b 6ee9 a9bb dba4 bb3d 6132 cabd
00000060: 9883 c7bd a0c3 b53d 63c6 9d3d 2be2 29bc
00000070: f0f9 81bd 4308 753c 4b41 b43c 1738 843d
00000080: c9ea ba3c c978 d003 c595 9f3d c067 bfbd
00000090: a85c b33d 02c7 9f3c f8b1 cbbd 650d 5f3c
000000a0: e333 8f3d 8136 3c3d 8fef f33d f053 da3d
000000b0: 8451 a73d a53c 53bd 4e1d bd3c 9f7d 0500
000000c0: 9586 6ebd 894b 03bd 2f64 6e3d 346e 4dbd
000000d0: c564 9b3d 0383 85bd 074d 01bc d72f 143d
000000e0: a14e 3f3d 1bdd ee3c 0cf1 d63b d00f 1a3b
000000f0: cffa 623d 840c 1dbd 9ba7 7c3c c3cf 79bd
00000100: 05a1 133d 172d 1d3c 8372 e431 414c e93c
00000110: 00a2 c8bb 6827 003d 6ac0 04bd 7c37 763b
00000120: 02a1 19bc 07c8 a53a 83ae 9d3b ddc6 51bd
00000130: a88d 06bc d70d 37bd 33d9 cebd d2d3 403d
00000140: 4956 47bd 242e 633d d91a b23b a458 483c
00000150: cbe7 38bd d691 5e3d 6a0c 8cbd 1c07 543b
00000160: 66af f93c 70c1 473d 4741 3abd d955 debc
00000170: 26bf 49bb f19b 4f3d edb2 0c3d 42f3 a43d
00000180: 178c f53d 44d1 b23c 685c 0580 fcaa f33b
00000190: 3eca bd3d cd8f 15bd eca9 51bd 225e 06bd
000001a0: 0426 d83c 5a85 37bc 1c1c 333d 3846 b6bb
000001b0: da2c ae3b 9cc1 b43d 7db3 ae3c 09a2 a4bd
000001c0: f63a a73d cfaf 53bd 37e7 183d 07b5 f7bb
000001d0: 31f6 09bc e6b2 7a3d f699 3b3d 75fd 523d
000001e0: 3d7a 333d 103d 03bd a185 fbbc a0a0 4bbd
000001f0: 2f73 ef3c 4f17 953d 252d ec3c fc52 b0bb
00000200: a9ae b33c 0fad 41bd 9ecd 12bc 18cd 36bd
00000210: d063 0580 8f6b c23d 5145 0a3d c7b0 dabc
00000220: b4ad afbd 546b 29bd 4619 eebc df0f b5bd
00000230: ca9a dbbb c3b9 a23d e219 a5bd f85f ffbb
00000240: 8ffb f2bd b701 513d 1d8a 78bc 1334 b03b
00000250: 6940 203d 3f1b 873c 1886 8abd c14a 693d
00000260: 747f 86bd 4ab5 563c d9b0 3a3c 9ebb debc
00000270: 54ee 8c3d f670 5abd 5746 b73d 7afb 8fbd
00000280: 5121 74bd b663 0580 b0aa a13c af20 19bc
00000290: 7601 72bd fd34 b6bd 2528 4ebb d42b 4b3d
000002a0: 6eca 2a3b ae86 9abb 3286 683d 507c 163d
000002b0: f9fa 9abd bf66 503d 08ec bc3c 8b10 a61f
000002c0: c446 0abd 1093 973d 299f 7f3d 352b 53bd
000002d0: 02f4 863d 5e25 5ebd 16b7 8abd 31d8 e2bb
000002e0: 9ed7 d1bc 0f54 1dbd d2ce 463d d0de 89bd
000002f0: af40 3c3d 9424 71bd 9244 653d b17d b5bd
00000300: c024 c53c a699 813d 9656 2bb6 7fec a6bd
00000310: ed39 1ebd fb3f 483d d38c 7c3b 5737 3f3d
00000320: 8b80 a2bd 9d15 c53c 59ae 75bd 9a4a d13a
00000330: 012d c03d 2faa 2d3d e55c 313d 32f1 763d
00000340: 72cc a1bd 19fe 0e3d ebc5 e23c 670a e6bd
00000350: ce08 33bc 5d4d d1bd b974 433d 6248 c7bc
00000360: 3c4e 80bc 5726 543d 78d2 c7b8 4c91 ce3c
00000370: 7738 903d fbef 523d 1947 92bd 713c b9bc
00000380: 917a bc3c fb8a 533c e459 0500 b07a 1f3c
00000390: fc01 2a3b 3623 e9ba 5b27 2c3d 01f4 94bd
000003a0: 0e8d ea3c b88a 45ba 7a41 85ba 16bb 02be
000003b0: 60c1 c03b 642a 833d 6035 833c 22c0 a5bd
000003c0: 4519 febc 427e 1bbb 37b8 a63d 6f2e dc3b
000003d0: 2ce1 6b3d b83c a13d b42f 8abd 837c ff3c
000003e0: d5af 87bd 96f0 1dbd f10d 27bd 6bb5 af3d
000003f0: 4a71 2abb 3a30 b7bc 3dad 023d 307d 27bd
