models/Dueling_DDQN_20251205_193312.pt (torch, 822722 bytes, 11 tensors)

feature_layer.0.weight f4 [128, 200]
000000 a7 05 92 3d 70 08 47 bb a1 ae 2e bd 6b de 6a bb
       0.07129984 -0.003037002 -0.042647008 -0.0035838138
000010 32 58 cb bd 2b 73 33 3c f9 78 e6 bd 0e 91 ba 3c
       -0.09928931 0.010952751 -0.112535425 0.022774246
000020 54 32 2a bd 7e ee 98 3d 36 f7 26 3d 87 f6 23 bb
       -0.041551903 0.07467364 0.040763102 -0.0025018768
000030 79 07 bb bc 0b 57 18 bd d0 e0 e8 bd 75 be f1 3d
       -0.022830712 -0.037192386 -0.113710046 0.11803905
000040 8e bf 56 3d 1e a2 6d 3d 2a 9c 96 bd f0 23 28 bd
       0.052428775 0.058015935 -0.07354005 -0.041049898
000050 dd bb 4f bd 78 7b 58 3d da c3 a8 3d c5 92 14 3c
       -0.05071627 0.052852124 0.08240481 0.009068196
000060 de ec c0 3c bb 71 8a 3d 41 19 aa bb 1f e0 8f 3c
       0.023550447 0.067599736 -0.005190999 0.017562924
000070 5f be fe 3c cc b5 8c bd 20 1a 14 bd ea 4e 40 bd
       0.031096635 -0.068706125 -0.036157727 -0.04695026
000080 f8 06 a5 bc 62 47 2b 3d 4b 6f 80 bd 1c 11 8e bc
       -0.020144925 0.041816123 -0.062712274 -0.017342143
000090 39 eb 70 3d 16 f6 aa 3d 66 b0 18 bd 73 03 83 3c
       0.058818076 0.083477184 -0.0372776 0.015992856
0000a0 77 f1 4b bc 7f 26 9a 3b 99 7d 10 3d 68 5b a9 bc
       -0.012447706 0.004704296 0.03527603 -0.020673469
0000b0 7b f1 a7 3d eb 9e c6 bb 6d 86 1b 3d 33 25 85 3b
       0.082003556 -0.006061425 0.037969995 0.0040632724
0000c0 5d cd 15 3d 88 47 9c bd 44 34 1b bd 51 5e c1 bd
       0.036572803 -0.07630831 -0.03789164 -0.094418176
0000d0 a6 3a 89 3b 9a 14 10 3d 5b d2 3b bd 27 4a b4 bd
       0.0041878996 0.035175897 -0.045854907 -0.08803206
0000e0 5a 9e 62 3b 9b b6 b4 bb 4f ab ed 3b 35 71 05 3e
       0.0034579248 -0.0055149323 0.0072530876 0.13031466
0000f0 53 95 fa 3c fb 7e ae 3b da 2f ff bc 89 a2 b8 bb
       0.030588781 0.005325196 -0.031150747 -0.00563461
000100 61 c9 4e 3d 69 84 5e 3d 08 87 4c 3d bb 3f cb 3c
       0.05048502 0.054325495 0.049933463 0.024810662
000110 d1 4b 5a bd c9 7b 5d 3b fe 63 7f bc 1f fd 25 3d
       -0.05329496 0.0033795706 -0.015587805 0.0405246
000120 5a a5 85 3c 58 e5 32 bc 89 c1 0e 3b e0 38 4d bd
       0.016314197 -0.010918938 0.0021782836 -0.05010307
000130 b8 99 fc bc 6d 0e b6 bc 0a d0 5e bc d3 e1 b3 3c
       -0.030835018 -0.022223676 -0.013599405 0.021958267
000140 77 86 d2 3b fd 34 44 3d d4 49 9f 3b b0 3e 61 3d
       0.006424721 0.047902096 0.004861096 0.054991424
000150 f1 8e bb 39 12 8b 18 3d a9 a2 9b 3c 81 24 ea bc
       0.0003577392 0.037242003 0.01899846 -0.02858186
000160 e9 e6 7b bd 8e 1b 08 bd 4b 74 91 bd 40 66 91 3d
       -0.06149951 -0.033229403 -0.07102259 0.07099581
000170 61 06 2e 3d d8 52 b8 bc 74 1d 45 3c ef 59 0a 3d
       0.042486552 -0.02250044 0.012030948 0.033777174
000180 bc c7 72 bd 0a fe a1 bd e0 24 a5 bc e2 59 3e bd
       -0.059272513 -0.07909782 -0.020159185 -0.046472438
000190 c9 81 5b 3d 69 91 c5 3d 9f c6 19 3d 80 4e 25 bc
       0.05359057 0.096468754 0.037542935 -0.010089517
0001a0 3e 0b 59 3c 09 06 33 3d 25 24 f5 3c fb d5 c8 ba
       0.013247309 0.043706927 0.029924462 -0.001532256
0001b0 10 99 c9 bd c8 40 99 3c 27 95 b2 bd e1 2a bd 3d
       -0.098436475 0.018707648 -0.08719855 0.09236694
0001c0 01 40 98 3d 80 d3 ec 3c a3 89 d8 3b e1 17 11 3c
       0.07434083 0.028909445 0.0066082045 0.008855791
0001d0 9c ff 00 3b 9d 19 33 3d 24 b3 25 bd da 23 62 3c
       0.0019683605 0.0437256 -0.040454045 0.013802493
0001e0 a0 ce 38 3d 70 14 23 3d 77 02 32 3c 7c 18 98 bd
       0.045118928 0.039814413 0.0108648455 -0.07426545
0001f0 a5 19 e1 bc 4a fd 2e bd 7a 93 76 3d 73 17 d2 3a
       -0.027478049 -0.042722024 0.06019924 0.0016028717
000200 00 e8 21 bd ed cb 7e bc b1 dd 89 3c 98 4b 04 3d
       -0.039527893 -0.015551549 0.016829344 0.032298654
000210 5a 0c 0f 3d 4c ae 93 bd 77 a5 00 bd f3 97 00 bc
       0.03492389 -0.07210979 -0.0314078 -0.0078487275
000220 4e 65 16 bd 91 31 cb 3d a6 f1 1b 3d 56 49 37 3c
       -0.036717705 0.099215634 0.03807225 0.011186918
000230 41 39 47 3d cc 63 95 bc 9e 80 1c bc 82 0d c2 bd
       0.048638586 -0.018236063 -0.009552149 -0.09475233
000240 58 bb ae bd 95 53 ba bb 87 3c 7a bd fe 01 ef bc
       -0.08531827 -0.0056862333 -0.06109288 -0.029175755
000250 65 c5 5d bd 48 b0 91 3c 52 1e a4 bc 64 67 fa 3b
       -0.05414333 0.017784253 -0.02003399 0.0076417197
000260 14 1b 9e 3d b3 06 50 bc ce 3b 1c bd 90 63 a8 3b
       0.077200085 -0.01269691 -0.03814297 0.005138822
000270 9a d6 71 bd 6a 1a df bc 99 9e 26 bd b7 20 40 3d
       -0.05904255 -0.027234275 -0.040678594 0.0469062
000280 a5 6e 63 bd 60 a5 d4 3c 91 a6 4f 3d 11 92 39 bd
       -0.05552544 0.025957763 0.05069596 -0.045305315
000290 d7 be 65 bd 53 e5 81 3c 90 44 1c bd 27 a0 72 3c
       -0.056090202 0.01585642 -0.038151324 0.014808691
0002a0 03 ff 0a 3d 71 9f 48 bd 77 e4 da bc 64 b1 a0 3c
       0.033934604 -0.04898018 -0.026720269 0.019615836
0002b0 ad 66 18 bd 29 d2 13 bd 57 d4 06 3d 15 dc 5c bd
       -0.037207294 -0.036089096 0.032917347 -0.053920824
0002c0 c3 a0 4e bb 48 fb e4 3c b5 de 07 3d 4d 51 cb 3d
       -0.0031528927 0.027951851 0.033171374 0.09927616
0002d0 93 3f 9f 3b f8 56 1c 3d f9 c7 46 bd 6d 78 b4 3d
       0.0048598736 0.038168877 -0.048530553 0.08812032
0002e0 54 3d a6 3d 49 82 e3 bc 75 54 74 bd 3c ee 53 bb
       0.08117166 -0.027772086 -0.059650857 -0.0032338044
0002f0 21 1b 48 bc 10 7a 02 3d 92 dc 16 bc 8e 7d 56 3d
       -0.012213499 0.03185469 -0.0092078615 0.052365832
000300 2c 9e 93 3b 44 c5 56 3d 22 c7 01 3d 56 40 fa bb
       0.0045049395 0.05243422 0.03168405 -0.007637064
000310 2a 11 c8 bc 1e 29 be 3c a0 c2 9e bd 43 70 8e bd
       -0.024422247 0.023212966 -0.077519655 -0.06955006
000320 74 8e a6 bd d6 b4 19 bd 9f ec b6 3d ac a9 b8 bb
       -0.081326395 -0.037525974 0.08931851 -0.005635461
000330 a1 bb 8a bc 98 30 0e 3d c5 ce 71 3d ed 2c 46 3d
       -0.016935172 0.03471431 0.05903508 0.04838269
000340 d8 ae a9 3d 15 0f 65 3c 5c 9b 48 3d 77 5b 82 bd
       0.08285302 0.013980647 0.048976287 -0.06365102
000350 21 32 9a 3c 2b d8 d9 bc 2c c0 52 bd aa 2d 92 3d
       0.018822731 -0.026592335 -0.0514528 0.07137616
000360 af a5 ee bd e8 fc a7 bc aa 47 e0 3c 9f 0f a7 3c
       -0.116526954 -0.020506337 0.027377922 0.02039319
000370 2c b9 6f 3c 6d 81 33 bc 43 44 cc bc c0 31 30 3d
       0.014631551 -0.0109561505 -0.024934893 0.043016195
000380 e4 85 19 bd 4f c5 f9 3b 31 60 23 3c 2e 1a 50 bd
       -0.037481204 0.007622398 0.009971664 -0.050806217
000390 df 24 0b 3d 0f 2b 23 bd 7e d8 37 3d 76 d4 af bd
       0.03397071 -0.039835986 0.044884197 -0.085854456
0003a0 a3 43 a8 ba 0e e4 17 bd c2 ca e2 bd 50 a2 54 3d
       -0.001283754 -0.037082724 -0.11073829 0.051912606
0003b0 30 c2 9f bd c5 fb 53 bd 76 07 cc ba 1e f6 98 3c
       -0.0780071 -0.051753778 -0.0015566188 0.018672045
0003c0 61 1b 75 bd ab f1 82 3d 15 6f 12 bc e9 db 26 3d
       -0.059840564 0.06393751 -0.008937617 0.040737066
0003d0 44 80 05 bd f4 2d 1e 3d 32 39 ac 3c 98 61 8d bc
       -0.032593027 0.038618043 0.021023367 -0.01725845
0003e0 1e 5f 70 bd 65 2d 9b bd 7c 1a fc 3c 78 27 10 be
       -0.05868446 -0.07577018 0.030774347 -0.14077556
0003f0 52 30 fa bd fc 88 28 bd ff 11 c6 bd f3 cb 20 3d
       -0.122162476 -0.041146263 -0.09671401 0.039257

feature_layer.0.bias f4 [128]
000000 98 02 b4 bd 10 bc a9 3d 2b 4d 94 3d 5f a5 ff 3d
       -0.08789557 0.08287823 0.07241281 0.12482714
000010 99 8a 66 bd 08 5f a2 bd ca 7d 32 bd 7f 89 a0 3d
       -0.05628452 -0.07928282 -0.043576993 0.07838725
000020 a1 0e 72 bc 9e 77 16 bd b6 dc 42 bd 9f 1f c1 3d
       -0.014773996 -0.03673517 -0.047573768 0.09429859
000030 50 ad d9 bc e4 6d df 3d e2 be 75 bd 79 c0 c8 bd
       -0.0265719 0.10909632 -0.059996493 -0.09802336
000040 24 99 c4 bb 43 8f 0c 3d c6 a1 92 bd ed 93 4d bd
       -0.005999701 0.034316313 -0.07159762 -0.0501899
000050 c8 7d ae bd 12 41 f6 3d ef 89 5f 3d 67 67 97 3d
       -0.085200846 0.1202413 0.054574903 0.07392769
000060 76 a8 e3 3c ca db c9 3d b3 d4 2c bc 6e fb 9a bd
       0.02779029 0.098563746 -0.010548758 -0.07567488
000070 4f 3e 73 3c 93 d2 de 3d ae 7b 84 3c 6a d9 c8 3d
       0.0148463985 0.108800076 0.016172256 0.098070934
000080 75 4c 53 3c 98 a2 cb 3d 66 42 c1 bc 6e c7 87 3d
       0.012896647 0.09943122 -0.023591232 0.06629835
000090 36 b7 67 3d 71 37 92 3c 1f 05 70 bc 9f a1 a4 3d
       0.056571208 0.017848702 -0.014649658 0.08038639
0000a0 51 26 95 3d 6f 60 91 3d 81 8d 32 3d 36 4e c4 3d
       0.07282699 0.070984714 0.04359198 0.0958523
0000b0 45 ec 67 bc e9 90 5a bd 74 72 1d 3e 1b 1f 2a 3e
       -0.014155452 -0.053360853 0.15375692 0.16613428
0000c0 50 7f 17 bc 1f 9d 47 bd 37 e6 62 3d 93 59 b3 3d
       -0.009246662 -0.048733827 0.05539533 0.08757319
0000d0 64 6f 3b bd dd bf 2b bd f5 9b e9 3d ab e3 13 3e
       -0.045760527 -0.041931022 0.114066996 0.14442317
0000e0 af 50 6e bb 21 78 95 3c a9 86 94 3d b7 30 36 bc
       -0.003636401 0.018245758 0.07252247 -0.011120013
0000f0 f1 f5 dc bc 51 b0 18 bd 0e 6f 3b bc 0c 65 f3 3d
       -0.026972743 -0.037277523 -0.011440052 0.118845075
000100 7c 9d ca 3d 32 da c1 3c 7c 9b c9 3d 78 31 29 3e
       0.09893319 0.023663614 0.098441094 0.16522777
000110 e2 ae bf 3d 4d 18 82 3d d8 39 82 bd 27 ef 11 bd
       0.09359528 0.06352291 -0.06358689 -0.035628464
000120 4c 6c f1 bb 36 00 aa bb a7 26 c3 3c de e9 09 3e
       -0.0073676463 -0.0051880134 0.023822142 0.1346812
000130 36 ea 13 bd 53 f6 ba bc 5e 82 d5 bd 5d 82 5d bd
       -0.036112033 -0.022822535 -0.10425256 -0.054079402
000140 03 67 8a 3d f3 40 a8 3d ae 7f 06 3d a8 95 b3 3d
       0.06757929 0.08215513 0.03283661 0.08768779
000150 02 d1 ae bc c1 05 15 3e 7b 5c 95 3b 86 5f ab 3d
       -0.021339897 0.14552976 0.0045581437 0.08367829
000160 3d 81 82 3d 9b b6 51 3d 8d 9f 95 bd b7 b8 65 3d
       0.063723065 0.051199537 -0.073058225 0.05608436
000170 60 33 8e ba 64 55 6d bc ec 52 6d bc 1c e6 fb bb
       -0.0010849051 -0.014485691 -0.014485102 -0.0076873433
000180 c8 f3 18 3d 6d fc c1 3d c8 12 81 bd e2 63 6b 3d
       0.037341863 0.094719745 -0.0630241 0.057468303
000190 9c 2d 1c 3d 8a 97 c5 bd dc 5d 17 3d ad 94 5a bc
       0.038129434 -0.096480444 0.036954746 -0.013341111
0001a0 21 a3 cd 3c 6c cb f1 3d bd d1 85 bd 9a 04 86 bb
       0.0251022 0.11806378 -0.06534145 -0.004089904
0001b0 82 6b db 3d 0c 4a 10 3d e0 be 20 3e 98 d2 1f bc
       0.10713865 0.035226867 0.15697813 -0.009754799
0001c0 34 9d 9e 3d 44 d2 8b bd 7a 7f e7 bd de de bd 3d
       0.07744828 -0.06827214 -0.11303611 0.09271024
0001d0 4d 89 41 bd 8b d1 7b 3d d7 75 2b bd fc b0 cd bd
       -0.04725008 0.061479133 -0.041860428 -0.10043523
0001e0 b5 86 73 3d 07 be 06 3e 53 5b 33 ba b5 86 1e 3e
       0.05945464 0.13158427 -0.00068419165 0.15481074
0001f0 91 89 4a 3c 54 df d6 3d ae 9b e0 3d f1 e0 fb bb
       0.0123619 0.10491815 0.109671935 -0.007686727

feature_layer.3.weight f4 [128, 128]
000000 89 cf dc bb 75 27 99 bd ba c0 70 bd 47 03 ba 3b
       -0.0067386073 -0.07478229 -0.05877755 0.00567666
000010 27 80 3c 3d d1 0b a3 bd 2e 2b 7d 3d 2a 43 4c 3c
       0.046020653 -0.07961238 0.061808757 0.012467185
000020 8e 28 07 3d 01 ac 99 3d 04 03 8e bc e8 7d 0c 3e
       0.03299766 0.0750351 -0.017335422 0.13719904
000030 6c 45 d0 bc ce ab 6d bd d4 ad 80 bc 19 f9 51 3d
       -0.025423728 -0.058025174 -0.015707888 0.05126295
000040 3f 2f 83 3c c5 bf 9d 3d 29 70 82 3d 6a 07 c4 3d
       0.01601374 0.07702593 0.06369049 0.095717266
000050 47 77 c7 bb 3f 38 a4 bd 38 fe a9 bd 60 90 81 bd
       -0.006087217 -0.080185406 -0.083004415 -0.063263655
000060 88 47 98 3c a3 bd f3 3c 50 2e bf 3d 2a 9b 6e 3d
       0.018588796 0.029753512 0.09335005 0.058253445
000070 83 ba a7 bd 95 5e a7 bd 4b f9 53 3d b1 f4 ad bc
       -0.08189871 -0.08172337 0.051751416 -0.021234842
000080 97 47 84 bd ff 81 ff bc 4d b9 c7 3d 16 1e f1 3d
       -0.06458967 -0.031189917 0.0975214 0.117733166
000090 7f 93 ae 3d be dd b6 bc 52 e6 25 bc c0 09 9d 3d
       0.085242264 -0.022322532 -0.010125713 0.07667875
0000a0 5b 63 a2 3d c3 4a 2d bd e8 d8 a5 3c 8d 6e 8f bd
       0.07929107 -0.042307626 0.02024503 -0.07003508
0000b0 20 52 6c 3d 68 71 a2 3d e8 8a 5d 3c 35 bc bd 3d
       0.057695508 0.07931787 0.013521887 0.09264413
0000c0 84 b5 8b 3d 3b 91 95 3d 0b b0 4a 3d 10 af 09 bd
       0.06821731 0.07303091 0.049484294 -0.03361422
0000d0 01 34 8d bd 0a 4a 46 bc e1 ce 83 3d 93 b5 a9 bc
       -0.068946846 -0.012102613 0.064359434 -0.020716464
0000e0 aa fd 60 3d d3 1e a7 bd bd ab 72 3c ce 58 f2 3d
       0.054929413 -0.08160176 0.014811453 0.118333444
0000f0 3d 75 8a bd b6 ce 5c 3c 0a 4e 84 bc db 5e f5 3d
       -0.06760643 0.013477018 -0.016150493 0.11980983
000100 56 fc 63 bd 82 93 d8 bd 35 50 72 bd 3f 35 cd bd
       -0.05566057 -0.1057501 -0.059158523 -0.100199215
000110 d6 53 7c 3d 45 7a bc 3d 01 bd 92 bd 08 1e 86 bd
       0.06160339 0.092030086 -0.07164956 -0.06548697
000120 ad 8e a8 bd fe 67 a0 3d ee 62 2a 3d e2 86 8e bd
       -0.08230338 0.07832335 0.041598253 -0.069593206
000130 c6 e0 0c 3d e3 99 c6 bd 88 2c 45 3b 43 d2 aa 3d
       0.03439405 -0.0969732 0.0030086357 0.083408855
000140 7e f7 0e bd f1 f7 79 bc 41 30 c0 bd 6d 7a 9b 3d
       -0.034903996 -0.015256868 -0.09384204 0.0759171
000150 5a 3a a1 3c 89 b2 9a bd 63 28 f5 bb e5 3c a3 bd
       0.019681145 -0.07553584 -0.007481621 -0.07970599
000160 f4 7c 8e bc c0 13 26 be 14 5f 84 bd b0 ff 13 3e
       -0.017393567 -0.16218472 -0.06463447 0.14453006
000170 2a f3 44 3c 98 03 a4 bd 4b 89 09 3d e7 32 1d 3d
       0.012020865 -0.08008498 0.0335782 0.038378622
000180 14 ae fb bc 56 77 ad bd 47 fb 02 bd a2 5e cd bd
       -0.030722655 -0.08470027 -0.031977918 -0.100278154
000190 8a df 4f be ca 0c e3 bc 75 2a 60 3c 7c c2 d2 3d
       -0.20300117 -0.02771606 0.013681998 0.10291001
0001a0 04 fc 7b bd 0a d1 8d bd 12 b9 33 3d 17 2f 9b bc
       -0.061519638 -0.06924637 0.04387767 -0.018943353
0001b0 b1 1b d1 3d de 3b 91 bd 15 66 5e bc 67 7c 99 bc
       0.1021036 -0.07091497 -0.013574143 -0.018736077
0001c0 d1 35 bf 3d 5b f6 43 3d 50 16 c6 bd 48 f6 86 bc
       0.093364365 0.047842365 -0.096722245 -0.016474858
0001d0 25 21 25 3d 7a ff 5d 3c 2b 65 12 be d9 96 d9 bb
       0.040314812 0.01354968 -0.14296405 -0.006640297
0001e0 0b 7c 13 3c 79 e4 86 bd b1 19 a7 3d 71 dd 1b bd
       0.009001742 -0.065865465 0.08159197 -0.03805298
0001f0 b6 d9 d0 3c a8 9e c6 3c f1 57 11 bd 88 c5 86 bd
       0.025494438 0.024245575 -0.035484258 -0.06580645
000200 24 02 a9 3c af c9 5f bd f3 9c 9a bc 3b 32 b0 3c
       0.020630904 -0.0546357 -0.018873667 0.021508327
000210 cc 0a 97 bd 55 7b 50 3c a7 d6 8d bb 66 ce e9 bb
       -0.07375106 0.012724717 -0.004328567 -0.0071352003
000220 e6 ed 93 3c cc 9c 87 3d fa 0f d6 3c 9a 17 a3 b9
       0.018057775 0.066217035 0.026130665 -0.00031107367
000230 6a 24 af 3c 08 64 3c bc 98 c6 f6 bd 41 71 3e 3d
       0.021379668 -0.011498459 -0.120495975 0.046494726
000240 e0 fa ca bd 73 66 c4 bd 27 77 0a 3d cb 28 82 bc
       -0.09911132 -0.09589853 0.03380504 -0.015888592
000250 7d 7d c1 3d 54 e3 8e 3d d4 30 0f be 8e cd 31 bc
       0.09447763 0.06976953 -0.1398347 -0.010852231
000260 bc a5 bb b9 f4 38 10 bd cb 47 7b 3d 5f 36 20 3d
       -0.000357909 -0.035210565 0.061347764 0.039114352
000270 b8 67 ae 3d 48 4c 8f bd a0 75 c5 3c 69 08 c0 3d
       0.085158765 -0.06996971 0.02410394 0.09376604
000280 36 36 f1 bc 03 ac 24 b9 41 78 b8 bc 48 79 0a 3c
       -0.029444795 -0.00015704338 -0.022518279 0.008451767
000290 22 67 4e 3c 9f f1 66 bd a2 a3 80 bd 72 38 72 3c
       0.012597831 -0.05638277 -0.062812105 0.014783965
0002a0 27 b6 a8 bc 64 73 9c bd 00 e1 eb 3c 7c cf ac 3d
       -0.02059467 -0.076391965 0.028793812 0.08438012
0002b0 62 d4 b1 3c 01 aa ab bc 8c de 26 3d 8f c6 17 3c
       0.021707717 -0.020955088 0.04073958 0.009263649
0002c0 d6 3f a4 bd 89 32 2d ba 4f 5e 89 bc d6 d9 d9 3d
       -0.08019988 -0.00066069566 -0.016768603 0.10637252
0002d0 ea 8b 3c 3d 1a 53 81 bc b7 6d 26 be 93 44 04 3d
       0.04603187 -0.015786696 -0.1625279 0.03229196
0002e0 e6 a4 2c bd 96 a4 bf bb 47 d8 11 3d 83 70 2b bd
       -0.042149447 -0.0058484776 0.03560665 -0.041855346
0002f0 29 3e 9a 3c ad ae 2a 3d 81 cf c8 bd c0 42 dd 39
       0.018828468 0.04167049 -0.09805203 0.00042202137
000300 3b f0 93 bd 28 0a 17 bd c1 fa 8d 3d 3a a4 94 bd
       -0.07223555 -0.03687492 0.06932593 -0.07257886
000310 23 f3 d9 3d 3a b6 c4 3d ca cb d4 bd e1 13 73 bc
       0.10642078 0.096050695 -0.10390432 -0.0148362825
000320 3a 8b 26 3d 70 e0 a9 3c 80 e9 f1 3c aa 4a 0f bd
       0.04066012 0.020736903 0.029530287 -0.034983315
000330 37 98 53 bd 37 da 10 3d 8a 44 25 bc 21 b8 c7 bc
       -0.051658835 0.035364356 -0.010087142 -0.024379792
000340 e1 9f b6 3d 0b fb 88 3d 0d 4e 64 3d 12 96 2c bd
       0.08917213 0.06688508 0.055738498 -0.042135306
000350 e1 05 61 3d aa 8a df bc 99 63 7c 3c 76 c1 f5 bd
       0.054937247 -0.0272878 0.015404605 -0.1199979
000360 92 fa b0 bd 2b bd 6b 3d c1 3b b4 bd c3 c2 af bd
       -0.086415425 0.05755345 -0.0880046 -0.0858207
000370 98 17 1d bc 1d b5 68 bd 91 75 45 bd 7e 9f 9b 3d
       -0.009588145 -0.056813348 -0.048207823 0.0759878
000380 22 dd a5 bc ad d8 be bd c0 5e 60 3c f9 58 56 bd
       -0.020247046 -0.093186714 0.013694465 -0.052330945
000390 30 f8 ad bd 74 15 3d 3d c7 ba a7 bd f6 4d 5e 3d
       -0.08494604 0.046163037 -0.08189922 0.054273568
0003a0 59 0f a2 bd f0 13 e8 bd b4 a5 5b bd b8 aa d0 bd
       -0.079130836 -0.11331928 -0.053624824 -0.10188812
0003b0 a9 3b c6 bd 94 cc 10 bd af 93 52 bc f1 b7 d2 b9
       -0.09679348 -0.03535135 -0.012852593 -0.00040191368
0003c0 fd e9 85 bd b3 4d b3 3d 3b 97 7d 3c 7f 24 a0 3a
       -0.0653877 0.08755054 0.015477951 0.0012217908
0003d0 88 e5 51 3d d8 f0 ac 3d df 64 10 3e fa 6d 41 3d
       0.05124429 0.08444375 0.1410098 0.047224022
0003e0 c6 0e 54 3d bb ef 80 3c a9 e4 7c 3d 41 96 c8 bd
       0.0517719 0.015739312 0.061741505 -0.09794284
0003f0 0f 1d d1 3d 82 32 ae bd a9 0a f9 bd 44 e1 22 3d
       0.102106206 -0.08505727 -0.121602364 0.03976561

feature_layer.3.bias f4 [128]
000000 55 20 19 3d a2 13 28 3d db 51 1c 3e e0 00 01 be
       0.03738435 0.04103435 0.152656 -0.1259799
000010 e6 36 9c ba 68 5c 96 bc d0 3e f7 3d 1c d3 1b 3c
       -0.0011918216 -0.01835461 0.120725274 0.009510782
000020 84 73 16 be a3 48 26 be d9 6e 15 be c6 4c 0b 3d
       -0.14692503 -0.16238646 -0.14593066 0.034008764
000030 0d 06 d3 bc ad 40 ec 3d 84 1d 01 bd a6 d1 88 3d
       -0.025759721 0.115357734 -0.03152229 0.06680612
000040 1f 66 e8 3d c4 34 e1 3c 14 08 90 bd 6f 81 c4 3b
       0.11347603 0.02749098 -0.07032791 0.005996875
000050 14 2a 2c bd 0e 33 92 3d 08 ce c0 3c eb c2 b8 3d
       -0.042032316 0.07138644 0.023535743 0.09021553
000060 d3 ed 10 3d b7 3d d3 bc e9 8d a1 bc 83 d3 2f 3c
       0.035383057 -0.025786264 -0.019720988 0.010731581
000070 bf 23 87 bd 59 db 21 be 9b b7 a4 3d 91 06 20 bc
       -0.06598615 -0.1580633 0.080428325 -0.009767191
000080 60 dc aa 3d b5 4c b3 bc 02 17 9e 3d 18 1c 38 bd
       0.083428144 -0.021887163 0.07719232 -0.044948667
000090 97 2b 2f 3d 08 d3 2e 3d 3b 29 2d 3d 15 c4 d7 3d
       0.04276618 0.042681724 0.04227565 0.105354466
0000a0 2f a7 e5 bc e9 0c a0 3b 02 61 29 3e 9f ff 17 be
       -0.02803382 0.0048843515 0.16540912 -0.14843605
0000b0 8c 93 1f be ef 0d 0b 3e b2 80 0f 3c 39 aa 05 bc
       -0.15583628 0.13579534 0.008758711 -0.00815826
0000c0 78 56 29 be 1a 7d 82 bd 64 43 03 be db a9 5c 3d
       -0.16536891 -0.063715175 -0.12818676 0.053872924
0000d0 a9 a7 db 3d b3 d5 40 3d 5e 20 6d 3a ce 7e ba 3d
       0.10725338 0.0470788 0.00090456556 0.09106217
0000e0 8c 51 5d bc 27 b8 fb bd 28 5c 25 be 4f c1 78 3c
       -0.013508212 -0.12290984 -0.16148436 0.015182807
0000f0 d5 86 d8 3d cb 84 06 bd 9f 05 ad bc 85 b2 a5 bd
       0.10572592 -0.032841485 -0.021120844 -0.080906905
000100 30 ce 13 3e 17 cf c7 bd eb 22 dd 3c df 03 cc 3d
       0.14434123 -0.09756296 0.02699419 0.09961676
000110 06 30 a1 3d 0c d8 17 3e c9 24 3e bd c1 4c 6a 3c
       0.07870488 0.14828509 -0.0464218 0.014300526
000120 de 2e 06 3e b5 36 08 3e 46 12 87 3d 23 fb ec bd
       0.13103816 0.13302119 0.06595282 -0.11571338
000130 42 b0 e8 bd ff 8a 07 3e de 2a 73 3d 62 bc a0 bc
       -0.113617435 0.13236617 0.059367053 -0.019621078
000140 6f 25 12 3e d7 18 40 bc de 84 06 3e a8 49 e6 3d
       0.14272092 -0.011724672 0.13136622 0.112445176
000150 62 f0 e7 3d fc 7f 5c 3d 2c 2d 96 3b 1a 7b 14 bd
       0.11325146 0.053832993 0.0045830216 -0.03625021
000160 99 52 c2 bc a6 43 00 3e 01 82 cc bd 76 bd 88 3d
       -0.023721026 0.12525806 -0.09985734 0.06676762
000170 51 84 a6 3d 2f 86 1d 3d 96 37 02 3e 80 d7 13 bd
       0.08130706 0.038458046 0.12716517 -0.03609419
000180 10 15 d7 3d 3e 7b 27 3e 8c 33 9d bd ac 8b 5a bd
       0.10502064 0.16355607 -0.076758474 -0.053355858
000190 81 c9 1b 3e e4 41 fe bd eb 2e 9e 3c 07 84 12 be
       0.15213586 -0.124149114 0.019309482 -0.14308177
0001a0 7a 16 54 bc 40 81 36 bd dd 0f e2 3d 70 be ee 3d
       -0.012944812 -0.044556856 0.11038182 0.11657417
0001b0 a4 67 85 3d a1 47 a3 bd b7 df e8 3d 52 76 b3 3d
       0.065139085 -0.079726465 0.11370795 0.08762802
0001c0 0e 5e 4f bd 24 3b 09 be 75 87 06 3e f3 eb 29 bc
       -0.050626807 -0.13401467 0.1313761 -0.010371196
0001d0 ec 54 2a 3d a2 9a 01 3e d5 1b 17 3d 0d ca cb bd
       0.041584894 0.12656644 0.036891777 -0.099506475
0001e0 68 32 9d 3d 10 cc 2d be d2 46 e8 bd 4f 96 08 3e
       0.0767563 -0.16972375 -0.11341633 0.13338588
0001f0 32 ee d2 bd 9e 4c 14 3d 4e fa 83 3d 31 65 55 bc
       -0.102993384 0.03620588 0.06444226 -0.013024614

value_stream.0.weight f4 [128, 128]
000000 13 88 85 3b 79 97 d4 bb 13 d5 74 bc a9 fb fd 3c
       0.004075059 -0.0064877835 -0.014943379 0.03100379
000010 e2 5a 71 3c 20 8a 88 3c 9e d1 72 3c 3f 7d dd 3c
       0.014731141 0.016667426 0.014820484 0.027037261
000020 95 ab c9 3b 4e 4d e1 3c 48 38 d7 bc 77 25 fd bc
       0.0061544874 0.027502682 -0.026271954 -0.030901654
000030 92 c1 b0 3c d6 10 54 3c 90 fc 04 bc fc 5b 43 bc
       0.021576677 0.012943467 -0.008116856 -0.011923786
000040 6a 1a bc 3b 41 41 cf 3b 3f 90 ac 3c 03 73 c4 3b
       0.0057404535 0.0063249175 0.021064876 0.005995156
000050 33 11 db bc a1 61 b6 3c 00 e8 1a bd e3 0a 6d bb
       -0.0267416 0.02226335 -0.03781891 -0.003616982
000060 74 6c c5 bc 16 bc 9d 3a 29 06 2f 3c 36 5c ab 3c
       -0.024099566 0.0012034203 0.010682621 0.020917993
000070 24 06 26 bc a3 ae 4b 3c 3e c8 e3 bc 0e 86 b0 3c
       -0.0101333 0.012431773 -0.027805444 0.021548297
000080 46 c5 57 bb 9d 11 de bb 7d f0 0a bc d7 9d fe 3c
       -0.003292398 -0.006777002 -0.008480188 0.031081123
000090 91 2a 28 3c d9 7a 32 3c 9e 1a c0 3c 51 6f e0 bc
       0.010264055 0.010893547 0.023450192 -0.02739683
0000a0 ce 3b 44 3c 69 03 01 3c 4d a5 33 bc fc 5d a7 3b
       0.011977149 0.007874348 -0.010964704 0.0051076394
0000b0 1a a9 1d bc fb f4 c6 bc 4d e4 97 bc 07 96 ac bc
       -0.0096228365 -0.024286738 -0.01854148 -0.021067632
0000c0 2b fe df 3c 23 8a 0a 3c b3 73 ca 39 f4 ab 28 bd
       0.027342876 0.008455786 0.00038614645 -0.041179612
0000d0 2b e2 88 bc 25 3b cc bc ba 89 ea bc 07 e3 ec bc
       -0.016709408 -0.024930546 -0.028630126 -0.028916849
0000e0 99 2a 34 bc 9e d1 f9 3c 0b 55 48 bc 10 5a a4 bc
       -0.010996484 0.030495461 -0.012227307 -0.020062476
0000f0 eb 6b f2 bc 28 e9 f6 3c 15 6c e9 bb 15 4f 08 bc
       -0.029592475 0.030140474 -0.00712348 -0.008319636
000100 7c 12 eb bc 5e 04 29 bc 09 9e 40 ba 82 c0 77 bc
       -0.028695337 -0.010315983 -0.0007347768 -0.015121581
000110 85 e3 6e 3c 96 69 67 3b 1b 0c 83 bc 95 a7 d6 3c
       0.014580612 0.0035310737 -0.015996983 0.026202956
000120 4e d0 34 bd 21 98 b5 3c 6d 6d 14 bc 5a d5 29 bc
       -0.044143967 0.022167267 -0.009059292 -0.010365808
000130 49 26 b3 3c a7 05 0e bd 76 6c c9 bb c5 2f ad bc
       0.021868842 -0.03467336 -0.0061469628 -0.021140942
000140 ec 41 83 bc 9e 14 87 bc ec 59 d8 3c 0b 0b 95 3a
       -0.016022645 -0.016489323 0.026410066 0.0011371089
000150 cb aa 0e 3d 07 55 91 bc 09 60 98 bc 16 3b 83 3b
       0.03483085 -0.01774074 -0.01860048 0.0040048463
000160 dc 0d d0 3c f3 18 9b bc 9c a2 66 3c 8e 90 d4 bb
       0.025397234 -0.018932795 0.014076855 -0.006486959
000170 4d 6f 17 3d a2 a0 14 bd 84 f5 56 3c 8e 4e f8 bc
       0.03697138 -0.036286004 0.013120059 -0.030310895
000180 57 af 6c bb b9 c1 22 bc 9c 51 58 3c 7b b1 11 bc
       -0.0036115253 -0.009933882 0.013203051 -0.008892412
000190 ab 12 f2 bc 2f a8 e4 3c 11 fd 0e bc 3e 48 cc bb
       -0.029549917 0.027912227 -0.008727328 -0.006234198
0001a0 fb 4c e0 bc e4 39 ab 3b 54 1e 10 bc cb 5f 31 bc
       -0.027380457 0.005225407 -0.008796293 -0.0108260615
0001b0 8c 61 92 bc 8a 8e 91 bc 37 36 d9 3c 11 16 63 bb
       -0.01786878 -0.017768163 0.02651511 -0.0034650604
0001c0 2e 6b d2 3c 46 75 8b 3c 02 ef 84 3c 66 ba 53 3b
       0.025685873 0.017023694 0.016227249 0.0032307147
0001d0 24 c4 a7 bb 96 35 de 3b 66 4d ae bc 11 cb 96 3c
       -0.0051198173 0.0067812903 -0.02127714 0.018407376
0001e0 92 e0 ad 3c 3c b0 e3 3c f2 27 34 3c 83 1f 88 bc
       0.021225248 0.027793996 0.010995852 -0.016616588
0001f0 76 22 03 bc 90 be 7c 3c 9b d4 b4 bc b1 d7 df b8
       -0.008003822 0.015426293 -0.022074034 -0.00010673644
000200 0b 3d 84 3d 15 e4 30 3d 5d 13 4f 3d 96 c3 00 3c
       0.064569555 0.043186266 0.050555576 0.007859131
000210 ac 0c eb bc 6f 5a 05 bd b0 a2 0a 3d dd 25 cd bd
       -0.028692566 -0.032556947 0.033846557 -0.100169875
000220 f4 80 89 bc 50 25 65 bd 9a e3 83 3d 71 29 c4 3c
       -0.016785122 -0.055943787 0.06439896 0.023945542
000230 c7 c5 66 bc 62 55 e0 3d 10 88 94 bc d5 2d 3e bd
       -0.01408524 0.109537855 -0.018131286 -0.046430428
000240 d9 45 8a 3d e3 7d 18 3d 59 0e 6d bd 48 c6 11 bd
       0.06751604 0.03722943 -0.05787501 -0.035589486
000250 e3 ee 16 bd e5 15 f5 3c 6a de 1d bc 75 34 84 bd
       -0.036848914 0.029917667 -0.009635547 -0.06455318
000260 48 b7 8f bd 25 66 06 bc 2b c9 3a 3d 6e d8 66 bd
       -0.0701738 -0.008203064 0.045602005 -0.056358747
000270 8c d4 e2 bd 29 47 2d 3d d2 54 26 bd 61 b8 0f bb
       -0.11075696 0.04230419 -0.040608235 -0.0021929967
000280 fa 24 a1 3d 38 c1 bb 3c c6 a6 bb 3c ee 80 47 3d
       0.07868381 0.022919282 0.022906672 0.04870694
000290 0e 6d 0f bd 07 79 12 3d 93 6e 11 bd f6 b5 d4 3c
       -0.035016112 0.035759952 -0.035505842 0.025965672
0002a0 92 47 2a bd d2 46 c3 bc 1c 6f 2d 3d 1f bf c7 3c
       -0.04157216 -0.02383748 0.04234229 0.024383126
0002b0 ab eb 0c 3d 03 65 09 bd 0f 41 94 3d 88 07 6f bd
       0.034404438 -0.033543598 0.072389714 -0.05835679
0002c0 c1 e6 27 3d 23 aa a4 bd 00 37 b6 bd 2c 98 2e bd
       0.04099155 -0.080402635 -0.08897209 -0.04262559
0002d0 8e 4a 52 bd 79 18 23 bd 84 c1 52 bd 7c 76 ee 3c
       -0.051340632 -0.03981826 -0.051454082 0.029109232
0002e0 08 fa 50 3d f0 cd df 3c a0 3b 11 3d 6d 9b 20 3d
       0.0510197 0.027319878 0.035457253 0.039210726
0002f0 d7 77 3c 3d f9 2e eb bc c7 64 b2 bd d6 da 9c 3c
       0.046012726 -0.028708922 -0.08710628 0.019147318
000300 52 32 38 3d ca 4b c6 3c 4e f3 93 3c 29 0b a4 bb
       0.044969864 0.02420606 0.018060353 -0.005006213
000310 fe 27 0e bd 21 a7 80 3d bd 31 96 ba 1d f3 79 bd
       -0.03470611 0.06281877 -0.0011458915 -0.061022867
000320 ca 5f e7 3c 0a b6 63 3d 98 aa ac bd e8 af a1 bc
       0.028243918 0.055593528 -0.08430976 -0.019737199
000330 a7 e1 51 bd 9f 1d 70 3d f8 31 51 bb 8a 6b 92 3d
       -0.05124059 0.058622 -0.0031920653 0.07149418
000340 fe bf 0f bd 6a 89 aa bd 61 e8 a6 bc 1e 58 6e 3d
       -0.035095207 -0.08326991 -0.020374479 0.058189504
000350 be e0 ee bc ea 47 2a 3d 3b 6d 06 bd 39 79 23 bd
       -0.0291599 0.04157249 -0.032819014 -0.03991053
000360 d2 16 63 bd 60 9e 43 3d de 82 7a 3d 84 eb 6e bd
       -0.055441685 0.04775846 0.06115996 -0.058330074
000370 97 af 6e 3d b7 bc c1 bd c6 49 ed bc 03 e3 08 bd
       0.058272924 -0.094598226 -0.028965842 -0.03341962
000380 3d f0 c9 bb ab a7 da 3c c2 00 10 3d c0 ec 01 3d
       -0.006162672 0.026691278 0.035156973 0.031719923
000390 81 2e f8 3d 88 47 af bd b2 14 12 3d 7c 25 3e bd
       0.12118245 -0.085585654 0.035664268 -0.046422467
0003a0 b1 65 36 bd 6b 3d 90 bd 68 3e c2 3c 5e 12 58 bd
       -0.044530574 -0.070429645 0.023711398 -0.05275189
0003b0 18 14 0b 3c 8f f8 2c bb 1b fe 4d 3d c6 72 5d 3d
       0.008488677 -0.002639327 0.050291162 0.054064535
0003c0 4f 4e c9 bd b9 8a 8f 3c 56 62 66 3d 86 b7 27 bc
       -0.09829389 0.017522203 0.056246124 -0.0102366265
0003d0 f9 57 15 bc e4 a6 c3 3d af 16 09 3d 9d 68 5a 3d
       -0.009115213 0.09553316 0.0334689 0.053322423
0003e0 a7 e1 b2 bc f2 93 5e bd b7 97 a0 bd 7d c7 2b bd
       -0.021836115 -0.05434031 -0.07841437 -0.041938294
0003f0 29 35 a8 bc 4f d9 9d bb ab be b0 3d ae 2b e0 bc
       -0.020533161 -0.004817165 0.08630117 -0.027364578

value_stream.0.bias f4 [128]
000000 4d ad 8a bc 30 27 ea 3d ca 73 95 ab 48 cd 4e 3d
       -0.01692834 0.11433256 -1.0619225e-12 0.05048874
000010 e6 b8 96 3b 97 36 21 3d 8a 85 bb 3b b1 23 83 3c
       0.0045996783 0.0393587 0.005722706 0.01600823
000020 5c e9 79 3d 10 08 92 bd 1b 9e 3e 3c 57 5d 61 bd
       0.061013564 -0.07130444 0.011634375 -0.055020656
000030 77 75 52 3d 0d ce e1 bc 68 c7 2c 3e be c1 d9 3c
       0.051381554 -0.027564073 0.16872942 0.026581641
000040 b1 6c d5 3d 9d 6a 73 bd 77 50 82 3a 5f 19 f2 3d
       0.10421122 -0.059427846 0.0009942193 0.118212454
000050 59 de f6 bc e7 51 e3 3d 28 50 41 3d ca 8d fe 3b
       -0.03013532 0.11099606 0.047195584 0.0077683674
000060 ca 50 24 3e 88 34 34 bd 2d 36 ae 3c 01 14 66 3d
       0.16046444 -0.04399541 0.021266067 0.05617142
000070 a7 d0 21 3d 52 1c f4 3d 01 44 06 bc 04 6a 2d 3c
       0.039505627 0.11919464 -0.008194924 0.010584358
000080 cf 01 a0 ad 28 2f 67 3d 26 01 77 3d 4f a7 1a bc
       -1.8190697e-11 0.056441456 0.06030383 -0.009439304
000090 60 50 6e bd 7b be b5 bd f5 d9 c6 3d 61 d7 7c bd
       -0.05818212 -0.08874222 0.09709541 -0.06172884
0000a0 23 41 a5 3d 3b f1 b8 3d e8 50 a6 3d 37 23 51 3d
       0.080690645 0.09030386 0.081209004 0.051058974
0000b0 51 f9 a8 3d e8 a7 f2 3d ba e8 00 3e 42 a8 95 bc
       0.08250678 0.11848432 0.12588778 -0.018268708
0000c0 c9 80 70 3a fb a6 85 3d 22 d2 a9 3b 5c de 6f 9f
       0.0009174464 0.065259896 0.0051825205 -5.079415e-20
0000d0 d7 91 81 bc f6 5e 85 bc b5 64 02 3d ad 17 83 bd
       -0.015816612 -0.016280632 0.031834323 -0.06401
0000e0 fa 6e 04 3e d7 f1 07 3e 8d f3 87 3d ee 1b 02 3e
       0.12932959 0.13275848 0.066382505 0.12705967
0000f0 04 c9 ff b7 41 b3 7e 3d ac d0 a1 bc ad 67 27 bc
       -3.0491974e-05 0.06218267 -0.019752823 -0.010217589
000100 3c 43 d5 3d dc 71 26 bc 95 3f b0 bd 4b d3 9b bd
       0.104132146 -0.010158982 -0.08605877 -0.0760866
000110 f6 af ad bd 17 66 24 bd 27 7c 04 bd de 97 ed b9
       -0.084808275 -0.040136423 -0.032344963 -0.00045317312
000120 26 2f 3a bd 75 fc 06 bd 2e bb 76 3d 7f ea 65 3d
       -0.04545512 -0.032955606 0.060237102 0.056131836
000130 da 52 73 3c 18 fd f2 bd 70 14 c0 3d ce 67 a7 3d
       0.014851296 -0.1186468 0.09378898 0.08174096
000140 b4 a2 8c bd a2 a4 bf 3c c6 8b 21 3e 06 bc 4a 3d
       -0.06866971 0.023393933 0.15775976 0.04949572
000150 54 c3 46 3d fc cc 2a bc 31 3a b4 af 33 e3 0d bd
       0.048526123 -0.010424849 -3.2783157e-10 -0.034640502
000160 ec 19 86 bd 6f 8c a9 b9 71 c9 af bd 34 9e af bc
       -0.06547913 -0.00032338823 -0.08583344 -0.021437742
000170 0a c8 07 3e 51 83 75 ba 83 d6 ec 97 57 af b6 3b
       0.13259903 -0.0009365576 -1.5305293e-24 0.0055751014
000180 a3 f6 37 bc 14 d8 15 b7 e4 e8 c1 3c fa 96 e1 bc
       -0.011228236 -8.931402e-06 0.023670621 -0.027537812
000190 d3 63 61 bd 67 8d 48 3c 1d bc 02 bd f7 fa 0e 3e
       -0.05502684 0.012240744 -0.03191768 0.13962923
0001a0 4e 15 50 3d bb 96 1b 3d 57 4f 81 bd 64 21 1a 3e
       0.050801568 0.037985545 -0.06313961 0.150518
0001b0 ef 3d fb 3c 00 93 de 3d b7 61 08 3e 47 11 16 bb
       0.03066918 0.10867882 0.13318525 -0.0022898482
0001c0 a1 bf 95 3d e7 ef 1d 3d 05 b3 b0 3d 14 f3 e8 3d
       0.07311941 0.038558867 0.08627895 0.113744885
0001d0 c4 d7 3c 3d e8 53 1b 3d 34 d9 8c bd 7e 6a c9 bd
       0.046104208 0.037921816 -0.06877366 -0.09834765
0001e0 4a b2 55 bd 0b 27 03 3e ec f6 bc 3d ed 29 5f bc
       -0.052171983 0.12807862 0.09226784 -0.013620836
0001f0 ab 74 a9 3b 49 0f 2b bd 29 3d 9c 3d 91 f8 5e a7
       0.0051713786 -0.041762624 0.07628853 -3.0943437e-15

value_stream.2.weight f4 [1, 128]
000000 5f 87 2c bc 33 41 62 3d aa 35 4c 38 bb 4e da 3d
       -0.010530322 0.05523796 4.868737e-05 0.10659548
000010 b4 72 c5 3c d1 97 74 3d 65 9b 03 bd ed 6b 69 3d
       0.024102546 0.059715096 -0.032130618 0.05698769
000020 93 c3 c7 3d 29 f9 24 bd 2b 2b 49 bd c2 e3 b5 bb
       0.097541 -0.04027668 -0.049113434 -0.0055508325
000030 29 33 8e 3d 96 b6 d0 bc 13 e2 59 3d 98 ea a7 3d
       0.06943352 -0.025477689 0.053194117 0.08199042
000040 02 f7 b9 3d 1f 01 26 bc 48 e2 da bc 31 30 e8 3d
       0.09080316 -0.010132103 -0.026719227 0.11337317
000050 de 21 0e bd ab d2 ef 3d df c5 a3 3d ed a1 42 3b
       -0.034700267 0.117101036 0.07996725 0.0029698566
000060 5f 9b d2 3d bb c2 d1 3d 48 c1 e2 bb e0 cd 51 3d
       0.10283541 0.1024222 -0.0069200136 0.05122173
000070 f7 0f 1a 3d fe a1 a0 3d 6e e8 43 3b 50 04 98 3d
       0.03761288 0.078433976 0.0029893178 0.074226975
000080 c7 7b 3c 1e 19 23 87 bc 5c 24 d7 3d 86 bc 60 bd
       9.978234e-21 -0.016496228 0.10504982 -0.05486729
000090 f0 3f e5 bc 3d 28 75 bc 0d e2 96 3d b0 52 21 bd
       -0.02798459 -0.014963207 0.073673345 -0.039385498
0000a0 ea 13 b6 3d 47 50 6e 3d ba b8 ae 3d 37 4f 18 bd
       0.08890517 0.058182027 0.085313275 -0.03718492
0000b0 b7 be 5c 3d 03 2d aa 3d 59 22 4a 3d 03 ae ee 3a
       0.053892817 0.083093666 0.049349163 0.0018209819
0000c0 c1 da 1a 3d 70 8e e3 bb 0e c5 7e bd 38 fe 1c b3
       0.037806276 -0.00694447 -0.062199645 -3.655279e-08
0000d0 dc 20 da 3c d5 b6 0a bc e8 e6 88 bc 0e 86 5e 3c
       0.026626997 -0.008466442 -0.016711667 0.013581766
0000e0 d0 0e 11 3d 2a b9 de 3d 62 0a 76 bd a1 a4 dc 3d
       0.035414517 0.10875161 -0.060068496 0.10773588
0000f0 c5 26 32 2d a0 a6 4a 3d 2c 9e 29 3c 67 52 0d ba
       1.0126737e-11 0.049475312 0.0103526525 -0.0005391002
000100 b2 79 2e 3d 17 c2 2c bb 13 98 fd bc b7 a2 9e bc
       0.042596526 -0.0026360804 -0.030956304 -0.019364698
000110 5e ee 2a bd 09 03 04 3c 12 52 74 3c 11 fc 90 3d
       -0.04173123 0.008057364 0.014912145 0.07079328
000120 0f 7d 24 3d b1 c5 ea 3b b5 3b 17 bd 14 f7 47 3c
       0.040158328 0.00716468 -0.036922175 0.012204904
000130 4a 6f 19 bd 8c fa 60 bd e1 93 88 3d 5f 72 f7 3d
       -0.03745965 -0.05492644 0.06668831 0.120823614
000140 12 35 37 3d 10 44 4e bd bc 9d 9d 3d 87 f2 2b bc
       0.044728346 -0.05035788 0.07696101 -0.010494835
000150 22 42 82 3d 9f 69 d9 3d 78 23 35 af ac e1 54 3d
       0.0636027 0.10615849 -1.6474455e-10 0.05197303
000160 ac 4c 0d bd 1c 01 89 36 41 3a 14 3d bc 99 21 bd
       -0.034496948 4.0830473e-06 0.036188368 -0.039453253
000170 48 d9 ca 3d 31 1d 7c bd eb b6 fe 2f 4e 8d 69 3d
       0.09904724 -0.061551277 4.6332302e-10 0.057019524
000180 f1 76 9a bb 12 1a c7 a6 2d e4 02 bd 71 c0 94 ba
       -0.004713886 -1.3815465e-15 -0.031955887 -0.0011348856
000190 cf 17 e5 bc 10 80 1d bd b7 2f 86 3b fd ee 99 3d
       -0.027965454 -0.038452208 0.0040950435 0.075162865
0001a0 f6 d7 16 bd 46 66 a3 3d 20 8b 35 bd 5a 6d 97 3d
       -0.03682705 0.079784915 -0.044322133 0.07393904
0001b0 91 e6 3e 3d 6f b2 b6 3d be 09 81 3d 85 4e b3 3a
       0.046606604 0.08920752 0.06300686 0.0013680017
0001c0 a8 be e0 3d ab 64 f0 3d 58 31 ba 3c e8 97 4a 3d
       0.10973865 0.11737951 0.022728607 0.049461275
0001d0 eb 69 f6 3d 2d 82 86 bd 12 b5 cf 3d 85 86 e7 3c
       0.12031921 -0.06567798 0.10141958 0.028262386
0001e0 4c 41 c6 bb 18 2d 57 3d f3 df 8c 3d 88 3e 1e bd
       -0.0060502645 0.05253324 0.068786524 -0.038633853
0001f0 a3 9e af 3d 4d 31 ce 3b 1f 9a 1d 3d f4 5b 05 00
       0.085751794 0.006292498 0.03847706 4.92164e-40

advantage_stream.0.weight f4 [128, 128]
000000 5f ae 04 bd 15 f5 0f bd 52 c3 bb bd ff a0 32 3c
       -0.032392856 -0.035145838 -0.09168114 0.010902642
000010 16 25 75 bd b9 7d 54 bd ee 3e 78 3d 4b 34 0d 3d
       -0.05984982 -0.05187771 0.06060689 0.0344737
000020 25 5e cf 3d 77 2a a1 bd 01 9f 26 3d ec a0 9b bb
       0.101253785 -0.07869428 0.04067898 -0.004749408
000030 a3 69 bf bd d0 a1 ce 3c 56 b4 0f 3d 80 77 5e 3d
       -0.093463205 0.025223643 0.03508409 0.054313183
000040 e5 d2 9c 3d f3 53 89 3d a7 0a 93 3d 4f 8a cc bd
       0.076574124 0.06705465 0.07179766 -0.09987318
000050 60 76 a5 3d e9 81 84 3d 57 03 81 3d 96 ba a4 bd
       0.08079219 0.06470091 0.06299465 -0.08043401
000060 66 8d 90 3d bb 88 07 3d 8c 92 8a 3d ab fb ed 3c
       0.070582196 0.03308938 0.06766233 0.029050669
000070 0c 9d f7 3d 7b 36 54 bd d2 6c 28 be c8 70 e9 bb
       0.12090501 -0.05180977 -0.16447762 -0.0071240403
000080 9d c5 cf 3d 0a 0f ad bd 01 5d 42 bd 17 83 3c bc
       0.101451136 -0.08450134 -0.047451977 -0.011505864
000090 bf 32 ab bd 1d 81 1f bc 75 ee 21 3e 92 52 e4 3d
       -0.083592884 -0.009735373 0.1581362 0.111485615
0000a0 0f f2 dd bd af 66 aa 3d 00 85 d6 bc eb 9b a4 bd
       -0.10837185 0.083203666 -0.026186466 -0.080375515
0000b0 e7 f5 62 3d 87 57 e7 bd 3f aa 30 3e 6d 11 8b bc
       0.055410292 -0.112959914 0.17252444 -0.016976083
0000c0 4f e4 ce 3c 5a 1e 9d bd 35 ad 6c 3c e3 c5 2a 3d
       0.02525535 -0.07671805 0.014445593 0.041692626
0000d0 43 ea 6f 3c d8 04 c9 3c 6e 09 7b bd 9c 78 98 3d
       0.014643255 0.024538442 -0.06128829 0.074448794
0000e0 31 c0 fd 3d 4a 8c a0 3d 22 48 3e bd a5 ee 10 3e
       0.12390173 0.07839258 -0.04645551 0.14153536
0000f0 3c 95 cf bd 0b 64 46 bd 62 76 f6 3c c5 39 8d 3d
       -0.10135886 -0.048435252 0.030085746 0.06895784
000100 29 1f fa 3d 2e 7c 8a 39 a4 34 dc bc 33 0a 7b bd
       0.122129746 0.00026413932 -0.02688057 -0.061289024
000110 b7 0d dc bc 4e 43 ab bd 64 ec f4 3d 9b c2 99 3d
       -0.026862008 -0.08362447 0.119591504 0.07507821
000120 79 0b bd bd b2 d2 f9 bc 60 81 6d bd 8b a1 41 3c
       -0.09230704 -0.030495975 -0.05798471 0.0118183
000130 57 22 1b 3d 5f db 2c bd 41 d1 9e bd eb c2 4b 3c
       0.037874546 -0.042201396 -0.07754756 0.012436609
000140 b7 ae 81 bc 00 ab e4 3d c9 54 d3 3c 3e 0f 5e bb
       -0.01583038 0.11165428 0.025797265 -0.0033883597
000150 4e 73 aa 3c 11 8d 03 3c 51 28 70 bd 95 d1 bb bd
       0.020806935 0.008029238 -0.0586322 -0.09170834
000160 fe 51 de bc 0c 55 33 3d 5b 3d a1 bb 93 7c a9 3c
       -0.027138706 0.04378228 -0.004920644 0.020689284
000170 fd 05 9d bb 39 02 d0 bd 20 8f d8 bc c2 16 70 3d
       -0.0047919736 -0.10156674 -0.026435435 0.058615454
000180 9e 32 c4 bd b5 e7 8f bd f3 6e 9e 3b ed 3f a5 bd
       -0.09579967 -0.070266165 0.0048350035 -0.080688335
000190 3a 27 f5 bc b7 54 06 3e 38 e9 87 3b 02 6c 01 bd
       -0.029925931 0.13118254 0.004147675 -0.031597145
0001a0 f4 1c 96 bd 0d b6 c5 bd 7a 8d 80 3b 01 62 a5 3c
       -0.07329741 -0.09653864 0.0039231153 0.020188333
0001b0 e2 e6 0c 3d 0a 2b 91 3d 20 5b ec bd 7e c4 65 bd
       0.034399875 0.07088287 -0.11540818 -0.056095593
0001c0 f6 43 99 bd f9 52 98 bc a0 87 2f be 84 ac ea bd
       -0.07483666 -0.018594252 -0.1714158 -0.11458686
0001d0 7d 9e 09 bd dd 0f 53 3d 26 00 ae 3d 90 b5 9c bd
       -0.03359841 0.0515288 0.08496122 -0.07651818
0001e0 4a c2 32 bd d9 bc c6 bd 70 e8 cb bd 6a bb ab 3c
       -0.04364232 -0.097039886 -0.09956443 0.02096339
0001f0 bc 09 91 3d b3 3d c2 bd c7 4c 93 3d 50 14 35 3d
       0.07081935 -0.094844244 0.071923785 0.044208825
000200 c3 93 bc bd bb a0 c0 3c 62 2a 86 bd 23 39 44 3d
       -0.09207871 0.023514142 -0.06551053 0.047906052
000210 bb 0d ed bd e5 3b 89 bd c8 8a a6 3c e0 79 e6 b9
       -0.115748845 -0.06700877 0.020329848 -0.00043959823
000220 e3 ad b4 3b 50 4f b8 bd 8b f9 4f bd 98 ad 41 bd
       0.005513893 -0.08999503 -0.050775092 -0.047284693
000230 e6 88 69 bd 06 88 57 bd b4 ce 8b 3d 5d 34 26 3d
       -0.057015322 -0.052619956 0.06826535 0.04057728
000240 71 14 96 bc 6a 61 07 3d ee e5 a1 3d 83 3b da bd
       -0.018320294 0.033051886 0.07905184 -0.10655882
000250 24 37 9f bd e5 f7 8f ba 2e 8d 97 bd d9 f4 95 3d
       -0.07774189 -0.0010983913 -0.07399975 0.073220916
000260 72 8f 6d 3c 3d 74 78 bc 9d fd 04 3c 52 67 84 3d
       0.014499532 -0.015164432 0.008117107 0.06465019
000270 2e eb 12 bd b1 d7 71 bd 8f 6e 1f bd f2 73 34 3c
       -0.035868816 -0.05904359 -0.038923796 0.011013972
000280 c5 c3 c3 3d 47 02 d2 bd 23 84 4c 3d e2 76 26 bd
       0.095588244 -0.102543406 0.049930703 -0.04064072
000290 d4 1a 2d bd f5 31 80 bb 80 5a de 3d 62 3f 93 3d
       -0.042261913 -0.0039122053 0.10857105 0.07189824
0002a0 07 0a 03 3d 95 34 9a bc ff 39 cd bc 2a 3e b3 bd
       0.031991985 -0.018823901 -0.025052069 -0.08752091
0002b0 ca cb 07 bd e9 74 6b bd 08 f8 2d bd e4 76 ae bd
       -0.033153333 -0.05748454 -0.04247287 -0.0851877
0002c0 56 d9 64 bd fb 1d c1 3c 34 11 e7 bc e4 6b 35 bd
       -0.05587133 0.023573866 -0.028206445 -0.044292346
0002d0 ac bb 8e 3d fb 66 9b bd 43 f8 95 3c 61 c2 5e 3c
       0.06969389 -0.07588001 0.018306857 0.013596148
0002e0 eb 21 1e 3e 24 f7 88 bc 7c f8 36 bd 37 92 23 b8
       0.15442626 -0.016719408 -0.044670567 -3.89984e-05
0002f0 08 eb ab 3d 16 99 5a bd d1 6b e2 3d 04 85 39 3d
       0.08394438 -0.05336865 0.110557206 0.04529287
000300 82 fb f4 bc 3b 54 ba 3d 0a 3e c4 3c cd 0a 39 3c
       -0.029905085 0.09098097 0.023955364 0.011294079
000310 10 52 dc 3d f2 34 9c 3d b3 99 b0 3c 1c ae a0 bd
       0.1075784 0.07627286 0.021557664 -0.07845709
000320 96 6b 42 3d 07 50 14 3e 55 68 93 3d 2d 4c 41 bc
       0.047465883 0.14483653 0.07197634 -0.011797947
000330 23 2e f7 3c 9a ea 0e 3d ec 1b f1 3c 6d 75 08 3e
       0.030173367 0.034891702 0.02943226 0.13326044
000340 60 84 3d bd d6 18 a9 3d e8 4c 7d bc a8 e6 f8 3c
       -0.04626882 0.0825669 -0.01546023 0.030383423
000350 fb ad 90 3d 51 59 69 bd e5 0d de bc c2 d7 65 3d
       0.07064434 -0.056969944 -0.027106235 0.056113966
000360 cc d7 d2 bc e3 7b 70 3d cd 2e b9 3c f6 99 73 3c
       -0.025737666 0.058711898 0.022605324 0.01486825
000370 c6 eb 1a 3d 9b a7 9c 3d a0 bd 46 bd c8 0d ae 3d
       0.037822507 0.07649156 -0.048520684 0.08498722
000380 12 75 a8 3d e6 6c db bc 5d 5d a2 bd 8c ad d0 bd
       0.082254544 -0.026785325 -0.07927964 -0.101893514
000390 73 63 83 bc 6f 05 93 3d ea 8b 85 bd 64 75 2b 3b
       -0.016038632 0.07178771 -0.06520827 0.00261625
0003a0 93 8f ab bd 52 1c 6a bd d2 00 1e 3d 0b 69 39 3d
       -0.08376994 -0.057155915 0.038575 0.045266192
0003b0 eb c3 3e bc 3d dd 0c 3c 3e 26 01 3d e5 c0 7c bd
       -0.01164339 0.008597669 0.03153061 -0.061707396
0003c0 dc 02 46 3c e8 66 da ba 00 05 52 ba ff da 38 bd
       0.012085643 -0.0016662749 -0.00080116093 -0.045130726
0003d0 31 54 84 3b 26 f2 a7 3c 28 78 be 3d d0 25 a8 3c
       0.0040383567 0.020501208 0.09300262 0.020525843
0003e0 50 2b 03 3d cc 71 b9 3c df 2e ab 3d d5 96 cb 3d
       0.032023728 0.02263727 0.08358549 0.09940878
0003f0 73 ef ae bd b1 54 93 bc dc 0b 0c 3d bf c8 56 3d
       -0.08541765 -0.01798472 0.034190997 0.05243754

advantage_stream.0.bias f4 [128]
000000 1c 26 aa 3d 88 d9 5b 3b 01 53 cc 3d 8c 6e 31 3b
       0.0830805 0.0033546407 0.09976769 0.0027073948
000010 6e 75 54 b7 a2 e3 de 3d bb 14 76 3d 66 10 7f bd
       -1.2663526e-05 0.10883261 0.060078364 -0.0622715
000020 ad bc c4 3d 67 15 cb 3d c9 4c 86 3d 12 05 85 bc
       0.096062995 0.099161915 0.06557614 -0.01623777
000030 a4 69 3c 3d 90 19 82 3d 9a 42 b4 3d e1 99 f2 3d
       0.045999184 0.06352532 0.08801766 0.11845756
000040 d4 7b a4 3d b7 4b 62 3d b8 08 74 3d 40 df 27 bd
       0.08031431 0.05524799 0.059578627 -0.040984392
000050 8b 23 c5 3d d8 dc 15 3d a7 64 79 3d 3a 01 80 3d
       0.0962592 0.036587566 0.060887005 0.06250234
000060 c6 76 f6 3c 62 75 0c 3e 58 7c c5 3d 01 e5 3b bc
       0.030085932 0.13716653 0.09642857 -0.011468173
000070 f2 0c a1 3d 8e 33 79 3d 7b dc 8c 3d 29 2f 4c 3d
       0.07863797 0.060840182 0.06877991 0.049849663
000080 58 53 3c 3b 40 45 c6 b8 af e2 a7 3d 98 5a 91 3a
       0.00287362 -9.4542746e-05 0.08197533 0.0011089621
000090 23 7a eb bb 2b 97 82 3b 61 c8 bc 3c 2a 3a cb 3c
       -0.0071861907 0.003985306 0.023044767 0.024808008
0000a0 d5 b6 35 bd 7d 85 3c 3d fe ea a7 3b 71 65 97 3c
       -0.044363815 0.04602574 0.005124449 0.018480988
0000b0 d6 51 19 3d 96 06 ce 3d 9b 2c c6 3c 15 9a 47 b9
       0.03743156 0.1005985 0.024191191 -0.00019035519
0000c0 f9 01 14 bd fe 73 ea 3b a8 68 c0 3d 9c dd a9 3d
       -0.036134694 0.0071549406 0.093949616 0.08294222
0000d0 94 8c 8d 3d e5 4a a3 3c 8a 11 c0 3d e0 27 83 3c
       0.06911579 0.019933173 0.09378345 0.016010225
0000e0 50 e6 e4 3d 5d 19 88 bd 5a 09 af 3d 1a b5 2e bd
       0.11176741 -0.06645463 0.085467055 -0.04265318
0000f0 8c a7 0d bc 0a 39 c3 3d af d2 58 3d 6a e6 02 3d
       -0.008645903 0.09532364 0.0529353 0.03195802
000100 27 34 f7 bc bf 81 4f 3d 97 83 dc bb e8 d0 40 bc
       -0.030176235 0.050660845 -0.006729554 -0.011768557
000110 22 a0 a5 3c a5 de c7 3d af d7 b1 3d ed 20 ac 3d
       0.020217959 0.09759263 0.086837165 0.084047176
000120 ff 46 fe 3c 40 65 84 bc 42 e7 0c bc 3c 4d 9d bc
       0.031039713 -0.016161561 -0.008600058 -0.019201867
000130 81 5d a6 3d 34 38 9d 3d 6c f9 07 3b 2f 70 98 3d
       0.08123303 0.076767355 0.0020748032 0.07443272
000140 92 59 85 3d 6c a4 a8 3d ea 90 d8 3c 60 64 51 bb
       0.06511225 0.08234486 0.026436288 -0.0031950697
000150 c4 2d 24 3d 6d 46 c5 bc 80 40 96 bb eb 4f 3e 3b
       0.040082708 -0.024081433 -0.0045853257 0.0029039334
000160 dd 94 82 bd 88 b3 cf 3d cb ca 0f bd e4 82 2b 3c
       -0.0637605 0.10141665 -0.035105508 0.0104682185
000170 5c 9d 12 3c 12 95 b3 bc 75 08 e5 3d 4f 2d bf 3d
       0.00894865 -0.021921668 0.11183254 0.09334814
000180 a0 6b 29 3d 38 62 b0 bc 66 26 36 b5 62 bb 1d 3d
       0.041362405 -0.02153121 -6.785616e-07 0.03850878
000190 b6 04 8e bc 93 7f f7 3d 22 64 e7 3d 2e 1a 24 bd
       -0.01733623 0.1208488 0.11298396 -0.04006403
0001a0 a5 5f ee 3c d1 ad d6 bc d3 fc 03 ba f8 3b e0 bc
       0.029098341 -0.026205929 -0.0005034927 -0.027372345
0001b0 89 57 87 bd 1b ea 94 3d 79 3a 4a 3d cc 61 6d 3d
       -0.06608493 0.072712146 0.04937217 0.057954594
0001c0 52 07 07 bd c9 2c e6 3d 76 60 ed 3d 7c b9 20 3d
       -0.032965966 0.11239011 0.11590664 0.03923939
0001d0 b9 4e 18 3d 17 cb 05 3e 0c 2b 47 3d 3f 97 c0 3d
       0.03718445 0.13065754 0.048625037 0.09403848
0001e0 09 90 4e bc 54 2f f8 3c f2 ca 97 bc 1d 2f 6e 3d
       -0.012607583 0.030296005 -0.018529389 0.0581504
0001f0 9f d0 13 3c db 45 8a 3c 97 86 ba 3d 55 22 e7 3d
       0.009021907 0.016879013 0.09107702 0.11285845
