models/GRU_DDQN_20251201_190455.pt (torch, 815333 bytes, 8 tensors)

gru.weight_ih_l0 f4 [384, 20]
0	0xbd990c5e	-0.07473062
1	0x3c0347b5	0.008012702
2	0x3e135fac	0.14391965
3	0xbcab4e03	-0.020911222
4	0x3cbeac5c	0.023275547
5	0x3c8d525b	0.017251184
6	0xbe270165	-0.16309126
7	0xbca430dc	-0.02004283
8	0xbe594c13	-0.21220426
9	0xbcdd89a3	-0.02704317
10	0xbcf5d2cf	-0.030007748
11	0xbc92fd0d	-0.01794293
12	0xbdad52d0	-0.08463061
13	0x3c541741	0.012944997
14	0xbdf7ccf5	-0.12099639
15	0xbdc9fc6c	-0.09862599
16	0x3d03f418	0.032215208
17	0xbd9b9bd1	-0.07598079
18	0xbd6589e7	-0.056039717
19	0x3d8030e6	0.06259327
20	0xbd4e7e5d	-0.05041348
21	0xbe2cb2e1	-0.16865112
22	0xbd26a6f5	-0.040686566
23	0xbd9746b4	-0.073865324
24	0xbd4d672f	-0.05014723
25	0xbd8c3631	-0.06846274
26	0xbd392bbe	-0.04520773
27	0x3d0af5f0	0.03392595
28	0x3c44ed58	0.012019478
29	0xbd245407	-0.040119197
30	0xbc2042a9	-0.009781518
31	0x3db4fa03	0.088367485
32	0xbdee0060	-0.11621165
33	0xbd5db665	-0.054129023
34	0x3c2d8df9	0.010592931
35	0x3d98a746	0.0745378
36	0xbd4112bd	-0.04713701
37	0xbd0c9eeb	-0.034331243
38	0xbd033394	-0.03203161
39	0xbc36800c	-0.011138927
40	0xbcb28fd7	-0.021797104
41	0x3dd2da7b	0.10295578
42	0xbcf2a2a6	-0.029618572
43	0xbdc9f137	-0.09860461
44	0xbdf16bfe	-0.11788176
45	0x3c8e2b02	0.017354492
46	0x3ce037cc	0.027370356
47	0x3c4e6756	0.012597879
48	0x3c2a9987	0.01041258
49	0xbdbcb199	-0.092135616
50	0xbce7285a	-0.028217483
51	0x3c94e0d9	0.018173622
52	0x3e442db2	0.19158056
53	0xbd6b7d9b	-0.057492834
54	0xbce9d148	-0.028542176
55	0xbdd32bc6	-0.103110835
56	0x3e175aaa	0.1478068
57	0xbd4ff841	-0.050773863
58	0xbe122542	-0.14272025
59	0xbd0d195c	-0.034448013
60	0x3d5a0c2b	0.05323426
61	0x3d93dac2	0.07219459
62	0xbd324ae7	-0.043528464
63	0xbd09d704	-0.03365232
64	0xbc8a9092	-0.01691464
65	0xbdc64b44	-0.096823245
66	0x3d37c5b1	0.044866268
67	0x3d608dc5	0.054822702
68	0x3de2d5f0	0.110759616
69	0x3a55229e	0.00081304635
70	0x3c0cb132	0.0085871685
71	0xbe395729	-0.18099655
72	0x3e4a52b6	0.19758114
73	0xbdccdd8f	-0.100031964
74	0x3e202855	0.15640385
75	0xbdad932d	-0.08475337
76	0xbd52d98c	-0.051477
77	0x3b54a14e	0.0032444778
78	0x3d10b91f	0.035332795
79	0xbd3b4e6c	-0.045729086
80	0xbc823d6f	-0.015898434
81	0xbd60e181	-0.054902557
82	0xbd443bdb	-0.047908645
83	0x3d1a95ef	0.037740644
84	0xbca24751	-0.019809397
85	0x3d2559f6	0.040368997
86	0xbddb2d7f	-0.10702037
87	0x3d37637e	0.044772618
88	0xbdeaf983	-0.11473372
89	0xbe0de119	-0.13855399
90	0xbc9982ce	-0.01873913
91	0xbd7d66f3	-0.06186576
92	0xbe0625d9	-0.13100375
93	0xbd533753	-0.051566433
94	0x3bb30f0f	0.0054644416
95	0x3d2e7da3	0.042600285
96	0x3d2b793e	0.041863672
97	0xbdaab1a5	-0.08334664
98	0xbd39506a	-0.045242704
99	0x3cc22164	0.023697563
100	0x3c201d97	0.00977268
101	0xbccb2951	-0.024799975
102	0x3dc114ab	0.0942777
103	0x3dbfa86a	0.09358294
104	0x3d6f561f	0.05843174
105	0x3d4f6c45	0.050640363
106	0xbdebeec2	-0.11520149
107	0xbc8c82d3	-0.017152226
108	0xbd70a07d	-0.058746804
109	0x3d72bdb3	0.059262943
110	0xbd1291bf	-0.035783526
111	0x3e28717c	0.16449541
112	0x3cfab28e	0.03060272
113	0x3d4595fb	0.048238736
114	0xbb7c50fa	-0.0038500414
115	0xbddceae9	-0.10786993
116	0x3e2b858d	0.16750164
117	0x3d8e992a	0.069628075
118	0xbe1e14e7	-0.15437661
119	0xbd57977e	-0.05263471
120	0xbd5a4608	-0.053289443
121	0x3dba3f59	0.09094114
122	0xbe14816f	-0.145025
123	0xbe43d27c	-0.19123262
124	0xbe1935f1	-0.14961983
125	0xbdfc7bfb	-0.12328335
126	0x3d5bd1c9	0.053666864
127	0x3c6091f1	0.01370667
128	0x3d05f701	0.032706264
129	0xbdf0411b	-0.11731168
130	0x3ce47cc4	0.027891524
131	0xbe3c4f96	-0.18389735
132	0x3e3a5562	0.18196633
133	0xbdab63ee	-0.083686695
134	0x3dc41f35	0.09576265
135	0xbdfc5d6d	-0.12322507
136	0xbd9c7022	-0.07638575
137	0x3e064e03	0.13115697
138	0xbd98012d	-0.07422099
139	0x3c8e4ab2	0.017369602
140	0xbe582731	-0.211087
141	0xbceb0f7d	-0.028693909
142	0xbcbd55cc	-0.0231122
143	0xbc59ab95	-0.013285537
144	0xbd00c41a	-0.031437017
145	0xbd83b6c5	-0.06431345
146	0xbdfef9b9	-0.124499746
147	0x3c66398f	0.014051809
148	0xbd67386a	-0.056450285
149	0xbe010598	-0.1259979
150	0x3c636b21	0.013880522
151	0xbca6a8ee	-0.020344224
152	0xbdb96a07	-0.09053426
153	0xbcbdf9c0	-0.02319038
154	0xbd825ba8	-0.06365138
155	0xbd36fafd	-0.044672955
156	0xbb21f8d9	-0.0024714975
157	0xbddb5ac3	-0.10710671
158	0x3b922269	0.0044596684
159	0x3cdf297a	0.027241457
160	0xbd620e74	-0.055189565
161	0x3cca0cfb	0.024664393
162	0xbdac400a	-0.08410652
163	0xbd8f7413	-0.07004561
164	0xbd796c68	-0.0608944
165	0x38b359be	8.552101e-05
166	0xbd0bc10f	-0.034119662
167	0x3d60001f	0.054687615
168	0x3d423f99	0.047423933
169	0xbd9a6ba1	-0.0754006
170	0xbcc3ec8b	-0.023916503
171	0xbe1045c1	-0.14089109
172	0x3e34c47c	0.17653078
173	0xbd048a47	-0.032358434
174	0x3d8dde0c	0.06927118
175	0xbd89c329	-0.06726677
176	0xbd7b5003	-0.061355602
177	0x3c278106	0.010223633
178	0x3e103fd5	0.1408685
179	0xbd23596c	-0.0398802
180	0xbd035180	-0.032060146
181	0xbdf4c7b1	-0.119521506
182	0xbd85b052	-0.06527771
183	0x3cc6e128	0.024277285
184	0x3d4374de	0.047718875
185	0x3c33d60e	0.010976328
186	0xbe0915d1	-0.13387229
187	0x3d2f83d1	0.04285032
188	0xbaaaecaa	-0.0013040502
189	0x3c30455d	0.010758725
190	0x3beec261	0.0072863554
191	0xbc06fa73	-0.008238423
192	0xbc7726ca	-0.015084932
193	0x3b037895	0.0020060886
194	0xbaf4da77	-0.001868083
195	0x3da926d9	0.08259363
196	0xbd6a9c4e	-0.05727797
197	0xbe26b94d	-0.16281624
198	0xbda051c8	-0.078280985
199	0x3b96128a	0.0045798467
200	0xbe223037	-0.15838705
201	0xbe6222c7	-0.22083579
202	0xbe591c20	-0.21202135
203	0xbdaade21	-0.08343149
204	0x3c35bf44	0.011092965
205	0x3dc78fc7	0.0974422
206	0x3d4afa0d	0.049554873
207	0xbd19713c	-0.037461504
208	0x3ca1f114	0.019768275
209	0xbdd3c8a2	-0.10341002
210	0xbd57d3eb	-0.052692335
211	0xbe1ae009	-0.15124525
212	0xbd6caebd	-0.05778383
213	0xbd976dd6	-0.073939964
214	0xbdea7e02	-0.11449815
215	0x3e16d80d	0.14730854
216	0xbe9e15d4	-0.3087603
217	0xbe223afa	-0.1584281
218	0x3db7fb54	0.08983484
219	0x3d9fd7db	0.07804843
220	0x3bd64144	0.006538542
221	0x3d6e8022	0.058227666
222	0xbde77432	-0.11301459
223	0x3acc3e83	0.0015582595
224	0xbdc011af	-0.09378373
225	0xbded0aac	-0.11574301
226	0x3dbcbb59	0.09215421
227	0x3e16b6ce	0.14718172
228	0x3d65ece9	0.05613414
229	0xbdf237cc	-0.11827049
230	0xbcc486f8	-0.02399014
231	0xbe303447	-0.17207442
232	0x3e6b3ef3	0.22973232
233	0xbdd59b0e	-0.10429965
234	0x3da18537	0.07886737
235	0xbe91a963	-0.28449544
236	0xbc8fb1d3	-0.017540848
237	0xbc0ca922	-0.008585246
238	0x3d69b003	0.057052623
239	0xbd33aaa2	-0.0438639
240	0xbddde5e9	-0.108348675
241	0x3cc48caf	0.023992864
242	0xbcb0fd31	-0.021605106
243	0xbdd82992	-0.10554804
244	0xbda103a2	-0.07862021
245	0xbdb4939d	-0.088172175
246	0xbd2fa8db	-0.042885642
247	0xbb8789d7	-0.004136305
248	0xbdeb9a15	-0.11503998
249	0x3c587ed2	0.01321383
250	0x3bfd0a26	0.007722157
251	0xbd2330e6	-0.039841555
252	0xbc008abc	-0.007845577
253	0xbd387fd3	-0.045043778
254	0x3d8c26d0	0.068433404
255	0xbd96437a	-0.07337089

gru.weight_hh_l0 f4 [384, 128]
0	0xbbd07245	-0.0063612782
1	0x3d2d9597	0.042378988
2	0xba112734	-0.0005537153
3	0x3b5a2960	0.0033288822
4	0xbcfc106e	-0.030769553
5	0xbd3d5084	-0.046219364
6	0x3db58150	0.08862555
7	0x3cf4dcef	0.029890506
8	0xbd1cf1ff	-0.038316723
9	0x3cba2f06	0.0227275
10	0x3ccb7474	0.024835803
11	0x3d846e1c	0.06466314
12	0xbd159a3d	-0.036524046
13	0xbd9a70ed	-0.0754107
14	0xbd2aa1c9	-0.041658197
15	0xbe0ac9d4	-0.13553554
16	0xbc0398d3	-0.008032042
17	0x3daffd76	0.08593266
18	0xbd690467	-0.056888964
19	0xbcda6f4f	-0.026664404
20	0xbb89b87d	-0.004202901
21	0x3d392acf	0.04520684
22	0xbd1b7d29	-0.03796116
23	0x3c45e286	0.012077933
24	0x3dafa1b4	0.08575764
25	0xbd07e86e	-0.033180647
26	0xbd6e3c07	-0.058162715
27	0xbcbddb72	-0.023175929
28	0xbcacd751	-0.021098765
29	0xbd7b1e4b	-0.061308187
30	0xbd603333	-0.054736327
31	0x3cb8d044	0.022560246
32	0x3aca7c17	0.0015448359
33	0x3ce81cf1	0.028334113
34	0x3cda6f53	0.026664412
35	0x3dcc57fa	0.09977718
36	0xbc88c362	-0.016694728
37	0xbccc6285	-0.024949322
38	0x3d443c42	0.04790903
39	0x3ccecd31	0.025244327
40	0xbbdd77c8	-0.006758664
41	0xbcab3ffa	-0.02090453
42	0xbd42e76d	-0.047583986
43	0xbcb50bd3	-0.022100365
44	0x3d9aaa0c	0.07551965
45	0xbd227cf9	-0.039669964
46	0x3be3d276	0.006952579
47	0x3ccd1a0a	0.02503683
48	0xbb91f0f3	-0.004453772
49	0xbd06506f	-0.03279155
50	0xbc54c7c6	-0.012987083
51	0x3d1a5e08	0.03768733
52	0x3bbe23b4	0.005802596
53	0x3dbde11c	0.09271452
54	0x3ca710cf	0.020393757
55	0x3c9faff1	0.019493075
56	0x3d8a5b8b	0.06755742
57	0x3dab4584	0.083628684
58	0x3cc93d7a	0.024565447
59	0xbcc2551d	-0.023722226
60	0xbceb0caa	-0.028692562
61	0x3d60b29e	0.054857843
62	0xbdbe0d89	-0.092799254
63	0xbceda241	-0.029008033
64	0x3c8b655c	0.017016105
65	0xbd2962a8	-0.04135385
66	0x3c9f36bf	0.019435285
67	0x3cab67d1	0.020923527
68	0x3c8ca34b	0.017167708
69	0x3da6b140	0.081392765
70	0xbc4f1954	-0.012640316
71	0xbc444d9b	-0.011981393
72	0xbc32a778	-0.0109041855
73	0xbd50ddfa	-0.050992943
74	0x3cae30ee	0.021263566
75	0x3d632cc4	0.055462614
76	0xbc650593	-0.01397838
77	0x3d037412	0.032093115
78	0xbd82bc78	-0.06383604
79	0x3ce1cac3	0.027562505
80	0xbca29264	-0.019845195
81	0xbc44c5d5	-0.012010057
82	0x3c980da6	0.018561196
83	0x3cfe46e2	0.031039659
84	0xbd1ec17c	-0.03875874
85	0xbd9ae0cc	-0.07562408
86	0x3d10e08b	0.03537039
87	0x3cecccbc	0.028906219
88	0x3cb73f81	0.022369148
89	0x3b240a06	0.0025030388
90	0x3cc44a86	0.023961317
91	0xbe048751	-0.12942244
92	0xbb2c27bc	-0.00262688
93	0xbb7fbd5c	-0.003902278
94	0x3d3a6ca0	0.04551375
95	0xbcb5e73f	-0.022204993
96	0xbc4da958	-0.012552582
97	0x3c969ff3	0.018386817
98	0x3cc2a427	0.023759915
99	0x3cafa2cc	0.021439932
100	0x3cf37daa	0.029723007
101	0xbc1ef725	-0.009702479
102	0xbc3b25d4	-0.011422593
103	0x3c074dfc	0.008258339
104	0xbd0ec749	-0.034858022
105	0x3d63dfb3	0.055633258
106	0x3c22f202	0.0099453945
107	0xbd36305e	-0.04447972
108	0xbbd65ea0	-0.006542042
109	0x3dc308d1	0.09523166
110	0xbd03e4f5	-0.032200772
111	0xbcd4edb0	-0.025992244
112	0xbd249c5c	-0.04018818
113	0xbd4df753	-0.050284695
114	0x3d0bea20	0.034158826
115	0xbd16ad65	-0.036786456
116	0x3b56a293	0.003275071
117	0xbbf5d3ab	-0.0075020394
118	0x3dc3dc4c	0.09563503
119	0xbd2be790	-0.041968882
120	0xbbaef1c1	-0.005338878
121	0x3cf950fb	0.030434122
122	0x3d77068a	0.06030897
123	0x3baba387	0.005238
124	0x3c2ff9b4	0.010740686
125	0x3d21cc04	0.039501205
126	0xbcaad66c	-0.020854197
127	0x3ce27d35	0.027647594
128	0x3a6a2ae4	0.0008932783
129	0x3c311d0b	0.010810147
130	0x3b4b0192	0.0030976278
131	0x3c08fdbe	0.008361278
132	0x3db832cc	0.08994064
133	0x3cb22ed5	0.021750847
134	0x3c8ec035	0.017425636
135	0x3d503bf0	0.05083841
136	0xbd374dca	-0.04475192
137	0xbb985dc5	-0.00464985
138	0x3db83ddb	0.08996173
139	0x3d37779a	0.044791795
140	0x3d041813	0.03224952
141	0x3cb7ebb6	0.022451263
142	0xbd25e7bc	-0.040504202
143	0xbd4b6ac5	-0.04966237
144	0xbda1caa6	-0.0789998
145	0x3db5dc6a	0.08879931
146	0xbbd4c1bf	-0.006492823
147	0xbd1a0d98	-0.03761062
148	0x3d8c769e	0.06858562
149	0x3d8b54b7	0.068032674
150	0xbd0c03dd	-0.03418337
151	0x3c5a83ea	0.013337115
152	0x3d212aff	0.039347645
153	0xbd89876f	-0.06715285
154	0x3d0a5742	0.03377462
155	0x3cffc349	0.031221049
156	0xbae545c3	-0.0017492104
157	0x3ce59a00	0.028027534
158	0xbcf555f3	-0.02994821
159	0x3cc0c455	0.023531118
160	0x3cb22111	0.021744283
161	0x3df0f6dc	0.11765835
162	0xbc95cda9	-0.018286543
163	0x3c8da0e0	0.017288625
164	0x3bc85c31	0.0061145057
165	0x3b043fc6	0.0020179613
166	0x3c495741	0.012288869
167	0xbb422ae8	-0.0029627625
168	0x3d133c9b	0.03594647
169	0x3d855367	0.06510048
170	0x3cb31991	0.021862777
171	0xbcaaf889	-0.020870464
172	0x3c5a85c3	0.013337555
173	0xba3cf083	-0.000720747
174	0xbcec5313	-0.028848207
175	0x3c852bbc	0.016256206
176	0xbd900b79	-0.07033438
177	0xbd3e65c1	-0.04648376
178	0x3ccac46a	0.02475186
179	0x3c8bddbe	0.017073508
180	0xbd887685	-0.06663231
181	0x3d891e29	0.06695206
182	0xbc4497f0	-0.011999115
183	0x3ca6c707	0.020358576
184	0x3d915cf9	0.07097811
185	0xbc485e65	-0.012229537
186	0xbd7b4e9e	-0.061354272
187	0x3d9d3716	0.076765224
188	0x3da2ecc3	0.07955315
189	0xbdb72849	-0.08943231
190	0xbd079d5b	-0.03310905
191	0x3ca773bb	0.020440927
192	0xbca66adc	-0.020314626
193	0xbd9d95dd	-0.076946
194	0x3ccadea3	0.024764365
195	0xbd1ad9dd	-0.037805427
196	0x3c94440c	0.018098854
197	0x3d83a5b1	0.064280875
198	0xbda07501	-0.07834817
199	0x3ded4246	0.11584906
200	0x3c1e0783	0.009645346
201	0x3d871ca9	0.06597263
202	0x3dfc03ac	0.12305388
203	0x3c88c940	0.016697526
204	0xbd6d042e	-0.057865314
205	0xbcf20dae	-0.029547539
206	0xbd11515f	-0.035477992
207	0x3c61222e	0.013741059
208	0x3d43851a	0.047734357
209	0x3c8f87bd	0.01752078
210	0xbd32263c	-0.043493494
211	0x3c07cca8	0.00828854
212	0xbd867fae	-0.06567322
213	0xbd8af68e	-0.06785308
214	0x3df5fd79	0.12011237
215	0x3ce8aee7	0.028403712
216	0x3d83d996	0.064379856
217	0x3d13b647	0.036062505
218	0x3ccb0a44	0.024785168
219	0xbd1367b0	-0.035987556
220	0xbd858d3c	-0.06521079
221	0x3c9ba757	0.019000692
222	0x3cbdc3dd	0.023164684
223	0xbcd3b66a	-0.025843818
224	0xbc9b17c6	-0.018932234
225	0x3dbb466e	0.09144293
226	0xbd17a9fa	-0.037027337
227	0x3bfa7ad9	0.007644039
228	0xbd3d1b3a	-0.046168543
229	0x3d0d6699	0.034521673
230	0x3da5e352	0.080999985
231	0x3d5f6bb7	0.054546084
232	0xbd464248	-0.048403054
233	0xbcbabe5a	-0.022795845
234	0xbbeb4301	-0.0071796183
235	0x3c5fb47f	0.0136538735
236	0xbc7c9910	-0.015417352
237	0x3d324887	0.0435262
238	0xbd03290f	-0.03202158
239	0xbd12d7b0	-0.035850227
240	0xbd886852	-0.066605225
241	0xbdd52559	-0.10407514
242	0x3c5bc42d	0.013413471
243	0x3ce3a485	0.02778841
244	0xbd5cb5a5	-0.053884167
245	0x3cc4caa5	0.02402241
246	0x3d73bc1e	0.059505574
247	0x3ce310b9	0.027717935
248	0x3d5a0d85	0.05323555
249	0x3c96e3e9	0.018419223
250	0xbc2bc0b6	-0.010482958
251	0xbb61f3f2	-0.0034477678
252	0x3dfb0316	0.12256448
253	0xbc247635	-0.010037948
254	0x3c1ebeab	0.0096890135
255	0xbd107be5	-0.035274405

gru.bias_ih_l0 f4 [384]
0	0xbd85119e	-0.06497501
1	0xbd928492	-0.07154192
2	0xbc1073e3	-0.008816692
3	0xbdc00c05	-0.093772925
4	0xbd943182	-0.07236005
5	0x3d332b20	0.0437423
6	0xbe07d245	-0.13263805
7	0xbd8f8055	-0.07006899
8	0x3c9935a3	0.018702334
9	0x3b5e23ef	0.003389593
10	0xbc9fcbb3	-0.019506311
11	0xbdbf79fb	-0.09349438
12	0xbdf4a269	-0.1194504
13	0xbde30d4a	-0.11086519
14	0xbdb0a7e9	-0.08625776
15	0xbda06fc5	-0.07833818
16	0xbd9cff30	-0.07665861
17	0x3d5717bb	0.052512866
18	0x3db55f0b	0.08856019
19	0xbe0ab85d	-0.13546892
20	0x3d296a2b	0.041361015
21	0xbd31e267	-0.043428805
22	0xbe05afe7	-0.13055383
23	0xbcb679b3	-0.022274828
24	0xbcfa5677	-0.030558808
25	0x3cad5f26	0.021163534
26	0xbda2cb30	-0.07948911
27	0xbda9e401	-0.082954414
28	0xbde23340	-0.110449314
29	0x3c0894f0	0.008336291
30	0x3d6b2deb	0.057416838
31	0xbd0c1a9c	-0.034205064
32	0xbd12cb10	-0.035838187
33	0xbd2507b9	-0.040290568
34	0xbd8834b9	-0.06650681
35	0x3c33d15d	0.010975209
36	0xbdb92e22	-0.09042002
37	0xbdd2bbc2	-0.10289718
38	0xbdcffb75	-0.101553835
39	0xbd5e853a	-0.054326274
40	0xbdbcd26b	-0.092198215
41	0xbc9ac95a	-0.01889484
42	0xbd590ba9	-0.052989636
43	0xbd319a90	-0.043360293
44	0xbdb129ac	-0.086505264
45	0x3d9c3658	0.07627553
46	0xbdcc3ba7	-0.09972315
47	0xbdf1643d	-0.11786697
48	0xbd8ae4c2	-0.06781913
49	0xbdb32e3f	-0.08749055
50	0xbda15968	-0.07878381
51	0xbe36a9a3	-0.17838149
52	0x3cbedb8c	0.023298047
53	0xbce9331a	-0.02846675
54	0x3cbdcba0	0.023168385
55	0xbddedb40	-0.10881662
56	0xbdae2288	-0.0850268
57	0xbde78c54	-0.11306062
58	0xbbfe4533	-0.007759714
59	0x3d4f37da	0.050590374
60	0xbd88ddf3	-0.066829585
61	0xbcd7e446	-0.026353966
62	0x3cc20fd3	0.023689186
63	0x3d3d4b73	0.046214532
64	0xbdaa9558	-0.08329266
65	0xbd591ddb	-0.053006988
66	0xbd93d4f1	-0.0721835
67	0x3d643429	0.055713806
68	0xbd59327f	-0.053026672
69	0x3a49e2e5	0.00077013514
70	0xbdab9064	-0.0837715
71	0xbdd3b178	-0.10336584
72	0xbdbba8e0	-0.0916307
73	0xbd56d569	-0.052449618
74	0xbd3406e9	-0.043951903
75	0xbde3497c	-0.110980004
76	0x3b809cef	0.003924958
77	0xbde67234	-0.11252251
78	0xbbd9a4d7	-0.006641965
79	0xbde0f6eb	-0.10984596
80	0xbce25ba0	-0.02763158
81	0xbdad0d12	-0.084497586
82	0xbd3fb4d8	-0.046803325
83	0xbe0337d9	-0.12814273
84	0x3c28ada1	0.010295303
85	0xbc2f1e5d	-0.0106883915
86	0xbd59241c	-0.053012952
87	0xbd91f40a	-0.07126625
88	0xbdded5e2	-0.10880639
89	0xbd5363d2	-0.051608868
90	0xbd61089c	-0.05493985
91	0x3d7e53a1	0.062091473
92	0xbdad5444	-0.08463338
93	0xbda66445	-0.08124594
94	0xbda072e7	-0.07834416
95	0xbd062955	-0.03275426
96	0x3baf5c6e	0.0053515946
97	0x3ca2eb14	0.019887485
98	0xbdbcb175	-0.09213535
99	0xbcb55fc3	-0.02214039
100	0xbd513716	-0.051077925
101	0xbce41702	-0.027843002
102	0xbe13abf1	-0.14421059
103	0xbd2bf398	-0.041980356
104	0xbdd51920	-0.10405183
105	0xbd21e008	-0.039520293
106	0xbd646c9a	-0.055767633
107	0xbcf4dbd3	-0.029889977
108	0xbcad55b3	-0.021159029
109	0xbc197bf5	-0.009367933
110	0x3cb7f1ed	0.022454226
111	0xbd89432a	-0.06702264
112	0x3cd50570	0.02600357
113	0xbd90b33f	-0.070654385
114	0xbd766f08	-0.06016448
115	0xbd4aa340	-0.049472094
116	0xbe444115	-0.19165452
117	0xbd8145e3	-0.06312158
118	0xbc514cdf	-0.012774675
119	0xbc41c913	-0.011827725
120	0xbdbfe917	-0.0937063
121	0xbb1252a1	-0.0022327083
122	0xbd4e92a5	-0.05043282
123	0x3c82aa39	0.01595031
124	0x3d325a9e	0.04354345
125	0xbde67216	-0.11252229
126	0xbd7a8e2d	-0.061170746
127	0xbcb320f3	-0.021866297
128	0xbdb599a6	-0.08867197
129	0xbd85c112	-0.06530966
130	0xbe1abf86	-0.15112123
131	0xbdf786d7	-0.120862655
132	0xbe62cd36	-0.22148594
133	0xbe257a71	-0.16159989
134	0xbe10f2ea	-0.14155164
135	0xbe1deccd	-0.15422364
136	0xbda7c789	-0.08192355
137	0xbe5ba6a0	-0.21450281
138	0x3be2f95f	0.0069267
139	0xbcf20525	-0.029543469
140	0xbe449db0	-0.19200778
141	0xbdd3aef2	-0.103361025
142	0xbcf058cf	-0.029339222
143	0x3c431337	0.011906437
144	0xbda87694	-0.08225742
145	0x3c827d00	0.015928745
146	0xbd74d191	-0.05977017
147	0xbe473b35	-0.1945618
148	0x3c97dcd2	0.018537913
149	0x3b848005	0.0040435814
150	0xbcafe7dc	-0.021472864
151	0xbe3d4d1d	-0.18486448
152	0xbdeefd95	-0.11669461
153	0xbdabc373	-0.08386888
154	0xbe4d37cb	-0.20040815
155	0xbe14b3a6	-0.14521655
156	0xbd542cc9	-0.051800523
157	0xbdc1bb51	-0.09459556
158	0xbe1b7e4f	-0.15184902
159	0xba8ae3d7	-0.0010596466
160	0xbd5cc30a	-0.05389694
161	0x3cc0e6c6	0.023547541
162	0xbd454d03	-0.048169147
163	0xbd6c9bb6	-0.057765685
164	0x3c851e69	0.016249852
165	0x3c824ecf	0.01590672
166	0xbe2ee9b0	-0.17081332
167	0xbd9c9eaa	-0.0764745
168	0xbca1b4bf	-0.019739507
169	0xbdb95c5d	-0.0905082
170	0xbe400795	-0.18752892
171	0x3d5083cf	0.050906952
172	0xbe29b68f	-0.16573547
173	0x3da210ba	0.079133466
174	0xbe129321	-0.14313938
175	0xbd2e56e0	-0.04256332
176	0xbd84dc87	-0.06487375
177	0xbdd71dd3	-0.105037354
178	0xbdddee1c	-0.108364314
179	0xbe88fe3f	-0.26756474
180	0x3c9b599a	0.018963624
181	0xbd1948ec	-0.03742306
182	0xbd34ffbe	-0.044189207
183	0xbc822097	-0.01588468
184	0x3c8eee35	0.01744757
185	0xbdc80af3	-0.097677134
186	0xbdd5d2d0	-0.104406
187	0xbd2018f5	-0.0390863
188	0xbe18bebb	-0.14916508
189	0xbe56baf0	-0.20969748
190	0x3d1874c0	0.037220716
191	0xbdd943c6	-0.1060863
192	0xbe349d4d	-0.1763813
193	0xbe325aed	-0.17417498
194	0xbe3e1e06	-0.1856614
195	0xbdbdb98b	-0.09263905
196	0xbe5d21d2	-0.21594933
197	0x3d1f3a89	0.038874183
198	0xbd6f707d	-0.058456887
199	0xbe18309c	-0.14862293
200	0xbc6e5102	-0.014545681
201	0xbe0887de	-0.13333079
202	0xbdf7418f	-0.12073051
203	0xbcc2b600	-0.023768425
204	0xbdbb5069	-0.091461964
205	0xbdd29a4a	-0.102833346
206	0x398e3e8a	0.00027130946
207	0xbdbd7e6f	-0.09252631
208	0xbe258d10	-0.16167092
209	0xbb9f5db6	-0.004863466
210	0xbd37c93e	-0.044869654
211	0xbe6bc3d2	-0.23023918
212	0xbc81ceaa	-0.015845615
213	0xbe483a3f	-0.19553469
214	0x3d2e6ff7	0.042587247
215	0xbe3813c7	-0.17976294
216	0xbe1c912b	-0.15289752
217	0xbcaa8266	-0.020814132
218	0xbe32478e	-0.17410108
219	0xbd38ad80	-0.045087337
220	0x3d94f1fe	0.07272719
221	0xbdd18a02	-0.10231401
222	0xbdad014b	-0.08447512
223	0xbda9e188	-0.0829497
224	0xbdc69073	-0.0969552
225	0x3ccc3162	0.024925891
226	0xbe078e21	-0.13237812
227	0xbd130f2c	-0.03590314
228	0xbdc9078c	-0.098158926
229	0xbe7a1f6b	-0.24426048
230	0xbe359950	-0.17734265
231	0x3c88d0c7	0.016701115
232	0xbde155e7	-0.11002713
233	0xbdb1cd53	-0.086817406
234	0xbdf0b250	-0.117527604
235	0xbdfe89cc	-0.124286264
236	0xbe04dd5c	-0.12975067
237	0x3d023c40	0.03179574
238	0x3d1f2459	0.038853023
239	0xbd3a9dc6	-0.04556062
240	0x3d0cd416	0.03438195
241	0x3ddc7f37	0.10766452
242	0xbe1e5f22	-0.15465978
243	0xbe157e9b	-0.14599077
244	0xbe29cc49	-0.16581835
245	0xbe5c3269	-0.21503605
246	0x3c8f1cf6	0.017469864
247	0x3dbe93fd	0.0930557
248	0xbe3c4ea4	-0.18389374
249	0x3db21d03	0.0869694
250	0xbd68c197	-0.056825247
251	0xbd922a77	-0.07137006
252	0x3c8f9832	0.017528627
253	0xbe3b6525	-0.18300302
254	0xbd4552f6	-0.04817482
255	0x3d42a830	0.047523677

gru.bias_hh_l0 f4 [384]
0	0xbd862a49	-0.06551034
1	0xbd8f3646	-0.06992774
2	0xbddf9265	-0.109165944
3	0xbd8463a5	-0.06464318
4	0xbd4032e9	-0.04692355
5	0x3d084cb9	0.033276293
6	0xbdc754c8	-0.097329676
7	0xbddda7ab	-0.10822996
8	0x3d5382e9	0.051638518
9	0xbcc8f998	-0.024533078
10	0x3b99f35b	0.0046981997
11	0xbd41c8a9	-0.047310505
12	0xbdd4a4c4	-0.10382989
13	0xbdc9ccf5	-0.098535456
14	0xbdab13aa	-0.0835336
15	0x3bb20251	0.005432405
16	0xbd76642d	-0.06015413
17	0x3d2a5139	0.041581366
18	0x3cf30c32	0.029668901
19	0xbe1732d9	-0.1476549
20	0x3d0df96c	0.034661695
21	0xbb349196	-0.0027552596
22	0xbdda43b2	-0.10657443
23	0x3a1ea561	0.0006051865
24	0xbab13929	-0.0013521063
25	0xbb8c1498	-0.004274916
26	0xbd876bda	-0.06612368
27	0x3cbf53e9	0.023355441
28	0x3bf1e16e	0.0073816096
29	0x3c6603d0	0.014038995
30	0x3d3b7e6f	0.045774873
31	0xbb3fdfad	-0.0029277608
32	0xbd52c90e	-0.051461272
33	0xbc480197	-0.01220741
34	0xbdb1db4a	-0.08684404
35	0xbd66c0cf	-0.05633622
36	0xbcf6c8d8	-0.030125067
37	0xbdcfe5cc	-0.10151252
38	0xbe249388	-0.16071904
39	0xbd88fbff	-0.066886894
40	0xbda6d6cd	-0.08146439
41	0xbdd1c4cd	-0.10242615
42	0xbcb5df47	-0.022201193
43	0xbcce3a13	-0.025174176
44	0xbcf772f5	-0.030206183
45	0x3d9e9d44	0.0774484
46	0xbdc405fd	-0.09571455
47	0xbd6fe6e4	-0.058569804
48	0xbdc2a081	-0.0950327
49	0xbdb6e0d0	-0.08929598
50	0xbd562ae7	-0.05228701
51	0xbe050600	-0.1299057
52	0xbb8b7de3	-0.00425695
53	0xbc683e21	-0.014174969
54	0xbd120176	-0.035645925
55	0xbe121aa9	-0.14267983
56	0xbd69468a	-0.056952037
57	0x3b86adc2	0.004110069
58	0xbc87c1ff	-0.016571997
59	0xbbb82d1b	-0.0056206114
60	0xbe139f21	-0.14416172
61	0xbd64417d	-0.055726517
62	0xbd0bcea0	-0.0341326
63	0xbd2bbe9c	-0.041929826
64	0xbdee4623	-0.11634471
65	0xbe193390	-0.14961076
66	0xbd113bbc	-0.035457358
67	0x3c83ad15	0.016073743
68	0xbdd48125	-0.10376195
69	0xbd3ac414	-0.04559715
70	0xbcb18d3e	-0.021673795
71	0xbdecb763	-0.11558416
72	0xbe11909c	-0.1421532
73	0xbce18371	-0.027528496
74	0xbd512f0c	-0.051070258
75	0xbd513afe	-0.05108165
76	0xbd4ce835	-0.050026137
77	0xbe0f321a	-0.13983956
78	0xbdb1fc59	-0.086907096
79	0xbc5e2480	-0.013558507
80	0xbda47acb	-0.080312334
81	0xbd68182e	-0.056663685
82	0xbd6ccaf1	-0.057810728
83	0xbd84af28	-0.06478721
84	0x3d6c5604	0.05769922
85	0xbda0c6cb	-0.07850417
86	0xbbf1a0bb	-0.007373897
87	0xbd66f800	-0.056388855
88	0xbd8f0231	-0.0698284
89	0xbd5e926f	-0.05433887
90	0xbdcd2710	-0.10017216
91	0x3cfac5d4	0.03061191
92	0xbdf268d9	-0.11836404
93	0xbd21c148	-0.039490968
94	0xbd8ebc83	-0.069695495
95	0xbdafac3b	-0.08577772
96	0xbd95c702	-0.07313348
97	0x3d29b3a5	0.041431088
98	0xbd7b3d39	-0.061337683
99	0xbb0bf532	-0.0021355865
100	0xbd56d5db	-0.052450042
101	0xbd0d4a7b	-0.03449486
102	0xbe07a187	-0.13245212
103	0xbb17d139	-0.0023165478
104	0xbdefac2e	-0.117027625
105	0xbcaa918a	-0.020821352
106	0xbdde918d	-0.10867605
107	0xbdb0bc59	-0.086296745
108	0xbd5b049a	-0.053471185
109	0x3aa85255	0.001284192
110	0xbcff92f5	-0.031198004
111	0x3cf24152	0.029572163
112	0xbbf1244f	-0.0073590646
113	0xbdfdc85f	-0.123917334
114	0xbdadde7e	-0.08489703
115	0xbd9df9de	-0.07713674
116	0xbe418c6c	-0.18901223
117	0xbd5d25d5	-0.053991158
118	0xbcc41fa1	-0.023940863
119	0x3d94ddbc	0.07268855
120	0xbd12771d	-0.035758127
121	0x3d2adee9	0.04171649
122	0x3ce96243	0.028489238
123	0xbd2c4f0d	-0.042067576
124	0x3cb95c33	0.022626972
125	0xbde0a985	-0.10969833
126	0xbd8ddea1	-0.06927229
127	0xbdc31d27	-0.09527045
128	0xbe254db0	-0.16142917
129	0xbdd989c8	-0.10621983
130	0xbe3d8310	-0.18507028
131	0xbe033fa1	-0.12817241
132	0xbe658186	-0.2241269
133	0xbe28e9a2	-0.16495374
134	0xbdffa748	-0.12483078
135	0xbde6db44	-0.1127229
136	0xbd23dd8a	-0.040006198
137	0xbe15b99f	-0.1462159
138	0x3d2f0c00	0.042736053
139	0xbd02835f	-0.031863566
140	0xbe3f7e87	-0.1870061
141	0xbe031d36	-0.12804112
142	0xbd9dafb9	-0.07699532
143	0xbd6d1fda	-0.057891704
144	0xbd932df5	-0.071865
145	0xbd3fafe2	-0.046798594
146	0xbb84cd4d	-0.004052794
147	0xbe2035b6	-0.15645489
148	0xbcb8966c	-0.022532664
149	0xbcaa1362	-0.020761196
150	0xbcd04f73	-0.02542851
151	0xbe3f9d40	-0.1871233
152	0xbd922de7	-0.071376614
153	0xbd92ba27	-0.07164412
154	0xbe398c22	-0.18119863
155	0xbd8ce06a	-0.06878741
156	0xbd395cfa	-0.045254685
157	0xbd880616	-0.06641786
158	0xbdcb9ec6	-0.09942393
159	0x3d5467c3	0.051856767
160	0x3d279006	0.040908836
161	0xbcb42b6f	-0.021993367
162	0xbd2c7ae7	-0.042109396
163	0xbd1ea3e0	-0.038730502
164	0xbd051b2f	-0.032496627
165	0xbd0b2cfd	-0.03397845
166	0xbe0db490	-0.1383841
167	0xbe03f8e6	-0.12887916
168	0xbd3c9018	-0.046035856
169	0xbd6cc2df	-0.05780303
170	0xbe2655b1	-0.16243626
171	0x3bd5f7b1	0.0065297713
172	0xbe267e5d	-0.16259141
173	0x3bd91ad8	0.0066255145
174	0xbe187f3e	-0.14892289
175	0xbd687dda	-0.056760646
176	0xbd05326c	-0.03251879
177	0xbd9cc991	-0.07655633
178	0xbdb96cca	-0.09053953
179	0xbe57a70c	-0.21059817
180	0xbcc82284	-0.02443052
181	0xbd02385a	-0.031792022
182	0xbcf7e7a3	-0.03026182
183	0x3cd0489b	0.025425246
184	0x3d11997c	0.035546765
185	0xbded54b0	-0.115884185
186	0xbdf147d7	-0.117812805
187	0xbd7f640d	-0.062351275
188	0xbe1118a2	-0.14169553
189	0xbe184b1e	-0.14872405
190	0x3dc57215	0.096409
191	0xbde6759b	-0.112529
192	0xbe0f1155	-0.13971455
193	0xbe147696	-0.14498362
194	0xbe302e38	-0.17205131
195	0xbcef4be7	-0.029210998
196	0xbe2247e7	-0.15847741
197	0x3cc941e8	0.02456756
198	0xbd7a591f	-0.06112015
199	0xbe1e7d34	-0.15477449
200	0x3c670f30	0.014102742
201	0xbe2114b9	-0.15730561
202	0xbda85fa8	-0.0822137
203	0xbc9cc0c2	-0.019134883
204	0xbdea076f	-0.11427199
205	0xbe1750d1	-0.14776923
206	0x3922ade0	0.00015514297
207	0xbdd5aebd	-0.10433719
208	0xbe44e01f	-0.1922612
209	0xbd7fb23e	-0.062425844
210	0xbdcdaf90	-0.100432515
211	0xbe3604a1	-0.17775203
212	0x3c46e4bc	0.012139495
213	0xbe53a50b	-0.20668428
214	0xbd4e3ff1	-0.050353948
215	0xbe52ce55	-0.20586522
216	0xbdf4259f	-0.11921238
217	0xbd8b8aff	-0.06813621
218	0xbde9fd3b	-0.11425253
219	0x3d1e8756	0.038703285
220	0x3da331ff	0.079685204
221	0xbdaa4393	-0.0831367
222	0xbd34b1b1	-0.044114772
223	0xbd9ea223	-0.07745769
224	0xbde625df	-0.11237692
225	0x3d8c7527	0.068582825
226	0xbdd2b275	-0.10287944
227	0xbd931304	-0.07181361
228	0xbdad6c14	-0.0846788
229	0xbe632e42	-0.22185615
230	0xbe325b3a	-0.17417613
231	0xbd4ec61e	-0.050481908
232	0xbdef334c	-0.11679706
233	0xbdcf2753	-0.101149224
234	0xbe0570bd	-0.13031287
235	0xbde7f69b	-0.11326333
236	0xbe2178be	-0.15768716
237	0xbd300833	-0.04297657
238	0x3d82500d	0.06362925
239	0xbdb3b9d2	-0.08775677
240	0x3d06c308	0.03290084
241	0x3d65b7b2	0.05608339
242	0xbe369333	-0.1782959
243	0xbd70fed3	-0.05883677
244	0xbe0f99fd	-0.14023586
245	0xbe4dcf96	-0.20098719
246	0xbcede77c	-0.029041044
247	0x3d52ed79	0.051496003
248	0xbe213120	-0.15741396
249	0x3d8af859	0.0678565
250	0xbd5f9e8d	-0.054594565
251	0xbd6ccb28	-0.057810932
252	0x3dbc9316	0.09207742
253	0xbe3984f1	-0.1811712
254	0x3ccb434e	0.024812367
255	0x3cbb734e	0.02288213

fc1.weight f4 [128, 128]
0	0xbdaabcf3	-0.083368205
1	0xbded385c	-0.11583015
2	0x3d0fcd03	0.035107624
3	0xbdd674da	-0.104715064
4	0x3ce88acc	0.028386496
5	0x3e2c0ef1	0.16802575
6	0x3c86c873	0.016453004
7	0xbd827df7	-0.06371682
8	0x3dd21622	0.10258128
9	0xbe028a56	-0.12748083
10	0xbdda542e	-0.10660587
11	0xbde7a113	-0.11310019
12	0x3e209334	0.15681154
13	0x3db5039c	0.08838579
14	0x3e06a43d	0.1314859
15	0x3d5fcee0	0.05464065
16	0x3d8940e1	0.06701828
17	0xbd6571e4	-0.056016818
18	0x3de6f4d3	0.11277165
19	0xbdc840b5	-0.09777967
20	0x3dc51bf1	0.0962447
21	0xbd8b9d38	-0.068170965
22	0x3d366a36	0.044534884
23	0x3df582d4	0.11987844
24	0xbe2b3023	-0.16717581
25	0x3d8c7999	0.068591304
26	0x3e43f2b8	0.19135559
27	0x3e0e776a	0.1391274
28	0x3e0950c9	0.13409723
29	0x3e1d62e3	0.15369754
30	0x3e1f9d17	0.15587269
31	0xbd335fd9	-0.04379258
32	0x3e346e90	0.17620301
33	0xbd9fa1f1	-0.0779456
34	0xbe509cbb	-0.20372288
35	0xbc2aeb00	-0.010432005
36	0xbe2b3c31	-0.1672218
37	0x3d8a7645	0.067608394
38	0x3d875d8d	0.0660964
39	0xbcabe740	-0.020984292
40	0x3c83bbed	0.016080821
41	0xbe122f10	-0.14275765
42	0x3e14781f	0.14498948
43	0xbcd46174	-0.025925376
44	0xbe2f5b3f	-0.17124651
45	0x3e1ce788	0.15322697
46	0xbe0f3ff3	-0.13989238
47	0xbe122341	-0.14271261
48	0x3e09a178	0.13440502
49	0xbcd30692	-0.025759969
50	0x3e453800	0.19259644
51	0xbe161f84	-0.1466046
52	0x3d600c5d	0.05469929
53	0xbd7f293e	-0.06229519
54	0x3d14d735	0.03633805
55	0x3a520232	0.00080111914
56	0xbd6d2eb4	-0.057905868
57	0xbd0592ab	-0.032610577
58	0xbd7b8384	-0.06140472
59	0xbda3167f	-0.07963275
60	0xbcff1173	-0.03113625
61	0x3bb39e66	0.005481529
62	0x3d41d3ad	0.04732101
63	0x3d8a123e	0.06741761
64	0x3d8b5a59	0.06804342
65	0x3cae78e7	0.021297885
66	0xbb28b3d1	-0.0025741945
67	0xbd97e1b9	-0.074161
68	0x3d81cae1	0.06337524
69	0xbdc0b48a	-0.09409435
70	0x3d182c00	0.037151337
71	0x3b237004	0.0024938593
72	0xbc99ead4	-0.018788733
73	0x3e5151f3	0.20441417
74	0xbe232c99	-0.15934981
75	0xbdf77ea8	-0.12084705
76	0x3e45c592	0.19313648
77	0x3d5b5b5b	0.05355392
78	0x3d840755	0.06446711
79	0x3da74c22	0.08168818
80	0x3dba8d2b	0.09108957
81	0xbd661c35	-0.056179244
82	0x3e24c597	0.16091
83	0xbdc91dc3	-0.0982013
84	0x3de40bdf	0.11135077
85	0x3d594b94	0.053050593
86	0xbd620dc8	-0.055188924
87	0xbceb74f2	-0.028742287
88	0xbd9e19a3	-0.077197336
89	0xbd56e3b2	-0.05246324
90	0x3bba1da3	0.0056798025
91	0x3d719a79	0.058985207
92	0x3a400027	0.00073242415
93	0x3d10eed5	0.035384018
94	0xbcf3bc07	-0.029752744
95	0x3dfbd119	0.122957416
96	0x3e5ad5fa	0.21370688
97	0xbd9ea1ca	-0.077457026
98	0xbd895660	-0.06705928
99	0x3d96f264	0.07370451
100	0x3db81539	0.08988423
101	0xbde5198c	-0.11186513
102	0xbd26d1f5	-0.040727574
103	0xbcbee21b	-0.023301175
104	0xbdb82aea	-0.0899256
105	0x3d85ffef	0.06542956
106	0xbe07973f	-0.1324129
107	0x3cf004b5	0.02929912
108	0x3e276a35	0.16349109
109	0xbd921416	-0.07132737
110	0x3d26e61a	0.040746786
111	0xbd23dd1e	-0.040005796
112	0x3d838b0e	0.06423007
113	0xbbe34256	-0.006935398
114	0xbd8b91c5	-0.06814913
115	0x3df3f893	0.11912646
116	0xbd9e3e06	-0.07726674
117	0xbd52f10e	-0.05149942
118	0xbe1b6719	-0.15176047
119	0xbc5d688a	-0.013513694
120	0xbd87f9dc	-0.06639454
121	0x3d7ff95a	0.06249366
122	0xbe03d1a7	-0.12872945
123	0x3cc067d0	0.023487002
124	0xbd99eba7	-0.0751565
125	0xbd058277	-0.032595124
126	0x3dad676e	0.08466993
127	0x3d267228	0.04063621
128	0x3cc34c4a	0.023840088
129	0x3dd253dc	0.10269901
130	0xbce0821c	-0.027405791
131	0x3c180d5d	0.00928053
132	0x3cecadaf	0.028891413
133	0xbe32c7f3	-0.17459087
134	0x3d4ee713	0.05051334
135	0x3d18fc16	0.037349783
136	0xbd2c0ace	-0.04200249
137	0x3df0cf6f	0.11758315
138	0x3ccd5d08	0.025068775
139	0x3dd2d15a	0.10293837
140	0xbe0d35f4	-0.13790113
141	0xbde7e4e7	-0.113229565
142	0xbd3c73bc	-0.04600881
143	0x3cc5654f	0.02409616
144	0xbd8963c1	-0.0670848
145	0x39af0051	0.00033378837
146	0xbdbd972b	-0.092573486
147	0xbcbe34b6	-0.023218494
148	0xbc97291b	-0.018452218
149	0xbdaec9b6	-0.08534567
150	0x3c7ff85d	0.015623179
151	0xbde05293	-0.1095325
152	0xbcdedb96	-0.027204316
153	0xbdd13874	-0.10215846
154	0x3bd34d4f	0.006448425
155	0xbd5a22a7	-0.053255703
156	0xba917eb9	-0.0011100388
157	0x3c93dc2b	0.01804932
158	0xbd1e4f7a	-0.038650014
159	0x3d8f210f	0.06988727
160	0x3c4677eb	0.012113552
161	0xbc94142c	-0.018076025
162	0x3d787377	0.06065699
163	0x3dd0aaa8	0.101888
164	0xbd82ca00	-0.06386185
165	0xbb88dfbc	-0.004177062
166	0xbca0f563	-0.01964826
167	0xb88ed51f	-6.8107845e-05
168	0x3c3f2e77	0.011668793
169	0x3e018cc5	0.12651356
170	0x3d1a1e19	0.03762636
171	0xbd115e69	-0.035490427
172	0x3d1589ab	0.036508244
173	0xbd75bf1d	-0.059996713
174	0xbca19dd7	-0.019728584
175	0x3d6635e3	0.056203734
176	0x3d4a167a	0.04933784
177	0x3dcd019c	0.100100726
178	0x3daeaf55	0.08529536
179	0x3d931c23	0.07183101
180	0x3d8063f6	0.06269066
181	0x3dbfa616	0.0935785
182	0xbcdb5e46	-0.026778352
183	0x395e13ac	0.00021178898
184	0xbde66e01	-0.1125145
185	0x3d664cb5	0.056225497
186	0x3cd0c7d5	0.025485912
187	0x3ce66c76	0.02812789
188	0xbd9cf7bf	-0.07664441
189	0xbbe352bd	-0.0069373534
190	0xbcdbed8c	-0.02684667
191	0xbdbe4c47	-0.092918925
192	0x3d468b60	0.048472762
193	0xbd0bd6b5	-0.034140307
194	0x3c3dbf71	0.011581288
195	0x3d16742a	0.036731876
196	0x3d11b75c	0.035575256
197	0xbd4f5af7	-0.05062386
198	0x3c63ca7b	0.013903256
199	0xbd3f8277	-0.04675528
200	0xbe23cce5	-0.1599613
201	0xbd48b8ad	-0.049004246
202	0xbc762a00	-0.015024662
203	0x3da79bda	0.08184023
204	0xbde24040	-0.11047411
205	0xbb7a06a7	-0.0038150938
206	0x3d4b4bac	0.049632713
207	0x3b48da86	0.0030647828
208	0xbdf43c4b	-0.119255625
209	0x39b909bf	0.0003529321
210	0xbddc29b5	-0.107501425
211	0xbd84de6f	-0.06487738
212	0xbd2be2f4	-0.041964486
213	0x3cfa3be1	0.03054613
214	0x3cf6b0e5	0.030113647
215	0xbd710df4	-0.058851197
216	0x3c0d104a	0.008609841
217	0xbd1bb0af	-0.038010295
218	0x3db00075	0.08593837
219	0x3a91c065	0.001111996
220	0x3dafe427	0.085884385
221	0x3d39117b	0.045182686
222	0xbd2c61e9	-0.042085562
223	0xba00fa06	-0.0004920069
224	0xbdc36f30	-0.09542692
225	0xba8a1269	-0.0010534051
226	0x3d3c65f6	0.045995675
227	0xbd1dc3c4	-0.038516775
228	0x3d114c65	0.035473246
229	0x3d63ca0e	0.055612616
230	0xbdd938f1	-0.10606564
231	0xbd87415e	-0.06604265
232	0xbc2e11ad	-0.010624331
233	0xbc3b79d8	-0.011442624
234	0x3df733e2	0.12070443
235	0xbc81a2b3	-0.015824651
236	0xbcaf8d2c	-0.02142962
237	0x3e2e2d5e	0.17009494
238	0x3d3e96b0	0.046530426
239	0x3e24ec4f	0.1610577
240	0x3c915241	0.017739417
241	0xbcdb7dae	-0.026793327
242	0xbca1c1f7	-0.01974581
243	0xbc76d63d	-0.015065727
244	0xbd2168bf	-0.039406534
245	0xbcf6066b	-0.030032357
246	0xbd05b5eb	-0.032644194
247	0xbc96e0a6	-0.018417668
248	0x3d740bfc	0.05958174
249	0x3ddf0ac9	0.10890729
250	0xbcf4f9bf	-0.029904244
251	0xbc1e2702	-0.009652855
252	0xbddf3022	-0.108978525
253	0x3c83e28d	0.016099239
254	0xbe1f0dd8	-0.15532625
255	0xbdcf2def	-0.10116183

fc1.bias f4 [128]
0	0x3de0741c	0.10959646
1	0xbd65e178	-0.056123227
2	0x3d7a815a	0.061158516
3	0x3dae0c69	0.08498461
4	0x3d81711d	0.06320403
5	0xbcf70138	-0.030151948
6	0x3dc3635b	0.09540435
7	0xbcc429ae	-0.023945656
8	0xbd4e2b86	-0.050334476
9	0x3da0df85	0.07855133
10	0x3d09fdae	0.033689193
11	0x3d95cee2	0.073148504
12	0xbc8fc250	-0.01754871
13	0x3df75fc5	0.120788135
14	0x3d94b870	0.07261741
15	0x3df4f9e9	0.11961729
16	0x3d12d0e2	0.035843737
17	0x3d906691	0.07050813
18	0xa4e73360	-1.00267313e-16
19	0x3dcd1442	0.100136295
20	0x3d21b7c9	0.03948191
21	0x3e308f7f	0.1724224
22	0x3e0171c3	0.12641053
23	0x3d095945	0.0335324
24	0x3dcb2693	0.09919467
25	0x3d2be3da	0.041965343
26	0x3dafa6e4	0.08576754
27	0xbd9aa3b1	-0.07550753
28	0x3ce43bbc	0.027860515
29	0xbd209a62	-0.03920973
30	0x3d3722a6	0.044710778
31	0xa42770b1	-3.6307806e-17
32	0x3e1b3830	0.15158153
33	0x3dec0b54	0.11525598
34	0xbc1a6227	-0.009422815
35	0x3d747406	0.05968096
36	0x3e2a47c9	0.16628946
37	0xbd0b8dd7	-0.034070816
38	0x3e127535	0.14302523
39	0x3d1fa413	0.038974833
40	0x3e2b6f95	0.16741784
41	0x3d0a53c6	0.0337713
42	0x3dc29471	0.09500969
43	0x3e3a7657	0.18209206
44	0x3e53686e	0.20645306
45	0x3db60360	0.088873625
46	0x3ddc731b	0.10764142
47	0xaf297e4b	-1.5415329e-10
48	0xbcc4afc8	-0.0240096
49	0xbc0dfb73	-0.008665907
50	0xbd2231ac	-0.039598152
51	0x3e119aa9	0.14219154
52	0x3d160c1e	0.03663265
53	0x3de4c0dc	0.111695975
54	0xbca3ef13	-0.02001146
55	0xbb38df6c	-0.0028209342
56	0x3d3bb2ea	0.045824923
57	0x3dd25dba	0.10271783
58	0xbc2bedfe	-0.0104937535
59	0x3df43357	0.11923855
60	0x3df71411	0.12064374
61	0x3df942bf	0.12170934
62	0x3dc8facd	0.098134615
63	0x3d371db0	0.044706047
64	0x3e0bb5b6	0.13643536
65	0xbbdcd1ad	-0.0067388625
66	0x3dbc827c	0.092045754
67	0x3dae6aa8	0.08516437
68	0x3e0e5c37	0.13902365
69	0x3e33e33c	0.17567152
70	0x3dc45270	0.09586036
71	0x3d3833df	0.044971343
72	0x3dcf8ac0	0.10133886
73	0x3ccc15ba	0.024912704
74	0x3db2cc4a	0.08730371
75	0x3c3bda60	0.011465639
76	0xbd8a2232	-0.067448035
77	0x3e0b5f3d	0.1361055
78	0xbd50629b	-0.050875288
79	0xbbac5cca	-0.0052600848
80	0x3d75f497	0.060047712
81	0x3cece7c8	0.028919116
82	0x3e3131cd	0.17304154
83	0x3d33278a	0.04373888
84	0x3e8e0c21	0.2774363
85	0x3e3ba848	0.18325913
86	0x3e3ddfbe	0.18542382
87	0x3d9b2336	0.07575075
88	0x3d550928	0.052010685
89	0x3d0c68b9	0.03427956
90	0x3dde442f	0.10852849
91	0x3e1a2302	0.15052417
92	0x3da1f476	0.07907955
93	0x3d71d42f	0.059040245
94	0x3d0441e7	0.032289412
95	0x3e023f5b	0.1271948
96	0x3deb44b9	0.11487717
97	0x3e174604	0.14772803
98	0x3e3548d7	0.17703567
99	0x3e81c717	0.25347206
100	0x3dd53560	0.10410571
101	0x3d8e8d12	0.06960501
102	0xa70afe19	-1.9289094e-15
103	0x3e1671da	0.14691868
104	0xbbf83e00	-0.0075757504
105	0xbc9b15ea	-0.018931348
106	0x3d0bf0ca	0.03416518
107	0xbdf3d65a	-0.11906119
108	0x3d92404d	0.07141171
109	0xbd6f11fc	-0.05836676
110	0x3e37e1df	0.17957257
111	0x3d4edbbd	0.050502528
112	0x3cd75b85	0.026288757
113	0x3be1b116	0.0068875654
114	0xbcddd961	-0.027081193
115	0x3e47f696	0.19527659
116	0x3d8967c6	0.06709246
117	0xbcf593fc	-0.029977791
118	0x3e39009d	0.1806664
119	0x3e33eec1	0.17571546
120	0xbd70ff85	-0.058837432
121	0x3d9b689f	0.07588314
122	0x3e31b227	0.17353116
123	0x3e7aff55	0.24511464
124	0x3d4b80e7	0.049683478
125	0x3e22abe5	0.15885885
126	0x3d966483	0.0734339
127	0xbca624e0	-0.020281255

fc_q.weight f4 [1000, 128]
0	0x3d1648cd	0.036690522
1	0x3d31c5ed	0.043401647
2	0x3c56751d	0.013089445
3	0x3d0596d1	0.032614533
4	0x3c859675	0.016307095
5	0xbc4bb550	-0.012433365
6	0x3d9b95af	0.07596909
7	0xbc2ad918	-0.010427736
8	0xbb844f7d	-0.004037796
9	0x3be39293	0.0069449632
10	0x3d3ba8f4	0.045815423
11	0x3dc43431	0.09580267
12	0x3ddec503	0.10877421
13	0x3c03614c	0.008018803
14	0x3d8e50e8	0.069490254
15	0x3d0d094e	0.0344327
16	0x3dcdf5d1	0.100566514
17	0x3dbfea2b	0.09370836
18	0x00056fcd	4.99284e-40
19	0xbd016954	-0.03159459
20	0xbd2f357f	-0.042775627
21	0x3d7cb313	0.061694216
22	0x3c9c34e1	0.019068183
23	0xbd2d650d	-0.042332698
24	0x3c38ced0	0.011279777
25	0x3cf9d367	0.030496312
26	0x3d782f0f	0.060591754
27	0x3d786408	0.060642272
28	0x3d401ba5	0.046901364
29	0x3cfd85e5	0.030947635
30	0x3d8bd078	0.06826872
31	0x0005aff2	5.22295e-40
32	0x3e225cf1	0.15855767
33	0x3d7c7cd4	0.061642483
34	0x3d0435ad	0.03227775
35	0x3d4b86f1	0.049689237
36	0x3d5b67a5	0.05356564
37	0xbd836f25	-0.064176835
38	0x3c8185ea	0.015810926
39	0x3c25ae0b	0.010112296
40	0x3e0df1f9	0.13861836
41	0x3d953052	0.07284607
42	0x3e0f1152	0.13971451
43	0x3c0770f6	0.008266678
44	0x3d1ed5e5	0.038778204
45	0xbc283e02	-0.01026869
46	0xbb08cd00	-0.0020874143
47	0x00055cc2	4.92453e-40
48	0xbaa758b3	-0.0012767523
49	0x3d9951d6	0.07486312
50	0xb9256924	-0.00015774794
51	0x3d7a2229	0.061067734
52	0x3b6df6a2	0.0036310335
53	0x3d8d7522	0.06907107
54	0x3cf81da1	0.030287566
55	0x3d1a628c	0.037691638
56	0xbdc17ee3	-0.0944803
57	0x3da39735	0.07987825
58	0x3d856e1e	0.06515144
59	0x3d822340	0.0635438
60	0x3c8c03ea	0.01709171
61	0x3dfa4bc7	0.12221485
62	0x3cbfd655	0.023417631
63	0x3d5ac2f6	0.053408585
64	0xbc52c24d	-0.012863708
65	0xbc70426e	-0.014664276
66	0x3d82a237	0.06378596
67	0x3dd6a4a5	0.10480622
68	0x3d3e21d6	0.046418987
69	0x3dc161a4	0.094424516
70	0x3ca78a8d	0.020451808
71	0xbcb92cb8	-0.022604331
72	0x3d747b98	0.05968818
73	0x3d901d3d	0.07036827
74	0x3cb885de	0.02252477
75	0x3d103493	0.03520639
76	0x3da4506c	0.08023152
77	0x3db92629	0.090404816
78	0x3e1ac658	0.15114725
79	0xbd8d955e	-0.06913255
80	0xbcb72ea0	-0.0223611
81	0x3d9769e4	0.07393244
82	0xbc2f8883	-0.010713699
83	0x3c9922ea	0.018693406
84	0x3d86e43c	0.06586501
85	0x3d961efb	0.07330128
86	0x3d7d1b96	0.061793886
87	0x3dfb0b03	0.1225796
88	0x3dc37fe3	0.09545877
89	0x3d0ca9fe	0.034341805
90	0x3d75eb89	0.060039077
91	0x3c96f34d	0.018426562
92	0x3c69be61	0.014266581
93	0xbcddf001	-0.027091982
94	0xbced3bf2	-0.028959248
95	0x3df5766a	0.11985476
96	0x3ca1ae34	0.019736387
97	0x3dae79bd	0.085193135
98	0x3dacb942	0.084337726
99	0x3d2f5437	0.042804923
100	0xbc4babcf	-0.012431099
101	0x3d21b01a	0.039474584
102	0x00056166	4.94117e-40
103	0x3c1ba139	0.009498888
104	0xbbb87d7b	-0.005630193
105	0x3b8436db	0.0040348596
106	0x3d834e1f	0.06411385
107	0x3dfd1caa	0.12358983
108	0x3e2c99a2	0.16855481
109	0xbb912c15	-0.004430304
110	0x3dac1211	0.084018834
111	0xbd216937	-0.03940698
112	0x3df6eaa7	0.12056475
113	0x3d61e98b	0.055154365
114	0x3cb32bc8	0.021871462
115	0x3d87e14b	0.06634768
116	0x3d1dc7f6	0.038520776
117	0xbb89286c	-0.004185727
118	0x3db72a5c	0.08943626
119	0x3d236983	0.039895546
120	0xbc70cb9a	-0.01469698
121	0x3d2e22fb	0.04251383
122	0x3dc40282	0.09570791
123	0x3cd4407f	0.02590966
124	0xbcaab365	-0.020837495
125	0x3cebb542	0.028772954
126	0x3bfb02e5	0.007660257
127	0x3d916256	0.07098834
128	0xbcbc8ea4	-0.023017235
129	0x3cf9a364	0.030473419
130	0x3cdc93da	0.02692597
131	0x3d594005	0.05303957
132	0x3c0bf87e	0.008543132
133	0x3c356872	0.011072265
134	0x3d4c5ac1	0.049891237
135	0xbacd52e7	-0.0015664966
136	0xbb7ea9ba	-0.003885849
137	0xbb0536dc	-0.0020326888
138	0x3d182d2c	0.037152454
139	0x3d70e961	0.058816317
140	0x3e0140fd	0.12622447
141	0xbd87506c	-0.06607136
142	0x3cf4b7f3	0.02987287
143	0x3d5950cf	0.05305558
144	0x3d14a642	0.03629137
145	0x3d9f8a24	0.0779002
146	0x80058053	-5.05212e-40
147	0x3db86172	0.09002961
148	0xbcfb24ab	-0.030657133
149	0x3c2c4628	0.010514773
150	0x3e0871f2	0.13324717
151	0x3c8f4051	0.017486723
152	0x3df38bba	0.11891885
153	0x3d0440d8	0.032288402
154	0xbd2c35f7	-0.042043652
155	0x3dc1d5ea	0.09464629
156	0x3db8140a	0.08988197
157	0x3da9e815	0.08296219
158	0x3c97ee99	0.01854639
159	0x80057f58	-5.0486e-40
160	0x3d39e20c	0.04538159
161	0x3a926523	0.0011169057
162	0x3b61b224	0.0034438455
163	0x3dc26eed	0.09493814
164	0x3d31760b	0.043325465
165	0xbd0adf66	-0.033904456
166	0x3dafde3d	0.085873105
167	0x3c8fcc58	0.017553493
168	0x3d2b0226	0.041750096
169	0x3dc2d516	0.09513299
170	0x3d3dd461	0.04634512
171	0x3d6914f5	0.05690475
172	0x3d86e8cd	0.06587372
173	0x3be20cdd	0.006898506
174	0x3d250ba6	0.040294312
175	0x00055808	4.90757e-40
176	0x3b903fca	0.0044021355
177	0xbd90edae	-0.07076584
178	0x3be48b58	0.006974619
179	0x3dd7745e	0.10520242
180	0x3c60cc23	0.013720545
181	0x3dfe6924	0.12422398
182	0xbd026f94	-0.03184469
183	0x3c3381b9	0.010956221
184	0xbce20990	-0.02759245
185	0x3b964056	0.004585306
186	0x3de7529a	0.11295052
187	0x3d41ca1b	0.047311883
188	0x3ca8433b	0.02053987
189	0x3a224204	0.00061896467
190	0x3cb792be	0.02240884
191	0x3d43f758	0.047843307
192	0x3dba3e20	0.09093881
193	0xbd1caefe	-0.038252823
194	0xbda82639	-0.082104154
195	0xbb0f0148	-0.0021820832
196	0x3d52a885	0.051430244
197	0x3deaba87	0.114613585
198	0x3cb274f6	0.021784287
199	0x3d9025d2	0.07038464
200	0x3d2a1e3a	0.041532733
201	0xbd4fb15e	-0.05070626
202	0xbc7010bc	-0.014652427
203	0xbd215f64	-0.039397612
204	0xbc9493c3	-0.018136865
205	0x3d3644b0	0.0444991
206	0x3d9e52e7	0.07730656
207	0xbcbc4ed5	-0.022986809
208	0x3d6dbcd7	0.05804142
209	0xbd2373e1	-0.039905433
210	0x3c349684	0.011022214
211	0x3b3b5ded	0.002858992
212	0x3d83d85e	0.06437753
213	0x3d79b091	0.060959402
214	0x3d056f2b	0.03257672
215	0x3bfcee98	0.0077188723
216	0x3d30ec4b	0.043194097
217	0x3cc783b8	0.0243548
218	0x3d94723d	0.07248352
219	0x3d43a682	0.047766216
220	0x3ccd0222	0.025025431
221	0x3cf26672	0.029589865
222	0x3ba9cd40	0.0051819384
223	0x3e012540	0.12611866
224	0x3d34e208	0.044160873
225	0x3c5fb32c	0.013653558
226	0x3d90859c	0.07056734
227	0x3d8beab9	0.06831879
228	0x3d83b403	0.06430819
229	0x3dd1e9a2	0.1024964
230	0x00056ce4	4.9824e-40
231	0x3cf8b0cd	0.030357743
232	0xbb1d3c0e	-0.0023992094
233	0x33b7cfb9	8.559386e-08
234	0x3d2b6620	0.04184544
235	0x3d2628bc	0.04056619
236	0x3ddcff4e	0.10790883
237	0xbc0384bc	-0.008027252
238	0x3da149d0	0.07875407
239	0xbc9e1a58	-0.019299671
240	0x3d85a077	0.06524747
241	0x3ca07728	0.019588068
242	0xbcd52c69	-0.026022153
243	0x3dbd508a	0.09243877
244	0x3cf20406	0.029542934
245	0x3d586dde	0.052839153
246	0x3caa6083	0.020797973
247	0x3d5538a1	0.05205596
248	0x3b400848	0.002930181
249	0x3d3de3c4	0.046359792
250	0x3c7f18d8	0.015569888
251	0x3d882eb2	0.066495314
252	0xbbfdd42a	-0.007746239
253	0x3d261b34	0.040553287
254	0x3b9e7fe1	0.0048370217
255	0x3e01c705	0.12673576
