models/MLP_DDQN_20251207_142654.pt (torch, 634299 bytes, 8 tensors)

fc1.weight f4 [256, 200]
000000 e3 99 2a 3d 9c d3 16 3d bb b0 9d 3c 6a 03 0a 3d
       0.041650664 0.0368229 0.01924931 0.033694662
000010 31 ea cd bc da ff 5b 3c c2 c2 4a bc 5b 15 09 bd
       -0.025136085 0.013427699 -0.012375535 -0.03346763
000020 f8 e5 f5 3c 1c ab e8 3d a9 0f 2a bd 44 79 a8 bd
       0.030016884 0.113607615 -0.04151884 -0.082262546
000030 34 e2 0f bd 6a a1 20 bc 12 01 9f 3c 4b 77 d4 3c
       -0.035127833 -0.009804109 0.01940969 0.02593579
000040 71 ff dd 3d 68 8f 99 bd 27 db a5 3d 15 44 f3 bc
       0.10839737 -0.07498056 0.080984406 -0.02969555
000050 e4 a0 b8 3c 5f d6 4c 3d 12 39 b0 bd e8 ee 20 3d
       0.022537656 0.050009128 -0.08604635 0.03929034
000060 cb 84 bb 3c 75 af 39 bd 0c c9 8e 3d be 44 34 3d
       0.022890469 -0.045333344 0.069719404 0.04401087
000070 a0 cd c9 3d de 11 52 bd cc 92 83 bd 07 11 ab bc
       0.09853673 -0.05128657 -0.06424484 -0.020882143
000080 ba eb 69 3d dc b8 9e bd 2a 72 8d bc c9 e3 4e bd
       0.057109572 -0.07750103 -0.017266352 -0.0505102
000090 f0 ad 06 bd 5b 5f 48 bc 76 3c 58 3d e1 87 1c 3d
       -0.032880723 -0.012229766 0.052792035 0.03821552
0000a0 d4 e0 86 3c 42 d1 d1 bc 9e 41 9e bd 4e ca 04 3c
       0.016464628 -0.025612477 -0.07727359 0.008104874
0000b0 ee 3c 13 bc 64 06 f7 bc a3 43 4e bd 51 38 0a bd
       -0.008986695 -0.030154414 -0.050357472 -0.033745114
0000c0 fa 95 8f 3d fd 4e 39 bd 3c 3f 1e bd f2 96 68 3c
       0.07011028 -0.045241345 -0.038634524 0.014196144
0000d0 d9 36 f6 3d cb 31 87 bb ab 62 40 3d 88 c7 99 bd
       0.1202218 -0.004125809 0.046969097 -0.07508761
0000e0 7a 3f 76 3c 15 3b d5 bc d5 d4 58 3d 7f 4d 60 bd
       0.015029782 -0.02602915 0.052937347 -0.054761406
0000f0 a4 5d be 3d d4 c3 dc 3c 38 1c 7c bc e6 3e a7 bc
       0.09295204 0.026948847 -0.015387587 -0.020415734
000100 14 48 c8 3d 49 c1 03 3d c5 34 63 bc cf f4 a1 3c
       0.09779373 0.032166753 -0.013867562 0.019770054
000110 94 3b 63 3c 6f 4c d0 3c 12 64 13 bd ee 95 1e bd
       0.013869185 0.025427071 -0.035984106 -0.038717203
000120 07 da fb bb 25 fd 36 3d 73 f3 98 3d c4 db 6b bb
       -0.007685903 0.04467501 0.07468309 -0.0035989145
000130 b0 da 60 bc 08 b5 50 bc 24 7a 43 bc 79 32 ff bc
       -0.013724014 -0.012738474 -0.011930976 -0.031151997
000140 97 62 69 3b c9 a9 59 bc e6 00 9e bd 2c b0 02 bd
       0.0035611743 -0.013285109 -0.07715015 -0.03190629
000150 a6 2d 87 bc 58 ff 47 3d 04 fc 9f bd 1c 75 27 3c
       -0.016501259 0.0488275 -0.0781174 0.010220792
000160 63 d2 2a bd 80 4c d5 bd 00 05 64 bc 99 8e 01 bd
       -0.041704547 -0.10414982 -0.013917208 -0.031630132
000170 d3 2f 8f 3d 92 62 87 3d dc 30 a1 3d f0 d3 28 bd
       0.069915436 0.06610598 0.07870647 -0.041217744
000180 3d c2 47 bd 3a 2a 3c bd f6 bb 72 bd a5 e9 0c 3d
       -0.048769224 -0.045938708 -0.059261285 0.03440251
000190 d6 77 c7 3a 95 77 ae 3a c0 72 74 bd 57 34 2c 3b
       0.0015218209 0.0013310785 -0.059679747 0.0026276314
0001a0 4f 13 cf 3d fd 39 c9 3c 29 6a 39 bc 91 3a 4e 3a
       0.10111105 0.024563784 -0.011316814 0.00078670034
0001b0 eb 3a 71 3d cc ba a8 3d 4b 59 10 3d 25 69 78 bd
       0.05889408 0.08238754 0.035241406 -0.06064715
0001c0 45 fe 76 3b 0d ff 0c 3d c1 b6 b4 bd 05 34 1a bb
       0.0037688178 0.034422923 -0.0882392 -0.0023529541
0001d0 9a 64 19 bc be e7 84 bd 6d f0 12 3d 9d 0f ff 3c
       -0.009362364 -0.06489514 0.03587382 0.031135375
0001e0 63 0e 1f 3d 8a d8 fb bc 69 07 43 bc a7 d2 be bd
       0.03883208 -0.030742902 -0.011903622 -0.093175225
0001f0 d0 8d a4 bd 94 35 40 bc 9f 8a 04 3d 20 64 13 3d
       -0.08034861 -0.011731524 0.032358762 0.03598416
000200 a2 8b a2 3d 85 88 fa bc 52 de 9b 3c ca a6 00 bd
       0.07936789 -0.030582676 0.019026909 -0.031409062
000210 2d 08 58 ba 74 8b 05 bc e8 b3 2f bd f3 8d 88 3b
       -0.00082409644 -0.008150924 -0.04289618 0.0041673123
000220 33 d2 0f 3c 7e 61 c6 bb 38 83 87 3d 48 aa 81 bd
       0.008778143 -0.0060541024 0.06616825 -0.06331307
000230 60 c3 26 3b ae 3f 33 bd b9 41 c4 bc d4 32 33 bd
       0.0025446042 -0.0437619 -0.02395712 -0.043749645
000240 d9 e1 44 bc e5 e6 58 3d 18 73 85 bd 76 57 0b 3e
       -0.012016737 0.052954573 -0.06516093 0.13607582
000250 f4 78 c2 bd 59 f3 a1 3b 6f cc 8b bc 83 d3 0b bd
       -0.09495726 0.0049423394 -0.017065255 -0.03413726
000260 59 a9 91 bc fc c4 64 bd e6 11 a5 bd b0 9e 3e bc
       -0.017780947 -0.05585192 -0.080600545 -0.011634514
000270 79 0d 03 3c e4 6b 15 bd 2d 58 85 bd 0a 04 83 bc
       0.007998818 -0.036479846 -0.06510959 -0.015993137
000280 ea 26 5d bc ca e3 97 bc 94 2c 15 3d ed 58 41 3b
       -0.013498047 -0.018541235 0.036419466 0.0029502467
000290 00 7f e1 3d d0 16 11 bc d1 32 b3 bd d1 20 c9 3c
       0.110105515 -0.008855537 -0.08749927 0.02455178
0002a0 93 ac de bc c5 1f 2e bd 79 dd 2e 3d d2 ce 87 3d
       -0.0271819 -0.042510767 0.04269168 0.06631245
0002b0 a2 c4 f2 bc 51 ee 6c 3d 51 0a ae bd 84 c3 8e bc
       -0.029634777 0.057844464 -0.084980614 -0.017427213
0002c0 bd 5a 9e 3b ed fd 24 bc 8e 62 9e 3b 76 69 2e bc
       0.004832594 -0.010070306 0.004833526 -0.010645261
0002d0 72 de 62 3d 87 72 c0 bd 3f 96 8a bd 21 a1 f8 bc
       0.05538792 -0.09396844 -0.067669384 -0.03035027
0002e0 f6 e1 3e 3d 36 bf a3 b9 c8 24 6e bd 70 7c 37 3d
       0.046602212 -0.00031232246 -0.058140546 0.044796407
0002f0 fd d9 20 bd a6 eb 38 3d b7 c7 fd bc 16 f8 d4 3b
       -0.03927039 0.045146607 -0.03097902 0.0064993007
000300 4d b6 91 bc 27 19 5a 3d 48 99 a2 3b f7 0a f7 3c
       -0.017787123 0.053246643 0.00496212 0.030156596
000310 b1 a2 40 bd 0b 35 0c bb 73 07 11 be 1e 07 7c 3d
       -0.047030155 -0.002139392 -0.14162998 0.061530225
000320 f8 ac 2f bd b9 3f 61 bd 5d b8 a8 3b 00 b0 ea bc
       -0.042889565 -0.05499241 0.005148931 -0.028648376
000330 2d d2 c7 3b 86 fd cb bc 22 60 4a 3b 2e 02 6d 3c
       0.006098053 -0.024901163 0.0030880054 0.014465852
000340 0f 48 a1 bc 49 32 4c 3d 62 ef 99 3d fe ba 69 3c
       -0.01968768 0.049852643 0.07516362 0.014265774
000350 68 be 18 3d 8b 81 2d 3d 71 aa 85 bd a8 6f e9 3c
       0.03729096 0.04235987 -0.0652665 0.028495625
000360 5f 52 3c bc 4e ed b8 3c 3b 46 5d bc 59 d4 26 bd
       -0.011494248 0.022574093 -0.013505514 -0.040729854
000370 58 69 f3 bc 20 8c 61 bc ba 00 d7 39 28 7b b6 3c
       -0.029713318 -0.013766319 0.00041008537 0.022275522
000380 38 95 38 bc fc af b9 3d 68 59 10 bc a7 94 4a bd
       -0.011266045 0.090667695 -0.008810379 -0.049458172
000390 dd 20 0b bc 05 3c e5 3c 14 02 33 3c 52 77 81 bc
       -0.008491722 0.027982721 0.010925788 -0.015803967
0003a0 80 f8 1e bd fd f1 33 3d ed fa f0 bc 87 ad 23 bd
       -0.038811207 0.04393195 -0.029416526 -0.03996041
0003b0 cb be 4b 3c dc 83 f9 bc 28 33 66 bd d9 db 5a bd
       0.012435625 -0.030458383 -0.05620113 -0.05343232
0003c0 85 26 db bb b2 07 28 3c 90 bd 61 3d 0f 24 18 3d
       -0.0066879415 0.010255741 0.05511242 0.037143763
0003d0 dd dc 21 bc 0c 3c 2b 3b b4 9e 1a bb a5 3e a2 bc
       -0.009879318 0.002612832 -0.002359313 -0.019805262
0003e0 a1 e6 a5 bd cd 00 22 3d 1f 2a e1 3c 0f ee f1 3c
       -0.081006296 0.039551545 0.027485905 0.02953246
0003f0 1a 7a 15 3d 18 fb 7e bb 69 a2 a4 3a a4 a0 87 b9
       0.0364934 -0.0038906988 0.0012560609 -0.00025868893

fc1.bias f4 [256]
000000 2e d7 9a 3c 33 3f e9 bc 22 7d 8c 3d d8 b6 0f bd
       0.018901434 -0.028472519 0.06859805 -0.035086483
000010 fb 1a 74 3c 81 f8 ad bd 8b fe c5 3d 41 73 ea 3d
       0.014899011 -0.08494664 0.09667691 0.11447764
000020 d7 b9 56 bd e9 d9 e1 3d cb 69 91 bd 65 b4 05 3e
       -0.052423324 0.11027891 -0.071002565 0.13057096
000030 a6 82 c4 3d 6f 79 02 3e b7 4d 3b bd 76 03 e2 3c
       0.09595232 0.12741636 -0.04572841 0.02758954
000040 39 26 87 3d b4 7d b0 bd 0d 62 00 3d 60 af 0a bc
       0.06599087 -0.08617726 0.03134351 -0.008464664
000050 0b 94 21 3e 2a 83 5e 3d 23 54 85 bd 6a 3e 0c 3a
       0.1577913 0.054324307 -0.065101884 0.00053498766
000060 e9 7f be 3d 8a 95 aa 3d bd 2d dd 3d db 10 c9 3b
       0.09301741 0.083293036 0.107997395 0.0061360425
000070 13 a6 cc 3d 1a d6 1d 3d 96 d7 1e 3e 6c 69 ac 3d
       0.09992614 0.03853426 0.15511927 0.08418545
000080 cb 4b 1e 3d f8 8f 2d 3d 03 ca 09 bd 72 78 e0 3d
       0.0386465 0.042373627 -0.03363992 0.10960473
000090 06 cd 84 3d c5 26 03 3e 0a a5 52 bd 3c 7c 20 bc
       0.064844176 0.12807758 -0.051426925 -0.009795245
0000a0 d3 a7 05 3e 98 b7 06 3e 72 d8 d0 bc f0 fe 97 bc
       0.13052301 0.13155973 -0.025493834 -0.01855418
0000b0 a4 46 68 3d 14 26 00 bd a2 94 b6 3d 3f 80 5a 3d
       0.056707993 -0.031286314 0.08915068 0.05334496
0000c0 d1 a4 89 bc 0d a0 7f bd 81 e0 df bc f0 7a 1a bd
       -0.016802223 -0.062408496 -0.027328731 -0.0377149
0000d0 07 ce 0d bd 85 d4 60 3d cb 92 14 bd d4 1d 11 3c
       -0.03462031 0.054890174 -0.036272805 0.008857209
0000e0 34 bc 70 3d 01 87 e9 bc 70 e0 98 bd 51 9b 01 3e
       0.058773234 -0.028506758 -0.07464683 0.12656905
0000f0 4d c5 0d 3d 60 4d 06 3e bf a8 54 bd 6d fd 0a 3e
       0.03461199 0.13115454 -0.05191874 0.13573237
000100 bb 07 f1 bc c4 a7 8b 3d 8f 7d c3 bc cd 74 17 bd
       -0.029422631 0.06819108 -0.023863582 -0.036976624
000110 00 e2 26 3d df 1a 98 3d 02 43 c0 3d fa 25 58 3d
       0.040742874 0.07427 0.09387781 0.052770592
000120 8d b2 13 3b 3e 84 1a bd 27 a5 03 3e 5b 91 22 bd
       0.0022536844 -0.037723772 0.1285597 -0.039689403
000130 92 23 08 3e 1f 66 3b 3d 61 ec 1c 3d 48 e1 aa 3d
       0.13294819 0.045751687 0.038311366 0.0834375
000140 e5 b7 45 bd 42 f6 84 bd 86 a7 5d 3d 96 28 b7 3d
       -0.04827108 -0.064922825 0.05411484 0.08943288
000150 7b 50 a0 bc bd 06 28 3e 14 63 33 bd 8c 7e 69 bd
       -0.019569626 0.1640882 -0.04379566 -0.05700545
000160 cb cf 30 3d d2 0a 0b 3e 73 dd 5e 3c 0d 45 50 3d
       0.043166917 0.13578346 0.013602602 0.050847102
000170 27 e1 30 bc 4c 08 6a 3d 40 08 c6 bc a2 e6 6a 3b
       -0.010795868 0.05713682 -0.024173856 0.0035843034
000180 a2 50 da bc 8a 73 82 3d 73 45 bd 3d 67 94 e7 bc
       -0.026649777 0.063696936 0.09241762 -0.028269006
000190 3f ab ae 3c fa d4 ac 3d 01 1b 0e 3e d7 e2 2d 3d
       0.02132189 0.084390596 0.13877489 0.04245266
0001a0 48 77 15 3e a0 82 23 3d b1 a5 14 bd 8c b0 16 bd
       0.14596283 0.039919496 -0.03629083 -0.036789462
0001b0 e3 3c d4 3d b7 c2 3c bc 56 f9 04 3e 28 c5 30 3d
       0.10363176 -0.011521033 0.12985739 0.043156773
0001c0 7f 53 1a 3d c2 ec 18 3c c6 62 ab bc 61 7a e7 3d
       0.037677284 0.009333791 -0.020921122 0.11302639
0001d0 6c eb e4 3d 22 c9 e8 bc 22 79 b2 3d 9d bc 12 3e
       0.11177716 -0.02841622 0.087145105 0.14329763
0001e0 0b d3 33 bd 16 9b 75 bd 8c 0c 80 ba 30 48 30 3c
       -0.043902438 -0.059962355 -0.0009769364 0.010759398
0001f0 3e 0e f8 3d 46 ef 69 3d 3a 86 60 bd 65 bf 68 3d
       0.121120915 0.057112955 -0.05481551 0.056823153
000200 7f 7d 96 3d 13 00 96 3c 65 42 84 bd ed 00 9c bb
       0.07348155 0.018310582 -0.06457976 -0.0047608525
000210 5b 56 82 bd 83 ca 66 bd 91 86 17 bd 56 60 64 bd
       -0.06364127 -0.056345474 -0.036993567 -0.055755936
000220 de 04 d9 bc d8 c2 57 bd d7 c5 f9 bc a0 a9 35 3e
       -0.026491579 -0.05267605 -0.030489845 0.17740488
000230 f6 21 e1 bc 47 06 d9 3d bd 03 82 bc e8 f5 f3 3c
       -0.027482014 0.105969004 -0.015870923 0.029780343
000240 50 d1 ee 3d 15 54 e0 3c ae c8 0c 3e 94 c3 c9 3d
       0.11661017 0.027383843 0.13748428 0.09851757
000250 e0 21 19 3c 0e 46 82 bd fb 2a 8e bc 8d d4 c6 3d
       0.009346455 -0.06361018 -0.017354479 0.097085096
000260 fe f8 af bc fe 0c 07 3d 18 09 d9 3d 48 0b 0b 3e
       -0.021481033 0.032971375 0.105974376 0.13578522
000270 ef ac 62 bd 8b ed 19 3e 2d 0b 87 bd 04 3b ca 3d
       -0.055340704 0.15032022 -0.065939285 0.098745376
000280 e4 bf 4f 3d 9c 43 02 3e f3 88 e8 bc e7 c2 a1 bc
       0.05072011 0.12721103 -0.028385615 -0.019746257
000290 b2 37 cf 3d b2 2f 27 bb c2 c8 83 bd 59 65 84 3d
       0.10118045 -0.0025510606 -0.06434776 0.06464643
0002a0 d7 f9 37 bd 89 64 97 3d 93 67 42 bd a7 bd f4 3d
       -0.044916 0.073922224 -0.047462057 0.11950236
0002b0 eb 84 16 bd b7 11 26 3d 87 a2 21 bc cc 2d 33 3d
       -0.036747854 0.040544238 -0.00986541 0.043744847
0002c0 29 5a 31 3d 35 2b 3f bb 4e 4c f5 bc 1a 3c 98 3d
       0.043298874 -0.002917004 -0.029943611 0.074333385
0002d0 17 83 bb 3d f8 0e 9c 3d 00 b2 11 bc 9a 82 ea 3d
       0.09155863 0.076200426 -0.008892536 0.114506915
0002e0 34 92 48 bc 03 6b b2 ba 62 bc b6 bd 2a 5b 45 bd
       -0.012241889 -0.0013612214 -0.0892265 -0.048182644
0002f0 b2 15 fc 3c 04 5b eb 3d b7 79 e6 3b cc c8 b6 3d
       0.030772064 0.11491969 0.0070335525 0.08925018
000300 d4 43 a0 bd e0 27 77 bd d1 c8 85 3d 82 42 f1 3d
       -0.07825437 -0.060340762 0.06532443 0.117802635
000310 c1 f2 c0 3d 9d 09 42 3d 42 fe 1a bb 13 36 00 bb
       0.09421302 0.04737245 -0.0023650085 -0.001956348
000320 84 7c c5 3d f9 4f 5a 3d cd fc 20 3d 55 ef f6 3d
       0.0964289 0.053298924 0.03930359 0.12057368
000330 77 c3 85 bc 39 dc 8d 3d 42 58 5b bd 8c fc 81 3d
       -0.016328556 0.0692677 -0.053550966 0.063469976
000340 e8 8a b1 3d 5a 6f 00 3d 90 74 bc 3c f6 02 c5 3d
       0.086690724 0.031356193 0.0230048 0.096197054
000350 65 58 b2 3d e6 40 fc 3d 8d 72 7e 3d 96 78 c1 3d
       0.08708266 0.12317066 0.062120963 0.09446828
000360 58 da 3e bd 66 c0 98 3d 1f d8 8f 3d c9 70 84 3d
       -0.046594948 0.07458572 0.07023644 0.064668246
000370 a4 61 8d bc 80 80 ff 3d 5a 8f ab bb f3 80 27 3d
       -0.017258473 0.12475681 -0.0052355947 0.04089446
000380 12 dc fd bc ab e0 85 3d 6c 2d cf bc a6 fb 83 3c
       -0.030988727 0.06536993 -0.025290214 0.016111206
000390 73 9c e6 3d 81 5e ce 3d 54 a6 15 3d e4 4c fe 3d
       0.11260309 0.10076619 0.036535576 0.124170095
0003a0 26 28 f3 3c 37 f4 e9 3d 18 d7 57 3d 44 c9 b5 3d
       0.02968223 0.114235334 0.052695364 0.08876279
0003b0 da 26 bc bd 93 96 ae bc 30 bc da 3d b7 30 f1 bc
       -0.09187098 -0.021312034 0.10680425 -0.029442174
0003c0 00 5b 94 bd cf 5d 16 3d 79 76 3d bc 68 ce 89 bd
       -0.072439194 0.036710557 -0.011563891 -0.06728822
0003d0 24 59 49 3c a8 35 96 3c dd cb 8b bd b0 e5 a4 3d
       0.012289319 0.018336132 -0.06825993 0.08051622
0003e0 7e 25 c4 3d 71 18 02 3b 45 66 cf 3d 8f c3 95 3c
       0.095774636 0.0019850994 0.10126928 0.018281726
0003f0 fc c4 04 bd 21 9a 9d 3d d7 4f 60 3d 88 0c 22 bc
       -0.03241442 0.076954134 0.05476364 -0.009890683

fc2.weight f4 [128, 256]
000000 98 08 db 3c 2a 68 d5 3c 86 8c bd bc d9 97 da bc
       0.026737496 0.026050646 -0.023138296 -0.026683735
000010 b4 84 f9 3c 59 6c b4 3b db 61 d4 3c b7 a2 9d 3d
       0.030458786 0.00550608 0.025925567 0.07697051
000020 81 01 cb bb 8e ac 60 bd ac d7 9b bd 51 df 2e bd
       -0.0061952476 -0.05485206 -0.076094955 -0.04269344
000030 4e 57 20 3d bf 10 a7 3d fd 89 88 bb ad a5 65 bd
       0.03914576 0.08157491 -0.00416684 -0.056066204
000040 a8 65 c7 3d 87 51 52 bd b6 fa cb ba 1d 8b ad b7
       0.09736186 -0.05134728 -0.0015562389 -2.0687987e-05
000050 cb 61 18 bc 58 fb c4 bd 88 fd 5d bb 15 2b 4e 3c
       -0.009300659 -0.096182525 -0.003387304 0.012583514
000060 b4 6d d6 3d 1b 61 a2 3b 0e 86 e5 3c 50 34 74 3a
       0.10470143 0.0049554235 0.028018024 0.00093156565
000070 c4 48 3e 3c 01 8b 7a bd d2 79 19 3d 0f 69 2e bd
       0.011614028 -0.06116772 0.037469693 -0.04258066
000080 00 b7 1b 3d 57 1c 98 3d 0c 3b 18 3d 64 b2 58 bd
       0.03801632 0.074272804 0.037165686 -0.0529045
000090 6f 0d dd 3d 52 36 80 3d 89 b9 12 bd 00 06 62 3d
       0.10793578 0.06260361 -0.03582147 0.055181503
0000a0 d3 e4 2f 3d 8a 2e ef 3a f0 96 94 3d fa 88 eb 38
       0.042942833 0.0018248123 0.072553515 0.00011231187
0000b0 01 a6 96 3d b5 8f 06 bd 17 27 6a 3c 19 5b ae 3d
       0.073558815 -0.032851893 0.014291546 0.08513469
0000c0 ac 03 46 3d ec f5 f0 bb 39 9d ac bc 97 01 cb 3b
       0.048343346 -0.007353535 -0.021071063 0.006195258
0000d0 e4 98 be bd 2b c4 28 bd 67 b0 9d 3c 06 a4 f1 3c
       -0.09306505 -0.041202705 0.019249154 0.029497158
0000e0 e2 7c f8 ba fc 53 c3 bc 15 8b 84 bd e8 dc bd 3b
       -0.0018958116 -0.023843758 -0.0647184 0.0057941563
0000f0 a0 cb ba 3c 59 d6 27 3d 15 50 11 bd 05 04 09 3d
       0.022802174 0.040975902 -0.035476763 0.0334511
000100 7f 39 5b 3d 55 a1 0e 3d cc 12 fa bc 4c ed 9b bc
       0.05352163 0.034821827 -0.030526541 -0.01903405
000110 f4 90 ad 3d a9 30 33 3d 7c 9e c0 ba 03 f5 15 bd
       0.08474913 0.043747578 -0.001469567 -0.036610615
000120 0b 81 16 bd 8b 93 51 bc a5 43 c8 3c a8 fb 25 ba
       -0.03674416 -0.012791525 0.024446318 -0.000633175
000130 55 2f da 3d 78 9b 81 bd 56 17 6d 3d fa ab a1 3d
       0.10653559 -0.063284814 0.057883583 0.0789413
000140 67 bf a0 bd e4 67 a6 3c 07 8c b5 bc 7b 6d 35 bd
       -0.07849007 0.02031321 -0.022161497 -0.04429386
000150 1e a5 96 3d 8c 5c 48 bd e4 9d b7 3d ab df fc bd
       0.07355712 -0.048916385 0.08965662 -0.12347349
000160 9c 73 2d bd 99 83 28 3d 09 b2 40 3c db 7a 29 3d
       -0.04234658 0.041141126 0.011761197 0.04137693
000170 6e 2c c3 bc 12 35 14 3d f8 43 77 bc b4 eb a9 3a
       -0.023824897 0.036183424 -0.015091889 0.0012963922
000180 b9 28 4b bd 34 02 80 bd 63 a2 46 bd 3f 6d 61 bb
       -0.049599383 -0.0625042 -0.048494708 -0.003439739
000190 ba d7 3f 3d b4 7f 50 bc 38 f7 c8 3c e9 42 d0 3c
       0.046836592 -0.012725759 0.024531946 0.02542253
0001a0 63 4e b9 3d 10 8d 87 3d 70 64 18 3d 8c bf 98 bc
       0.09048154 0.066187024 0.03720516 -0.018646024
0001b0 a3 a5 53 3d b7 80 38 bd f5 d6 25 3d b7 81 a2 3c
       0.051671635 -0.045044627 0.040488202 0.019837243
0001c0 0c 59 a7 bc 57 f9 fc 3c 35 aa 1c 3d dd 20 4d 3d
       -0.020428203 0.030880613 0.03824826 0.05008017
0001d0 cd 66 ba 3d 23 33 a1 3d b1 1d 52 3d 99 d0 51 3d
       0.09101639 0.07871082 0.051297847 0.051224325
0001e0 27 39 c4 bc 2a f5 32 bd 67 f7 bb bd 96 d1 77 bd
       -0.023953034 -0.043690838 -0.091780476 -0.06050261
0001f0 1b 62 8b 3c 85 ab c1 3d 6e ee ca bc 0a e2 a4 3d
       0.017014554 0.09456543 -0.024771895 0.08050926
000200 45 15 71 3d 42 a3 2a 3d d2 39 22 3b 3c 9e 8a bc
       0.058858175 0.0416596 0.0024753702 -0.016921155
000210 fb b5 4a 3c 34 04 ce bd 19 d9 90 bc 62 6f 2a bb
       0.012372489 -0.100593954 -0.017681645 -0.002600633
000220 13 48 06 3d ff 65 f4 3c 07 53 3e 3d 19 88 71 3d
       0.03278358 0.029833792 0.0464659 0.058967683
000230 19 0a 53 3d fc c5 9e bc c0 51 6a bd d3 f6 bd 3c
       0.0515233 -0.019381516 -0.05720687 0.023188984
000240 dd 8e b1 bc d6 a3 7e bd 3e 5a 88 3d 1b d2 65 3d
       -0.021674568 -0.062167965 0.06657837 0.056108575
000250 ee 4c ed bc 7c 7c cc bd 9a 31 2b 3b 5f a4 a8 3d
       -0.028967347 -0.09984681 0.0026122094 0.08234476
000260 45 22 a7 3c b2 36 5a bd 11 dd fa 3d 10 8b 1b bc
       0.020402083 -0.053274818 0.12249196 -0.009493604
000270 ab 75 c4 bc e3 d0 c8 3d 42 5e 1c bd ae df f5 3c
       -0.02398189 0.09805467 -0.03817583 0.030013885
000280 69 e4 b0 3d 80 f9 34 3d ad c1 29 3d e8 3d ad bc
       0.08637316 0.044183254 0.04144447 -0.021147683
000290 32 0b ca 3d 9b a5 81 bd 76 88 ac 3c 26 aa bb bb
       0.098654166 -0.06330415 0.021061163 -0.0057270704
0002a0 57 1a 2f 3d eb 20 01 bc bd 43 6f bd 70 79 50 3d
       0.04274973 -0.007881383 -0.05841421 0.05089706
0002b0 ab bb 4c bd a3 49 d5 3c f0 a7 b5 bd 8d ae 92 3d
       -0.04998366 0.02603609 -0.08869922 0.07162199
0002c0 77 2c 0b bd 64 69 21 3c 99 35 30 bd bf 4a d9 3d
       -0.03397795 0.009851787 -0.043019865 0.1060996
0002d0 84 32 d8 bb be 60 c6 3c 90 b9 9b bd e8 57 b0 3c
       -0.006597819 0.024216052 -0.076037526 0.021526292
0002e0 6b 00 3e bd 08 2e 01 bc c9 5c 23 bd 11 6b 8c 3d
       -0.046387117 -0.00788451 -0.03988341 0.06856359
0002f0 d8 04 0d bd 6e d5 a2 3d b1 81 e2 3d ff 23 09 3c
       -0.034428447 0.07950865 0.11059893 0.008370399
000300 44 df 66 bc 9a 22 6b 3c 44 3e 98 3d 44 eb 73 3d
       -0.014091317 0.014351511 0.07433751 0.05955054
000310 0a 4a d8 3d be be 9c bc 92 32 97 3d 75 f7 9a bd
       0.10560997 -0.019133922 0.073826924 -0.0756673
000320 f6 a5 bf 3b 84 aa a8 bc c3 11 ca 3c 56 f4 95 3c
       0.0058486415 -0.02058912 0.024666673 0.018304985
000330 b0 94 e7 3c 4a db 88 3d 9e ae 02 be 92 9c 83 bd
       0.028269142 0.06682451 -0.12761924 -0.06426348
000340 8a 70 34 3a f0 61 59 3c 4e 0d c6 3b e3 e5 4a 3c
       0.00068832247 0.013267979 0.0060440665 0.012383911
000350 ee 90 e2 3c 63 7c 4a 3d 68 f6 d8 3d 25 69 0f bd
       0.027656998 0.04943503 0.10593873 -0.035012383
000360 d9 83 cd bc ef 7d 6d 3d bd f3 ea 3d 69 5a 85 3d
       -0.025087284 0.057981428 0.11472271 0.06511385
000370 fd 55 ac 3b d7 63 14 3c 0d b3 f2 3c 4a 40 1f bd
       0.005259274 0.009057007 0.029626394 -0.03887967
000380 24 46 b3 3c 47 8f c5 3d a8 06 7d bd 3c b4 42 bd
       0.021884032 0.096464686 -0.061773926 -0.047535166
000390 47 bc bb 3d 8d 46 e6 3b 0e f4 d9 bb b4 75 33 3d
       0.091667704 0.0070274533 -0.006651408 0.043813422
0003a0 a5 f7 f7 bc 7f 7c 9e 3c b8 e8 f6 3c 2d 10 20 3d
       -0.030269453 0.019346474 0.030140266 0.039077926
0003b0 da 4c 26 bd 47 dd b6 bd f3 a0 b8 3d dd 59 7b bd
       -0.040600635 -0.08928924 0.090150736 -0.061364997
0003c0 ee a8 2b bd a8 b3 9a 3d 77 0d 64 3d 4f 04 f1 bb
       -0.04190915 0.07553798 0.055676904 -0.00735525
0003d0 97 13 33 3d fb 14 8a bb e3 5a fa 3d 01 b6 0c bc
       0.043719854 -0.004213927 0.122243665 -0.008588315
0003e0 13 09 90 3d a5 35 4a 3d d1 83 40 3c a2 03 a6 3c
       0.07032981 0.049367566 0.0117501775 0.020265404
0003f0 ef 6e cd 3b 77 5a f4 3d f6 4b 08 3d 6c d6 c5 bc
       0.006269328 0.11931317 0.033275567 -0.024150096

fc2.bias f4 [128]
000000 9b 0a 05 3e b2 7f 97 3d dc 0e 3f 3d a2 85 98 3d
       0.12992327 0.07397403 0.04664503 0.074473634
000010 ce da 4e bc 6f b0 4c 3d 67 ff e0 3c ba f0 3d bc
       -0.012625409 0.049972948 0.027465535 -0.011593038
000020 52 2a 2d 3d aa ee 60 3d cd 19 03 3e 76 81 e2 3d
       0.042276688 0.054915108 0.12802811 0.11059849
000030 9b 3f 1b 3d 60 3f c9 bb f4 80 ea 3b e6 51 8b ba
       0.037902456 -0.006141588 0.0071564857 -0.0010629266
000040 b6 bb 00 3d 96 17 bc 3c b9 84 07 bd 89 c3 6b bc
       0.031429015 0.022960465 -0.03308556 -0.014389881
000050 83 04 70 3c 6a 79 86 bc 2e 77 d0 3c 1b e1 c4 3d
       0.014649513 -0.016415317 0.025447454 0.09613248
000060 18 ab 42 3d f4 c4 de 3c 1f b0 00 3d 80 2f e9 3d
       0.04752645 0.027193524 0.031417962 0.11386013
000070 37 68 61 3c 37 c1 38 3b f9 a0 b3 3d 47 30 b2 3b
       0.013757757 0.0028191337 0.087709375 0.005437884
000080 e3 5f 67 3b 8a e0 1f 3d 28 f7 67 bc 28 30 17 3d
       0.0035304956 0.039032497 -0.014158048 0.03691116
000090 b7 fb 78 bc cd 1d 48 3d 4b 81 a0 3d 50 09 95 3d
       -0.015196732 0.048856545 0.07837161 0.07277167
0000a0 09 11 4d bd cd 33 c7 3d 10 ed 8a 3c 8e 2b 9c 3d
       -0.050065074 0.09726677 0.016958743 0.07625495
0000b0 93 a6 8f 3d 3f 31 fe 3d 64 7f 8a 3d 60 0c d6 3c
       0.070141934 0.12411737 0.06762579 0.026128948
0000c0 2c 42 85 3d d0 d8 a7 3d 0f f8 94 3c b3 09 a0 3d
       0.06506762 0.081956506 0.01818469 0.0781435
0000d0 ef 26 a9 3b 77 a6 a7 bc 86 65 14 bd dc ab d0 3d
       0.005162112 -0.020465119 -0.036229633 0.101890296
0000e0 83 f8 b8 3a ef 9a 71 3d 71 7b 6c 3d 23 e0 01 3d
       0.0014112148 0.058985647 0.05773491 0.031707894
0000f0 68 b1 0d 3c c7 8c 49 3c 0a ce 82 3c c0 b0 9e 3d
       0.008648254 0.01230163 0.015967388 0.07748556
000100 a2 ec ad 3d 7c 22 04 3d 9a 00 2e 3c 2b d5 b8 bb
       0.084924 0.03225945 0.010620261 -0.005640646
000110 b5 4c b1 3c a1 bf 96 bc 44 07 cb bb 5f be 91 3d
       0.021643022 -0.018401923 -0.0061959345 0.071163885
000120 76 db 06 3e 27 5d c5 3c 41 eb 51 3d f9 b6 b4 3d
       0.13169655 0.02409227 0.051249746 0.08823962
000130 d4 72 42 3d d8 7f 7a 3d b3 ac 30 3d 67 3f c5 3d
       0.04747279 0.061157078 0.04313345 0.09631234
000140 ce 10 f1 3a 6a 61 87 3d fd bc 85 3c 91 c0 45 3d
       0.0018391849 0.06610377 0.016325468 0.04827935
000150 0a fd 42 3d 27 e8 94 3d 2f ae ab 3d c7 b7 a6 3d
       0.047604598 0.07270842 0.08382832 0.081405215
000160 d1 a0 61 bc b7 18 98 3d b9 58 ce bb 0b 31 32 3d
       -0.013771252 0.07426589 -0.0062971977 0.043503802
000170 5b 4b af 3d bf ff 45 3d 5b a2 2e 3c 9a b6 a0 3d
       0.08559295 0.0483396 0.010658826 0.078473285
000180 71 1e 71 3d 41 1d 83 bc d0 1f 2f 3d ed 1b 02 bd
       0.05886692 -0.01600516 0.04275495 -0.031764913
000190 6d 93 43 3b bc 2c 5a 3d 35 46 4c 3d 75 78 07 3d
       0.0029842511 0.05326532 0.049871642 0.03307386
0001a0 60 68 3f 3d 0b 56 bc 3d f6 5c 23 bd 93 1a 89 3d
       0.0467304 0.09196099 -0.039883576 0.06694522
0001b0 e3 d8 93 3d 6d 74 25 bd 84 7b cd 3d be 94 ee bc
       0.07219102 -0.040394235 0.10033324 -0.02912366
0001c0 cc b4 9b 3d e4 b5 87 3b 41 3b f2 3b 1f a1 45 3d
       0.07602844 0.004141556 0.0073923175 0.04824936
0001d0 c5 e3 df ba cf 56 51 3d a7 0b 4c 3c 1a 57 9d 3c
       -0.001708143 0.051108178 0.01245395 0.019206572
0001e0 0e 5b 0f 3c ea a6 91 3d b5 51 9e 3d 2a e2 98 3d
       0.0087497365 0.071119145 0.07730428 0.07465012
0001f0 ef 40 00 3e f8 0f 01 3e 1e 58 02 3d d5 4d 2e 3c
       0.1252477 0.12603748 0.031822316 0.010638674

fc3.weight f4 [64, 128]
000000 f1 d7 9d 3d 60 de f8 bd 95 58 77 bd 4a 7d ab 3d
       0.07707203 -0.1215179 -0.060387213 0.08373506
000010 dc c7 ce bb 43 f2 d3 3d db 8e ce 3b a3 ea f8 3d
       -0.006310446 0.10348942 0.006303651 0.121541284
000020 22 7a ef 3d 49 ad b2 3d ab fe 80 bc 12 f6 cf 3d
       0.11693217 0.08724458 -0.015746435 0.10154356
000030 5e 5d 7d bd 27 4f 91 bd 29 05 ca bd e8 f7 90 bd
       -0.06185662 -0.07095175 -0.098642655 -0.07078534
000040 cf 81 34 bd 28 05 21 3d 02 ed ba 3d 09 83 e2 3d
       -0.044069108 0.039311558 0.09127237 0.11060149
000050 06 ba b4 3c b6 bf f9 bc 55 d3 5c bc 0f 7b ac 3d
       0.02206136 -0.030486923 -0.01347812 0.08421909
000060 b3 b8 4a bd c5 8b 19 be 3c 79 a5 bd 41 40 fb 3d
       -0.04949255 -0.14994724 -0.08079764 0.12268115
000070 89 ea e6 bd 95 d0 0b 3b f4 71 d8 3d aa 06 c8 3d
       -0.11275203 0.0021334041 0.1056861 0.09766896
000080 3f 62 d1 bc e3 5f d2 3d 07 ab 0e 3c 73 22 05 3d
       -0.025559543 0.10272195 0.008707768 0.032503556
000090 c1 cd c0 3d 79 a1 63 bd a7 3b 46 39 64 eb 87 bb
       0.094142444 -0.055573914 0.00018904974 -0.004147934
0000a0 e8 fd 9d bb a8 87 1d 3e b5 e8 0d bd c8 e7 4b bd
       -0.0048215277 0.1538378 -0.034645755 -0.04978159
0000b0 f6 16 3c bb 7e 42 fb bc b7 a5 f4 3b 75 2c ca bd
       -0.002870021 -0.030671354 0.007466044 -0.09871761
0000c0 a1 c2 e2 3d 67 2d 81 3c 98 85 02 3e d3 31 35 3d
       0.11072279 0.01576872 0.12746274 0.04423697
0000d0 96 4a af 3d a9 71 bf bd f0 33 bd bd d8 69 40 bc
       0.08559148 -0.09347851 -0.09238422 -0.011743985
0000e0 d8 fb 8b bc 3f 55 a6 3d a1 7c 80 3d 76 30 cd 3d
       -0.017087862 0.08121728 0.06273771 0.10019009
0000f0 92 e0 7e bd 2b c8 65 3d 0b 38 96 bc 6c 86 99 3b
       -0.062225886 0.0560991 -0.01833727 0.004685214
000100 a1 65 c4 bd 86 47 04 3e 54 22 0b bd ab 28 3e bd
       -0.09589697 0.12917909 -0.033968285 -0.046425503
000110 87 3a d9 3d a3 98 dd 3c 67 82 b4 3d f8 cc 69 3d
       0.10606866 0.027050322 0.08813935 0.05708024
000120 cc 1e 8c bd b8 2d 53 3d c3 a7 a0 bd 72 0c 86 bd
       -0.068418115 0.051557273 -0.07844498 -0.065453425
000130 65 a5 dd bc a5 73 c8 bd 22 01 df 3c 93 80 b0 3d
       -0.027056405 -0.097876824 0.02722222 0.086182736
000140 30 b1 91 3c 5f 9d da bc ea 1e 28 3c ee 3e 33 bd
       0.017784685 -0.026686369 0.010261277 -0.043761186
000150 14 83 83 3d 4f d5 e8 3d 9b 33 80 bd 3a ee 22 bd
       0.064214855 0.113688104 -0.06259843 -0.03977797
000160 3e e3 d9 bc c8 cb 9c bc 0f 94 98 3d 99 09 b0 3d
       -0.026597615 -0.01914014 0.07450115 0.085955806
000170 d0 c5 91 3d e1 38 fd bc d0 92 1c 3d 26 c0 53 3c
       0.07117808 -0.030910911 0.03822595 0.01292423
000180 37 91 0c 3d ea 9a 13 bb 0a 53 32 bc bf 92 82 3c
       0.034318175 -0.0022522756 -0.010884056 0.015939115
000190 f7 b9 bc bd 71 66 86 bd 5f 8c a7 3c c6 0a 84 bd
       -0.092151575 -0.06562508 0.020452676 -0.06447367
0001a0 3f 89 04 be 27 04 bc bd 7c ff 59 3d 2c e9 ea 3b
       -0.1294298 -0.091804795 0.053222165 0.0071689095
0001b0 9e c0 d2 3d a8 58 a2 bc b5 2f bf bd fd b5 18 bd
       0.10290645 -0.019817665 -0.09335271 -0.037282933
0001c0 50 5d b0 3d 20 de 8a 3d de 33 70 bd 0f 6c d3 bc
       0.08611548 0.06780648 -0.058643214 -0.025808362
0001d0 3a e8 16 bd a9 6d 6f bd 14 b8 83 3d e1 6e 99 bd
       -0.036842562 -0.05845419 0.064315945 -0.074918516
0001e0 5d 30 dd 3d 5b e6 7c 3d 32 0c f3 bc e8 5a fe 3d
       0.1080024 0.06174312 -0.029668901 0.12419683
0001f0 a4 0e 81 3d 49 16 b1 3d 77 42 c3 3d 28 38 97 bb
       0.063016206 0.08646829 0.095341615 -0.0046148486
000200 0a 0e 0a bd b6 6f 3d 3d b2 f3 31 3c d5 51 54 3b
       -0.033704795 0.046249114 0.010861324 0.0032397409
000210 99 39 71 bd 24 19 d8 bd 3d 97 02 bd 12 2c cf bc
       -0.05889282 -0.1055167 -0.031882513 -0.025289569
000220 ff 99 0a bd 29 da 63 ba bd d9 99 3d 25 09 48 bd
       -0.03383827 -0.0008691871 0.075122334 -0.048836846
000230 be 56 0f bd 8d a4 8c bd 65 88 01 3d 41 ff 92 3d
       -0.034994833 -0.06867323 0.031624217 0.07177592
000240 82 d9 81 3c c1 05 38 bd 6b 02 b8 bc ad 29 c4 3c
       0.015850786 -0.044927362 -0.02246209 0.023945654
000250 b4 68 f8 3d 8a ea cc bb d6 de 8c bd a8 5a 82 bc
       0.121293455 -0.006253545 -0.0687844 -0.015912369
000260 6c 71 44 3c e0 c0 19 3d d3 88 f1 bc cc bd 16 bd
       0.0119899325 0.037537456 -0.029484188 -0.0368021
000270 fb d0 05 3e 65 db cf bc be fa 27 bd 49 14 71 3d
       0.13068001 -0.02537317 -0.04101061 0.058857236
000280 d1 6c 0f 3d 7d 7a 69 3d 46 08 e8 3d ad 41 67 3d
       0.035015885 0.05700158 0.11329703 0.056459118
000290 35 32 f7 bd ee 7f a9 3d 75 c7 4f bd c0 b2 9d 3c
       -0.12070123 0.08276354 -0.050727326 0.019250274
0002a0 67 89 25 39 bb df 5d 3d 96 64 95 3d 20 4c 04 bd
       0.00015786813 0.054168444 0.07294576 -0.03229916
0002b0 94 f0 17 bd 48 52 88 bd 65 ae cc bd c8 72 c2 bd
       -0.037094668 -0.06656319 -0.099942006 -0.09494549
0002c0 ea 0c e6 bd 61 5f b8 3c 77 14 1d bc c6 4c d2 bd
       -0.11232932 0.022506418 -0.009587399 -0.102685496
0002d0 87 78 1d 3d f7 3c 9e 3d c9 83 e7 bc 02 52 f8 bc
       0.038445022 0.07726472 -0.028261082 -0.030312542
0002e0 86 8c 9c bb 88 db 56 bd 51 d5 ed 3d 7f 8b bd 3d
       -0.004777494 -0.052455455 0.116129525 0.092551224
0002f0 f0 fc dc 3d de e6 a2 bb 0e bf 25 3e 5e f9 5e bd
       0.107904315 -0.004971369 0.16186163 -0.054437034
000300 db 5e 71 bd d2 38 1c bd 40 77 d6 3d a8 97 99 3d
       -0.05892835 -0.038140126 0.10471964 0.07499629
000310 14 a1 46 3d 41 fd 7e bd ab 70 b5 bc fe bf 80 3b
       0.04849346 -0.06225324 -0.02214845 0.0039291373
000320 36 f5 23 bd 69 a3 c7 bd c1 93 6e 3b c9 5b 1f 3d
       -0.040028773 -0.09747965 0.0036403986 0.038905893
000330 43 30 ec bb a7 5b e9 3d c2 fd ec 3c 90 bf 73 bd
       -0.0072079017 0.113944344 0.028929595 -0.05950886
000340 d5 85 03 bd aa 51 69 3c 93 f3 50 3d ee c8 3c 3d
       -0.032110054 0.014240662 0.05101354 0.04609006
000350 51 55 5d bd f9 a6 a1 3c ce 4c 88 3d 6f 82 91 bd
       -0.054036442 0.01973294 0.06655274 -0.07104956
000360 a2 1d c9 bc c5 49 c2 bd 0c 20 a4 3d 56 48 3f bd
       -0.024550263 -0.09486727 0.08013925 -0.046699844
000370 f7 3d 3f 3c 2a 89 05 3d c4 36 e0 3d c5 a6 6c ba
       0.011672488 0.032601513 0.10947946 -0.0009027536
000380 b5 85 a6 bd e6 92 14 b7 62 38 8c 3d 8e e3 ff 3d
       -0.08130971 -8.85569e-06 0.06846692 0.124945745
000390 33 d3 e5 3b 1d 5e 11 bd ec a1 a0 bd fe 81 f5 3d
       0.0070137023 -0.035490144 -0.07843384 0.11987685
0003a0 cf d0 ca 3c 67 ba 85 3d 84 82 27 bd 54 27 9e bd
       0.02475777 0.06529694 -0.040895954 -0.07722345
0003b0 67 db 24 3c e5 db b4 ba 6f 53 99 bb 8c 04 74 bd
       0.010062075 -0.0013798444 -0.0046791355 -0.05957465
0003c0 da 06 ae bc cd 24 b1 bd 10 25 4f 3b ed 0a bd bc
       -0.021243501 -0.08649597 0.0031607784 -0.023076499
0003d0 d2 fb 8f 3c a6 73 18 3e 3a de 32 bd fe bb 1e 3e
       0.017576132 0.14887866 -0.043668963 0.15501401
0003e0 6f e7 6a 3c ae d8 d6 3d 55 d6 8f 3d 1c 47 b2 bb
       0.014337405 0.10490547 0.070233025 -0.005440606
0003f0 a2 0c 7b 3d 88 64 81 bd 6c 70 98 3d f5 c0 db bd
       0.061291344 -0.06318003 0.07443318 -0.10730163

fc3.bias f4 [64]
000000 00 c3 c1 3c f9 f7 d1 3b 17 c8 27 3d d7 ab 7e bd
       0.023652554 0.0064077345 0.040962305 -0.062175598
000010 e0 31 7a bd 36 26 a3 bd 1a 79 13 3d c3 02 74 bd
       -0.06108272 -0.079662725 0.036004163 -0.059572946
000020 2f 62 f2 3c 5f c0 03 bc 30 4c 57 bc d4 9d 9e 3d
       0.029587833 -0.00804147 -0.013140723 0.07744947
000030 63 04 d6 3d ed 96 18 3e 1a 5e 03 3d 0b 36 d2 3d
       0.104500555 0.14901324 0.032072164 0.10264214
000040 bc 1f 90 3d d9 59 ab 3c f7 fb af 3c fc ab d6 3d
       0.07037303 0.020916866 0.02148245 0.10482022
000050 9f cc e4 3c 01 0c a4 3d f1 f5 87 bd f3 d9 02 3e
       0.027929602 0.08010102 -0.066387065 0.12778454
000060 42 22 af 3c 9d d7 0a 3e a5 e4 ca 3d f1 24 10 3c
       0.02137864 0.13558812 0.09906892 0.00879787
000070 49 de 11 3d fa ca e4 3d 31 30 91 3c 45 c9 df 3c
       0.03561238 0.11171527 0.017723175 0.027317652
000080 28 8a 3a bd 95 5b 6c 3a b2 21 47 bd 88 67 90 bd
       -0.045541912 0.00090163323 -0.04861612 -0.07050997
000090 90 43 c3 bd fd 80 35 3d 65 a6 53 3d 36 df 15 3e
       -0.09534371 0.044312466 0.051672358 0.1463593
0000a0 0e 28 f4 3d db 6b 41 3d 6b 05 a6 3d e6 21 74 bc
       0.11921702 0.047222 0.08106502 -0.01490066
0000b0 a7 47 88 3d d3 d8 36 bc 18 a8 dc 3d 49 4a 98 bc
       0.066542916 -0.011160093 0.10774249 -0.01859011
0000c0 a4 66 49 bc d5 01 42 3e aa 82 27 3e 57 bd f5 3d
       -0.012292538 0.18946011 0.16358438 0.11999004
0000d0 1f b5 98 bd 9e b0 d9 3d 74 28 dc 3d a4 96 82 3c
       -0.07456421 0.1062939 0.10749903 0.015940972
0000e0 27 7c 7d bd a2 70 f0 bb 2b 0e 13 3e 25 67 05 3e
       -0.06188598 -0.0073376456 0.14360873 0.13027628
0000f0 f1 05 53 3d 8e f2 22 3e ca 43 7f 3c f4 98 8a bd
       0.051519338 0.1591284 0.015580127 -0.06767455

out.weight f4 [1000, 64]
000000 80 d9 14 bd 74 b9 56 bc af 44 ea 3c 18 7e 8d 3d
       -0.036340237 -0.013105739 0.028597204 0.06908816
000010 36 4c 28 bc 95 f4 25 bd 91 8d b2 3d b9 85 cb 3c
       -0.010272076 -0.040516455 0.08718408 0.024844037
000020 21 cb 93 3d 6b b1 96 3c f2 e7 46 3d 54 ac a9 bd
       0.07216478 0.018395146 0.048561044 -0.08284822
000030 15 c9 48 3d b4 dd e0 3d b5 06 e2 3d 3d d1 b7 3d
       0.04901989 0.109797865 0.110364355 0.08975456
000040 43 5f c1 bc da d2 25 bd 21 7c 85 3d c4 6b f8 3d
       -0.023604995 -0.040484287 0.06517816 0.1212993
000050 a2 69 c8 3d 68 1a c1 3b 08 84 34 14 a8 7c 66 3d
       0.09785773 0.0058930404 9.113716e-27 0.056271225
000060 98 10 a9 3d 97 87 ab 3d d0 f9 1b bc 8b da 96 bd
       0.08255118 0.08375471 -0.009520009 -0.073659025
000070 3e 2d 33 3d 8e e5 cc 3c 7c 5a 2f 3d b3 7f a1 3b
       0.04374432 0.025011804 0.042810902 0.004928553
000080 da ff 51 3d 9d 69 24 bd d0 d6 09 3a 43 12 23 bd
       0.05126939 -0.040139783 0.0005258145 -0.039812338
000090 ff 1a 00 3d 40 a9 1c 3c 75 ac 48 bd e4 13 7d 3d
       0.031275745 0.009561837 -0.048992593 0.061786547
0000a0 2a 12 d6 bc 0d 2e af 3d ef bf 04 be cb f8 19 bd
       -0.026131708 0.08553705 -0.12963842 -0.037590783
0000b0 27 89 89 3d db 4f d4 3d e7 b3 b0 bc 24 75 5f 3d
       0.06715613 0.10366794 -0.02157016 0.054555073
0000c0 69 a2 e3 bc f3 e1 db 3d a2 a1 ef 3d 7f 4e 14 be
       -0.027787404 0.10736456 0.11700751 -0.14483069
0000d0 d1 68 05 3e 48 ba 93 3d 3f f3 ac 3d 20 50 fe 3c
       0.13028266 0.07213265 0.08444833 0.031044066
0000e0 cd 7d c0 bd 9e f9 e2 bb ed 05 97 bd f6 dc 93 3d
       -0.093989946 -0.0069267293 -0.07374177 0.07219879
0000f0 2c 84 1c bd 61 3a 5a 3d 5a 81 10 3d 4d 62 92 bc
       -0.038211986 0.05327833 0.03527961 -0.01786914
000100 cf e5 f1 3c d3 0c 52 3c 34 b8 93 3c a8 3f dc bc
       0.029528527 0.01282044 0.01803217 -0.026885822
000110 63 1b 24 bd 93 40 8f 3c d5 bf 9b bd a5 57 dc 3c
       -0.04006518 0.017486846 -0.076049484 0.02689726
000120 86 65 e2 bc 3d 53 71 bd 8f b5 b6 3d 44 39 2f 3d
       -0.0276363 -0.058917273 0.08921348 0.042779222
000130 97 e7 4a 3d f2 25 ce 3c 68 8d f5 3d 65 64 e1 3c
       0.049537268 0.025164578 0.11989862 0.027513692
000140 54 d4 53 3c 37 58 05 bc 79 c5 15 bd f6 b1 b2 3d
       0.012929041 -0.008138708 -0.036565278 0.087253496
000150 4e 96 10 3b 59 69 17 3d a1 db e3 b5 ad 3b 68 3d
       0.0022062245 0.0369657 -1.6976738e-06 0.056697536
000160 b1 a1 2f bc c9 2d 14 3e 67 ae 04 3e 3d 15 84 bd
       -0.010719703 0.1447059 0.12957154 -0.064493634
000170 b5 44 b4 3c 0f a5 92 bd 3f fe f8 bc 31 bc 04 bc
       0.022005418 -0.07160389 -0.030394671 -0.008101509
000180 25 e9 27 3d fe 40 dd bd de 32 1f 02 03 01 59 bd
       0.04099383 -0.10803412 1.1696073e-37 -0.05297948
000190 09 3c e8 bc d5 a8 89 3d 93 c9 56 3d bf 9e 02 3e
       -0.02834894 0.06721655 0.05243833 0.1275587
0001a0 c1 47 25 3d f8 08 9b bd eb 0d 07 3e 69 8b b8 bc
       0.040351633 -0.0757007 0.13188903 -0.022527413
0001b0 5a 1b 12 bd 05 a2 99 3d 57 9d e2 3d f6 48 e1 3b
       -0.035670616 0.07501606 0.110651664 0.0068751527
0001c0 27 30 ab 3b a9 ed 48 3d 31 a2 63 bd e2 f8 3a bd
       0.005224246 0.049054775 -0.0555746 -0.04564751
0001d0 a3 7f b3 bc 3e 77 cc 3d f6 b6 0e 3e 15 ea 2f 3d
       -0.021911448 0.09983681 0.13936982 0.042947847
0001e0 fe 97 d9 3c af 3a 38 3c 31 f3 21 3c 1a 8d bc bc
       0.026561733 0.01124446 0.0098846415 -0.023016501
0001f0 35 11 8e bc 67 e0 62 3d 43 1d 6d bd c9 53 45 bc
       -0.01734219 0.055389788 -0.057889234 -0.012043902
000200 90 93 35 3d 0a a1 16 bc c9 98 07 bd 56 cf f3 3c
       0.04433018 -0.009193668 -0.03310469 0.029761951
000210 02 cb 81 bc e5 75 09 3c c6 f8 8b bd 2a ac 95 3a
       -0.015843872 0.008389925 -0.06834559 0.0011419107
000220 38 ce a1 3d 3c 86 1e bd ba 79 a9 3c 99 dd 9e 3d
       0.07900661 -0.038702235 0.020687927 0.0775711
000230 6e 2f 2f 3d 50 e5 bd ba 29 3f c2 bc cb d3 6a 3d
       0.04276984 -0.0014487896 -0.023711758 0.057330888
000240 87 2c 9c bd 4b fc 9a bc 9a a8 8f bd 6f 58 a1 bd
       -0.076256804 -0.01891913 -0.0701458 -0.078781955
000250 ac be 4d bd 04 34 34 3c e7 bd 8b a1 b7 5a a0 3c
       -0.050230667 0.01099873 -9.469273e-19 0.019574506
000260 7f 3e c1 3d df 41 6c bd 80 49 d0 3d 9f ec 52 bc
       0.09435748 -0.057680007 0.10170269 -0.012873798
000270 12 e1 e2 3c dc 06 62 3c e8 31 d1 3d 79 df d4 3c
       0.027695213 0.013795581 0.10214597 0.025985466
000280 8b 68 8d 3c 49 2c b5 bc 20 22 50 b3 a1 ef b1 3c
       0.017261764 -0.022115843 -4.845981e-08 0.02172071
000290 af e5 d2 3a 2c 51 66 3c d5 5b e6 bc 0a 18 b8 3d
       0.001609018 0.014057439 -0.02811996 0.0898896
0002a0 4a e2 9f 3d db 8e 81 bd 3f 3e b1 bd 27 7c 1b bd
       0.07806833 -0.06326076 -0.086544506 -0.037960198
0002b0 a8 4e 07 bd ee e0 06 3d f3 dd 11 bd 9b a0 2b 3d
       -0.033033997 0.032929353 -0.035612058 0.041901212
0002c0 c6 f6 ee bc 64 8b 00 3e ab 15 3e 3d b7 f4 aa 3c
       -0.029170405 0.12553173 0.046407383 0.020868642
0002d0 35 28 0e bb 50 36 d2 bd a0 ca 3d 3d d2 ad 89 3d
       -0.0021691446 -0.102642655 0.046335816 0.06722607
0002e0 0a 3a bc bd 47 f3 c2 3c fe 7a 4f 3d f5 d8 d5 3c
       -0.091907576 0.023797644 0.050654404 0.02610443
0002f0 cc c0 a6 3d 29 9d b6 3d 22 ee 9b 3c c0 a3 4a bc
       0.08142242 0.08916695 0.019034449 -0.012368143
000300 f3 73 97 3d 2c 5e 25 bc 2c d1 0f 3d 7d 69 c0 bd
       0.073951624 -0.010093253 0.03511159 -0.0939512
000310 8d 7a 10 3d 60 80 12 3d 92 38 5a 3d 63 6d db bc
       0.035273124 0.03576696 0.053276606 -0.026785558
000320 bb 42 e8 bc 80 67 07 3d 5c 97 94 3d 35 4b 6f 3d
       -0.028352132 0.03305769 0.07255432 0.058421332
000330 49 f5 f7 3d a3 f9 9a 3d a9 bc 2b bd 47 9c b7 bc
       0.12107331 0.07567146 -0.041927967 -0.022413386
000340 b5 2e c5 bd 42 8e 4c bc 3c 63 65 3d 5b 86 9d 3d
       -0.09628049 -0.012485089 0.05600284 0.07691642
000350 86 6a 4e bd 64 9c 33 bd d9 11 84 30 d9 45 80 3b
       -0.050394557 -0.043850318 9.609337e-10 0.0039145765
000360 d9 0c 95 3d 55 c3 64 bd 15 9b 93 bc e2 38 81 bd
       0.07277841 -0.055850346 -0.018018285 -0.06309678
000370 fe ce c4 bc e7 c5 82 3d 3b d7 c3 bc 76 fa 61 bd
       -0.024024483 0.06385403 -0.02390634 -0.0551705
000380 b1 fd a6 3d 3a 85 bb 3d b2 8e 69 b1 48 62 10 bd
       0.081538565 0.0915627 -3.3987075e-09 -0.03524998
000390 6b e9 f6 bc 7c 30 52 3c b0 b5 27 bd 98 33 41 bc
       -0.0301406 0.012828942 -0.040944755 -0.011792086
0003a0 00 d2 a5 bd a7 64 c8 bc 0d 76 a9 bd fa 15 e2 bc
       -0.08096695 -0.024462057 -0.082744695 -0.02759837
0003b0 d6 a1 8c 3d e6 02 a0 3c 50 10 0c 3d ee 6f 2f 3c
       0.06866805 0.019532632 0.034195244 0.010707838
0003c0 32 64 b3 bd 30 0f 82 3d 46 42 80 3c c3 16 a1 3d
       -0.08759345 0.06350553 0.015656602 0.078656696
0003d0 4b 72 c6 bc 85 f5 a2 3d 0d 79 01 bb 85 5f 07 3c
       -0.024224421 0.079569854 -0.001975599 0.00826252
0003e0 e3 08 4e bc 65 c1 67 bc e1 32 d9 3d c3 85 94 bc
       -0.012575361 -0.01414523 0.106054075 -0.018130189
0003f0 e1 90 8d bd ec 62 24 bd e1 da 88 3d 9e ac 6c 39
       -0.06912399 -0.0401334 0.06682373 0.00022571019

out.bias f4 [1000]
000000 90 31 c2 3d c4 8a 7d bd 62 4f c6 bc 3a c0 fd 3d
       0.094821095 -0.061899915 -0.024207775 0.1239018
000010 b2 0e 16 bd e2 c0 c0 bd 90 cb d1 3d 11 02 51 bd
       -0.03663511 -0.094117895 0.102439046 -0.05102736
000020 52 f8 99 3d 78 6b e1 3d 15 18 b4 bc 02 a9 ac 3d
       0.075180665 0.11006826 -0.02198414 0.08430673
000030 b4 5b 44 3d de 1e 39 3d c5 12 5b bd a2 21 4d bd
       0.047939017 0.045195453 -0.053484697 -0.050080903
000040 c8 ab a0 3d 2f 4b 22 3e 49 0d a7 3d d2 24 29 bd
       0.07845265 0.15848993 0.08156831 -0.04129488
000050 06 7c 87 bd 25 25 82 3b c5 aa 2d 3c c2 0f ba 3d
       -0.066154525 0.003971713 0.010599797 0.09085037
000060 2f f0 5c bd db 18 a1 3c a5 17 b1 3d f2 5a 5f 3d
       -0.053939994 0.019665172 0.08647088 0.05453009
000070 70 fb 38 bd e3 f9 fd 3c 4d 4d ee bd 3e 11 84 3d
       -0.045161664 0.031002944 -0.11635838 0.06448601
000080 29 83 1c 3d 40 5c 26 3e 3a 21 8a bd ed 0a bc 3d
       0.03821102 0.16246128 -0.06744619 0.091817714
000090 28 83 2a 3c bb 1b f7 3c 4b 27 62 bd e0 35 2b bc
       0.010407247 0.03016459 -0.055213254 -0.0104498565
0000a0 4f 8d bc 3d b2 d7 1a 3e 8e 66 0f bb ef 77 47 3c
       0.0920664 0.15121344 -0.0021881196 0.0121745905
0000b0 2c 6d d1 bd 42 7c 9d bd b3 14 8f 3d 06 2e 0b 3e
       -0.10225901 -0.07689716 0.0698637 0.13591775
0000c0 a5 6a 51 3d bd 63 1d bc e6 17 24 3d 11 aa 60 3d
       0.051127095 -0.009606299 0.040061854 0.054849688
0000d0 52 91 dd 3d 0f 5c 94 3d 9f 58 21 bd 5f a7 d8 bd
       0.10818733 0.07244121 -0.039391156 -0.105787985
0000e0 58 d6 cb 3c f4 1e d1 3d 72 bf db 3d 0f a5 a5 bd
       0.02488248 0.10210982 0.10729875 -0.08088123
0000f0 09 f2 03 3d 1f ef 0f 3d 34 4e fc 3d 8f 37 6b bd
       0.032213245 0.035140153 0.123196036 -0.05742603
000100 66 31 84 3c a8 b4 a0 3d eb 2a 3d bd 70 5f b1 3d
       0.016136836 0.078469574 -0.046183508 0.086607814
000110 8c e4 18 bd a6 fd f6 3d 7c ba 11 3e 73 9b dc 3c
       -0.037327334 0.12060098 0.14231294 0.026929593
000120 a3 fb 8e bc f0 9b ad bd ca f4 94 bc 82 ec d1 3b
       -0.017453974 -0.08477008 -0.01818313 0.0064063678
000130 b2 20 b3 3c d2 69 a5 3d fd 8d a5 bd 15 a6 fe 3d
       0.021866176 0.08076824 -0.08083723 0.124340214
000140 18 37 fd 3d d7 0c c2 3d a6 7a b5 3d ee 92 2c 3e
       0.12364024 0.09475105 0.08861284 0.16852924
000150 a8 d4 10 3e 65 d6 c0 bc 36 40 12 3d 40 1f 1d bd
       0.14143622 -0.023539731 0.035705768 -0.03835988
000160 f9 2c 90 3c 68 49 86 3d fe 69 9d 3d a7 b1 a1 bd
       0.01759957 0.0655697 0.07686232 -0.078952126
000170 7b 0c 8b 3d 62 63 63 bc e8 2d fe 3c b2 b8 86 bd
       0.0678949 -0.013878675 0.03102775 -0.065781966
000180 98 77 c1 3d e5 5b e4 bc 3a 8e b7 3d 32 ba 8a 3d
       0.09446639 -0.02787585 0.089626744 0.06773795
000190 ee 67 24 bd a5 32 90 3b 55 c8 c0 bd 9f b7 f0 3c
       -0.040138178 0.0044005685 -0.0941321 0.029384432
0001a0 49 66 96 3d b8 53 7f 3d 8d 67 f8 3d a7 40 30 bd
       0.07343728 0.0623357 0.12129126 -0.043030407
0001b0 58 83 9d bc 1b fe 3a 3d a8 d5 52 bc 66 ec 49 3d
       -0.019227669 0.04565249 -0.012868322 0.049297713
0001c0 97 89 23 bd b6 0f 5b bd 1b 6c c9 3d 13 7d 89 3b
       -0.039926138 -0.05348178 0.098350726 0.004195818
0001d0 84 9f 5d 3d 06 a5 50 bd 32 8f a9 bc 0f 7d 27 bc
       0.054107204 -0.05093863 -0.020698164 -0.010222687
0001e0 62 dd e6 bc dc 98 e7 3d 57 bd b0 3c c2 39 fa 3b
       -0.028181735 0.113084525 0.02157466 0.00763628
0001f0 27 dc 02 3e 90 b3 6f bc 43 2d fc bc 37 e6 7e 3d
       0.12779294 -0.014630213 -0.030783301 0.06223127
000200 31 d6 10 3e 19 2e e2 3d 2b c8 f5 bc 3b 72 c9 bc
       0.14144208 0.11043949 -0.030002674 -0.024590602
000210 0b 4e 2f 3b 76 25 c6 3d 26 53 f0 3d ce 4c ca 3d
       0.0026749398 0.09675114 0.11734609 0.098779306
000220 00 01 fb 3c f7 98 04 3e b9 40 8d 3a d5 ee d0 bc
       0.030640125 0.12948976 0.0010776735 -0.025504509
000230 10 13 94 3d 5a b1 f9 bc ce 30 08 3e 2d 33 a4 3d
       0.072301984 -0.030480076 0.13299868 0.080175735
000240 9b af 24 bd d1 ab c6 bd 0e d6 77 3c 08 65 9d 3d
       -0.040206533 -0.0970074 0.015126718 0.07685286
000250 f0 6c b1 3d 6c 37 8d bc df a2 ea bc 64 4c 67 3d
       0.08663356 -0.017238341 -0.028642116 0.056469336
000260 eb 31 e3 bc 5d 0b d3 bb 49 b1 16 3e db ea 05 bd
       -0.027733764 -0.0064405636 0.14716066 -0.03269468
000270 1c 76 0b 3c d0 cd 56 3d 20 95 6e 3d 19 b1 e6 3d
       0.008512046 0.05244237 0.058247685 0.112642474
000280 63 21 b7 3d 97 a6 75 bd 9a f7 a1 bc 71 f1 6d 3d
       0.08941915 -0.059973326 -0.019771386 0.058091585
000290 e7 5a e8 bc 72 dd f2 bc e1 c3 fc 3b ab 01 73 3d
       -0.028363658 -0.029646609 0.0077137803 0.059327763
0002a0 ec f2 c6 bc fd 81 1b 3d 71 88 dd bd 66 be fa bc
       -0.024285756 0.037965763 -0.1081704 -0.030608367
0002b0 18 a5 70 3c 3d f7 5a bd 21 20 27 bd 89 b5 a4 3d
       0.014687799 -0.05345844 -0.040802125 0.080424376
0002c0 4d 5c dc bd c1 5d 7b 3d f3 8b 93 bd 89 af 92 3d
       -0.107597925 0.061368708 -0.072044276 0.07162387
0002d0 24 e1 fc 3d a7 63 30 3d 01 d5 05 3e fe d4 96 3d
       0.1234763 0.043063786 0.13069536 0.07364844
0002e0 18 a4 60 bc 9b 24 be 3d 3b 0e ba bd 9b 90 55 bc
       -0.013710998 0.09284326 -0.090847455 -0.013034965
0002f0 4b 2a 5b bd ec 7e ab bb a7 d2 00 bc fe b5 e9 ba
       -0.05350713 -0.005233636 -0.007862723 -0.0017830727
000300 e3 9b 33 bd 5a 54 b2 3d 8c d4 2f 3c 42 09 b6 bd
       -0.043849837 0.08707495 0.0107318275 -0.088884845
000310 b4 1f ea 3d 38 38 64 bd 37 44 d5 3d 81 f3 28 3d
       0.11431828 -0.055717677 0.104134016 0.04124785
000320 ab bc 1c 3d 36 e2 77 3d a9 bb 81 3d cd 60 f9 3d
       0.038265865 0.060518466 0.063346215 0.121766664
000330 e5 a4 2d bd 9c 8d f9 3c 65 d3 8a bd 62 3f 16 3d
       -0.042393584 0.030463032 -0.067786016 0.03668154
000340 a8 d2 e8 bd ea d8 d3 3d 46 c3 3e bd 80 10 bf bd
       -0.113683045 0.103441074 -0.046572946 -0.09329319
000350 24 e9 ec 3c 99 25 6d bc af b6 92 3d f3 0b 17 bc
       0.028919764 -0.014474296 0.071637504 -0.0092191575
000360 c9 5b ba 3c 89 a2 93 bc da d8 40 bd ef 52 aa bc
       0.022748845 -0.018021839 -0.047081806 -0.020791499
000370 76 cf 9f bb e7 10 fb bc e3 18 fb 3d 84 5e 8d bd
       -0.004877026 -0.030647708 0.12260606 -0.06902793
000380 01 1b 54 3d 20 8b 10 bd 15 05 80 bc 07 ef 6a 3d
       0.051783565 -0.03528893 -0.015627423 0.05735686
000390 fc 95 5c bc 78 86 52 bc 8c 0a cb 3d d3 ff 9c bc
       -0.013463493 -0.012849443 0.09914121 -0.019164955
0003a0 12 0e b8 3d 4e 16 31 bd 13 26 b2 3c ca 89 17 3d
       0.08987059 -0.043234162 0.02174667 0.03699664
0003b0 15 9e 9c 3d cb d2 f8 3d 21 9c a2 bc a8 71 d7 bc
       0.07647339 0.121495806 -0.019849839 -0.026299313
0003c0 38 c4 8a 3d f3 f5 93 3c dc f3 8c bd fa 36 ea bb
       0.06775707 0.018061614 -0.0688245 -0.007147667
0003d0 74 96 cb bd 97 21 0a bd a3 d4 cb 3d 6c f3 43 3d
       -0.09940806 -0.03372344 0.099526666 0.047839567
0003e0 d6 2a 7e bd 1c 50 f6 3d 43 ef 2f bd aa be 8d bd
       -0.06205257 0.120269984 -0.042952787 -0.06921132
0003f0 36 5f 41 3c 2c aa 0d bd 96 a8 69 3c 55 fc ba 3d
       0.011802485 -0.034586117 0.014261385 0.0913016
