models/MLP_DQN_20251201_182516.pt (torch, 633920 bytes, 8 tensors)

fc1.weight f4 [256, 200]
00000000: 1861 2cbd 69ac 873d d987 c33c cb8f ddbc
00000010: 7204 94bd ce9e ec3c fcbc 01bd b4ca 4dbd
00000020: 30e5 4d3d 106a d0bc d0da 4a3d 9ca5 5b3d
00000030: a379 48bb 0e63 8abd 424d da3b c887 033c
00000040: 765a 783d ba0f 7bbd 6244 873d ddb8 4abd
00000050: 6b40 4e3d d79a 0ebd 5c06 783d b02c 88bd
00000060: ab13 723c 1912 123d 9053 a33d fd59 48bc
00000070: f502 eabb 38f4 1d3d 83f4 50bd f726 16bc
00000080: 7df8 353d bb43 e23a f9cf 5fbd 0ddb babc
00000090: 4f49 b0bc a312 89b9 01f4 013d 9a75 84bb
000000a0: fe60 a33c 0486 563d 70de 35bd e08c 513c
000000b0: a70e 853d a1ee b9ba b625 94bd 7cb4 123d
000000c0: 8877 253c 840a 10bd cc0c 5c3d ee5c c13b
000000d0: 4c4f b13c 5b90 4f3d 4da7 253d 73b5 383c
000000e0: 3d06 703d d267 fa3c b6f3 893d 0dec 13bd
000000f0: 94fd 203d 9ee8 0b3d 5313 cf3c 4e14 9c3c
00000100: 2642 293c 64ab 2cbd e8e2 3abd f47d cdbb
00000110: 8db9 6c3d df32 c83a 6fe5 7e3d 6ec1 9c3b
00000120: 885e 4aba 173a 213c 1fa5 c73d a5c3 5cbd
00000130: 62e8 003d 68a9 983d e94c a93c d74c 82bd
00000140: 9903 333d acd0 833d 507d 753d c24d 52bd
00000150: 8eef 91bd 2708 033d 6b5b 1d3d b5d1 2c3d
00000160: 3731 d73c 68f4 af3b 5ecf 35bc 2091 26bb
00000170: 0c9c 783c 700d 9a3c 2362 4a3d 82de 703d
00000180: 1105 a8bc 0186 c03c 4d5e 243d 0a30 aabc
00000190: a8c4 dfbc fb38 aa3b ffe0 aa3c e1c4 4f3d
000001a0: 2991 13bd ffad 493c bb07 8cbc 8d2e 8a3b
000001b0: bb50 3bbd 9d12 013d db3e d03c 4c74 443b
000001c0: 6617 113b a46a 93bd e044 0d3d c0f0 ef3b
000001d0: 9b71 30bb 4383 433d b2e7 b9bb 7735 9fbd
000001e0: 0793 0bbd 405f 113d 6cc1 603d 8ae7 8ebc
000001f0: 1205 65bc 4cf2 19bd 180e 08bc 6190 a9bc
00000200: ecc5 61bc d461 c2bd 664f 353d c62e 3abd
00000210: 2981 873d 8042 723d b363 c03b 630b e43b
00000220: 5c49 0f3b 383d 903b a794 253d f26b 8abc
00000230: 8f89 89ba 2353 afbc a3fc 42bd 4e4f febc
00000240: de33 153c c5f7 65bc 6d65 f0bc 8e3b 9ebb
00000250: e23f b23d 9879 c53c 9b90 debc 48e8 8f3c
00000260: d3ac 6d3d 0870 f93c 7358 98bb f480 d1bc
00000270: d011 d53d 62d6 913d d46b b53b ed66 40bd
00000280: 5cdd 65bc d73b c03d 7e93 f6bc cd26 9bbc
00000290: c3c5 7dbc 49b6 66bc 9578 a1bb 576f b43c
000002a0: fb32 4d3d e1cf 96bd c8c7 2d3d 5835 613d
000002b0: 01e5 543c 01d9 39bd b095 6b3b 392a 723d
000002c0: 7505 b9ba a25e 97bc bf96 093d c38f 103d
000002d0: cd3f 113b a631 0aba 403a a9bc ae30 99bc
000002e0: 737d 77bd 7f05 8bbd 117b 0e3d a845 453d
000002f0: 8df7 1dbb 8169 10bc ff4a 863d 3792 fd3c
00000300: 197d a43d 3e49 063e 7004 073e 0aaa 303d
00000310: 7d27 4abd 9d8c 1abc d1ed f13c 00af 5e3d
00000320: 275e e13b 9524 9abc 51af c9bc e58f ac3c
00000330: 82d0 52bd 74b2 8d3d 5ae4 25bd 3e0a c9bd
00000340: 3d01 1a3d e081 593d 406d a03d 9ccb 413d
00000350: 18ba c03b 2a77 16bb 75ea ac3c a8c8 0b3d
00000360: 262a 2ebd c309 c63c 0d8f 5c3d 2967 353d
00000370: 0177 bfbc c531 bf3c 1bdb adbc 85e2 2abc
00000380: e712 0fbc 5c47 8dbc 7ea5 eabb 8b6f 78bd
00000390: e18b 3bbc e951 e2ba 8b92 bebc 266b 923c
000003a0: 65a3 21bd fcf4 523d 64c0 3dbd f253 b6bc
000003b0: e7c8 25bc c6bc 223c 066e b1bb 24a3 783d
000003c0: 642b 823c da16 223c ba85 5b3d 4c26 6dbd
000003d0: 0c0d c9bc ee7c d13a 1c7f 7dbd 2fb6 6dbc
000003e0: c28f d4bc 1716 39bd d991 b13d cc76 c9bc
000003f0: d6d4 35bd 1406 d7bc 7372 50bd 8df7 013d
-0.042084783 0.066246815 0.023868488 -0.027046105 -0.072274104 0.028884318 -0.03167437 -0.05024214
0.0502674 -0.0254412 0.049525082 0.053624734 -0.003059008 -0.067571744 0.006662042 0.008027978
0.060633145 -0.061294295 0.0660484 -0.049492706 0.050354403 -0.034815636 0.06055294 -0.066491485
0.014775197 0.03566179 0.07974923 -0.012228486 -0.007141466 0.038562983 -0.051014435 -0.009164563
0.04442643 0.0017262617 -0.054641698 -0.02280953 -0.021519331 -0.00026144562 0.03172684 -0.0040423395
0.01994371 0.0523739 -0.044401586 0.012789935 0.06496935 -0.0014185497 -0.07233755 0.035816655
0.010099299 -0.03516628 0.05372314 0.0059009707 0.021644257 0.050674777 0.040442754 0.01127373
0.0585997 0.030567084 0.06735937 -0.036113787 0.03930433 0.034157388 0.02527777 0.01905265
0.010330712 -0.04215564 -0.04562655 -0.0062711183 0.057794143 0.001527395 0.062230524 0.004783801
-0.0007719775 0.00984051 0.09748291 -0.05389752 0.031471618 0.07454187 0.020666556 -0.06362312
0.043704603 0.064362854 0.05993396 -0.051343687 -0.071257696 0.031990197 0.03841726 0.04219218
0.026268585 0.0053697117 -0.0110968035 -0.002541609 0.015173923 0.018805236 0.049409997 0.05880595
-0.020510228 0.023501398 0.040128995 -0.02077486 -0.027315453 0.005194781 0.02085924 0.050724868
-0.036027107 0.01230955 -0.01709353 0.004216975 -0.045731287 0.03151189 0.025420597 0.0029976545
0.002213919 -0.071980745 0.034489512 0.007322401 -0.0026923183 0.047732603 -0.005673372 -0.077738695
-0.034075763 0.035491228 0.05487196 -0.01744439 -0.01397826 -0.037584588 -0.008304141 -0.020698728
-0.013780098 -0.094913155 0.044265173 -0.045454763 0.06616432 0.05914545 0.00587126 0.006959365
0.0021863794 0.004401829 0.04042497 -0.016897175 -0.0010493266 -0.021401947 -0.047604214 -0.031043675
0.009106604 -0.014036124 -0.029345239 -0.004828877 0.08703591 0.024105832 -0.027168563 0.017566815
0.058026146 0.030448928 -0.004649216 -0.025574185 0.10403788 0.071209684 0.0055365358 -0.046973158
-0.014029827 0.093864135 -0.030099627 -0.0189394 -0.015489045 -0.014081546 -0.0049277046 0.022025747
0.050097447 -0.073638685 0.042426854 0.054982513 0.012994052 -0.045372967 0.0035947375 0.059122298
-0.0014116006 -0.018477742 0.03359103 0.03529335 0.0022163272 -0.00052716804 -0.020657659 -0.01869997
-0.060422372 -0.06788158 0.034785334 0.048162133 -0.002410385 -0.008814217 0.06557273 0.03095351
0.08031673 0.13113877 0.13185287 0.043130912 -0.049354065 -0.009432939 0.029532345 0.05436611
0.006877679 -0.018816272 -0.02461973 0.021064708 -0.05146838 0.06918803 -0.040500976 -0.09816407
0.037598837 0.053102374 0.07833338 0.047313318 0.005881559 -0.002295921 0.021107892 0.034126908
-0.042520665 0.024174577 0.05384736 0.044287834 -0.023372175 0.023339162 -0.021222642 -0.010429983
-0.008732534 -0.01724594 -0.0071608415 -0.06065325 -0.011446924 -0.0017266843 -0.023263237 0.017873358
-0.039462466 0.051503167 -0.046326056 -0.022256825 -0.0101187 0.009932702 -0.005414727 0.060702458
0.01588983 0.009893144 0.05359433 -0.05789785 -0.024542354 0.0015982667 -0.0618888 -0.014508768
-0.025947455 -0.045187082 0.08670396 -0.02459278 -0.04439243 -0.026248015 -0.050890397 0.031730223

fc1.bias f4 [256]
00000000: 6246 04bd a69d 87bc 410a 85bd 102b b6bb
00000010: 4993 b9bb 6e12 47bc ee67 843d cd53 dd3c
00000020: 41ca 013e 9257 413d 1c4f 9c3d cad4 6a3d
00000030: 5db0 34bc 5228 b43d 7adc 123d 5d33 7f3c
00000040: 5d05 b83c 7bac 10bd c56e 6b3d 7a89 d63c
00000050: dc74 213e 77b4 383a 858b eb3d c5dd 0b3e
00000060: ffa5 7a3d e492 7e3d fd91 49bb edff 8cbc
00000070: c2e9 123d e406 943d 6df2 c13d 8eca 193d
00000080: c84e 793d 7c0d 8a3d 5ab5 acba 56d2 a13a
00000090: 4ed2 1d3e 7e1a 743d 88c0 023e 0496 3a3d
000000a0: 6312 33bd edce 20bc b82e c73d 7f83 10bc
000000b0: 9ecb cf3d 8c7c 8e3d 7d9c dc3d 0cbb 4f3c
000000c0: 5896 c4bb 3517 a93d 65b5 32bd 20e6 c03c
000000d0: 91bf 24bd 8823 fe3d 619e 1d3d 2c36 4fbb
000000e0: 45b4 36bd 5dda e73d e074 1dbd bed7 7dbc
000000f0: 3758 c43d 4022 b43d a9a1 263d bb71 023d
00000100: 80a8 eebc b7cd 383d ea6d 503c 0ae6 153e
00000110: 8501 9f3d 85bf 3bbd 8c52 debc d2e0 b5bc
00000120: e53c 273d 7f2a 893d 7e7a 47bb ae1f bf3d
00000130: bd3b 7c3d ee72 31bc d8e0 a5bd ca94 733d
00000140: bc57 073e ebce ed3c 3f48 22bc a0be 6b3c
00000150: a45f 323d 298c dd3d 4818 15bc 95bd 48bc
00000160: a055 a83d 3513 113e 351a f23c 6794 bc3d
00000170: 33f0 7c3d 605b 243d f766 f6bc 1382 853d
00000180: 973b 323d fe1b 853d c815 4b3d a304 d43c
00000190: 3386 1ebd fe70 073e 5ca4 d03a 3330 24bc
000001a0: 20a4 01bd 047d d23c 90ee 7bbc 3662 b23d
000001b0: 9acd 08bd 3f32 0d3e dfe8 de3d b3f7 21bd
000001c0: 0f9f 20bd 896c 513d 418a 853d f300 a0bc
000001d0: 5aa1 8a3d 52f1 c53d 6099 46bd ca92 903d
000001e0: 2fa2 84bd 9f9e ef3c 7ceb 0bbd b165 ef3d
000001f0: b21d 8f3d 7881 07bb 1f37 1b3e dc9c 91bd
00000200: eab1 cd3a b372 923b af7e bd3d ae35 9c3d
00000210: 5021 fe3c 63fb 893d 79ed 793d 534d 8c3d
00000220: 5159 bf3d cc2a b9bc 40e4 993d 3724 973c
00000230: ac9f de3d 7c2c e0bc d37c b03d bb19 9e3d
00000240: 833f c13d dc78 863d 2590 023d b4cf 3bbd
00000250: 1f3c b53d 3736 df3d cea4 233d 1d3f 003e
00000260: be95 893c 7631 fd3c 6d77 ebbc 3024 823d
00000270: 9b7b 06bd 238f ef3d ae7f 3abd 992a e33d
00000280: 0a3b e73d 6ecf a23d 67b0 3cbd a75c 8c3d
00000290: 3707 1d3d 7d4c b53d 0608 0f3e 8653 35bd
000002a0: d835 983d 006e 8ebd 6b8d 2bbd f78c c43d
000002b0: 7a23 acbc 619b e83d 98e7 d3bc 65a0 213d
000002c0: 1508 fb3d 9f84 2f3e deb4 c03d 431c cc3c
000002d0: ffc7 8e3d 912e 13bb c6f4 933d 71d9 bbbc
000002e0: 6f2f 103d 5d9c 39bc 1075 b5bc 2215 923d
000002f0: fd40 e83d e6d2 09bd 0e4e e33d 392b f9bc
00000300: 02be b7bc 376e 57bc 7edc c13d b4b6 95bd
00000310: 24af d13d 2164 61b9 8e48 083e 4462 b33c
00000320: 8c16 863d 9202 5f3d 911b d93d 7a35 593d
00000330: 9bad a9bc 9468 d13d e6d7 01bd f458 d8bc
00000340: aab4 adbd 8285 c1bc ce38 d53d fff9 cf3d
00000350: 6e4d 453d 2e90 8b3d 95fb c7bc 4227 ce3d
00000360: 6feb 873d 8272 1ebd 4a68 e73c 0935 0b3d
00000370: 8df3 d03d fcf6 253e c83e 8fbc 9963 a3bd
00000380: f476 0ebd 7704 af3d 596f 763d 2e7a ed3d
00000390: 5dff 5bbc 822f 133e e1b8 fabc f95a 853d
000003a0: dc4c 29bb 0f49 c43d 7f03 f7bc 4cfb a33d
000003b0: b8c1 383d 8666 a23d 922c b73d ab6b 9ebd
000003c0: 3836 89bc 7523 663d 66ce 183d 51d8 fb3d
000003d0: 7eed 163d 833f d33b 33e1 de3c 1c22 7d3d
000003e0: 388f 113d 75f2 04bd c3bb 853d d599 513d
000003f0: 6216 75bd 9618 ba3d 2cb5 98bc 2d44 26bd
-0.032293685 -0.016554665 -0.064960964 -0.0055593327 -0.0056633097 -0.01215039 0.064651355 0.027017498
0.1267481 0.047202654 0.076322764 0.057331838 -0.011028376 0.08796753 0.035854794 0.015576211
0.022463495 -0.03532074 0.057478685 0.0261886 0.15767235 0.00070459343 0.115012206 0.13658817
0.061193462 0.062151805 -0.0030757182 -0.017211879 0.03586746 0.07227877 0.09470067 0.037546687
0.060866147 0.06740853 -0.0013176606 0.001234601 0.15412256 0.059595577 0.12768757 0.045553222
-0.043718707 -0.00981496 0.09725708 -0.008820414 0.10146259 0.06957349 0.10772035 0.012678873
-0.0059993677 0.082563795 -0.043630023 0.023547232 -0.040221754 0.12409121 0.03848112 -0.0031617982
-0.044605512 0.11320946 -0.03844154 -0.0154933315 0.09587138 0.08795595 0.040681515 0.031846743
-0.029133081 0.04511806 0.012721518 0.14638534 0.07763962 -0.045836944 -0.02713897 -0.02220193
0.040829558 0.066975586 -0.0030438001 0.09332214 0.06158041 -0.010830624 -0.08099526 0.05946807
0.13217062 0.02902933 -0.00990492 0.01438871 0.04354824 0.10817749 -0.009100027 -0.012252231
0.08219457 0.14167483 0.029553512 0.09207993 0.06175251 0.040126204 -0.030078394 0.0651895
0.04351386 0.0649948 0.04958132 0.025881117 -0.0387022 0.13226697 0.0015918124 -0.010021257
-0.031650662 0.025694378 -0.015376702 0.087101385 -0.033399202 0.13788699 0.108842604 -0.039542865
-0.03921419 0.051128898 0.065205105 -0.019531703 0.067690566 0.09665169 -0.048486114 0.07059248
-0.064762466 0.029250441 -0.034160122 0.11689318 0.06988086 -0.0020676535 0.15157746 -0.07109997
0.0015693281 0.0044692396 0.092526786 0.07627426 0.031021744 0.06737401 0.061017487 0.06850686
0.09343208 -0.022603415 0.07514238 0.018449886 0.10870299 -0.027364962 0.08617558 0.077197514
0.09435942 0.06566021 0.03187575 -0.045852378 0.08849358 0.108990125 0.039952092 0.12524076
0.016795035 0.030907374 -0.02874347 0.063545585 -0.032832723 0.11697223 -0.04553192 0.11092109
0.11290558 0.0794972 -0.046066668 0.068536095 0.03833696 0.088524796 0.13967904 -0.044269107
0.07432145 -0.069545746 -0.041882914 0.095971994 -0.02101301 0.11357761 -0.025867268 0.039459605
0.12257401 0.17140435 0.09409498 0.02491582 0.0697174 -0.0022458176 0.07224421 -0.022930833
0.035201486 -0.011328784 -0.022150546 0.07132937 0.113405205 -0.033648394 0.11098872 -0.030416118
-0.02242947 -0.013148836 0.09465884 -0.073102385 0.102384835 -0.00021494973 0.13308927 0.021897443
0.06547269 0.05444581 0.10600961 0.053029515 -0.020712664 0.10225025 -0.031700037 -0.026409604
-0.084817246 -0.023623232 0.10411225 0.10155105 0.048169546 0.068146095 -0.024411956 0.100660816
0.06636702 -0.038683422 0.028247971 0.033986125 0.102027036 0.16207498 -0.017485991 -0.07977981
-0.03478141 0.085457735 0.060164783 0.115955696 -0.013427583 0.14373592 -0.030605735 0.06511492
-0.0025833165 0.09584247 -0.030153034 0.080069155 0.04510662 0.07929711 0.08944048 -0.0773538
-0.016749486 0.05618616 0.037306212 0.122971185 0.036847584 0.00644678 0.027206993 0.061800107
0.035536975 -0.032457788 0.06529953 0.051172096 -0.0598358 0.09086721 -0.018641077 -0.04059236

fc2.weight f4 [128, 256]
00000000: a81d 39bc e31e d13c 0da0 f13c c5c3 8abd
00000010: 2298 583d 68f5 403d 610b 6a3d 4a5b 803d
00000020: b54c f83d 26eb 72bd 1c67 c83a e922 a6bc
00000030: 36d3 44bc 74e8 eebc 9e0b 5c3d fe0e 9d3d
00000040: 575c 9bbd b4a2 393a e934 0a3d d7c3 b8bd
00000050: e8cc 1bbd 5339 853c 6197 b4bc 7d06 3c3d
00000060: 4654 0fbd a409 973d ac59 883c d6ff dc3c
00000070: 2686 003e 3d6c 8e3d cb01 693b e9d2 da3a
00000080: d8cf c83a 737e dfbc 8000 7e3c 90ac ce3c
00000090: 4a63 5b3d 6d4f 163d a343 973d 709b 223d
000000a0: 0ddf 233c b435 0b3c 33f1 c7bc bfaf 4c3d
000000b0: 4180 bcbc 3957 923c 479e c53d a12f 533d
000000c0: 696b 1abc 312f 773d 3aed a1bc 3db5 84bd
000000d0: 62e6 e9ba 82da 7dbd bbd1 853d 0cbc 113d
000000e0: 9d00 ad3d 0694 2dbc 2a8d 1fbd f131 31bd
000000f0: beb1 133d 0abd 4dbd 676e abba 9cf1 5dbd
00000100: ab2c 133d d527 4dbc f336 173d 536b bf3d
00000110: 74ee 153c 181c 8e3d 16d8 9bbd 2dde 393d
00000120: 1110 67bd 360a a0bd 42cd 8fbb ed3b 113d
00000130: 11f0 e5bc 4a4f a13c 2c0f e0bb 57c3 aa3d
00000140: 0f1c 77bd 006e 523d a35e 9dbc 52b0 d6bb
00000150: caec 0ebd 6839 823b 23f3 b6bc f045 013d
00000160: 0993 0d3b d3d7 383d 6ae6 c5bb 5ab7 253d
00000170: a37c dbbc af14 8ebb 1614 203d 7477 f6bc
00000180: 7e15 d9bc 56e4 803d 160a a73c 6410 ea3a
00000190: 9ad1 34bd 9798 0f3c 8461 12bb b6f6 4d3d
000001a0: 27b4 8e3c 4cbe 9c3d 7b61 5b3d d6be db3d
000001b0: 463f 47bd d559 e039 d12e 533a 587d 793c
000001c0: 2683 4fbd 22f0 aa3b 591a cab7 c145 ee3c
000001d0: ee54 c2bb be52 b93c 6a52 7b3d 919b 81bc
000001e0: 37c2 c53c 8858 5c3d ae85 74bd 50e3 7b3d
000001f0: ae2f b33b f18a 0e3d fb90 d03d 1fce 763d
00000200: 7826 4c3d 29ba 763c b659 e13d 20ee afbc
00000210: 4419 df3c 4f0d ebbb d792 6b3c be27 27bd
00000220: 1162 263d ddd4 513d a87a 22bd eccb 853d
00000230: 58fa f8bb e24a 943d 31e7 4b3d 6115 22bd
00000240: b6f9 ab3d d714 6cbd e32b 493d ac4e 6cbd
00000250: 253b 40bc fe8d 42bd e481 4e3d 9a45 823c
00000260: f035 53bc 0b6c ffbb f86e c93c 2614 d03d
00000270: 78f4 583d 6482 0c3c c4fc 0fbd 1013 eebb
00000280: af8f 02bc 15d2 2e3d 6c2e 1d3d b11c 4a3c
00000290: 8673 00bc 375d 8cbc 915c 6fbd 0d70 423d
000002a0: 5e28 803b da3c 17bd f2f4 d7bb 798d 8f3d
000002b0: 4384 99bd 299b 9c3d e12d 943b dc7a ee3b
000002c0: 00dd 963d e362 ee3d bf16 333d 3d7d 47bd
000002d0: fdbf c23d 70c4 813c 1b70 933d f90a a3bc
000002e0: 5b0d 2f3a e9ef 4bbc 6b2b f3bb 0f33 773d
000002f0: 5770 e53c 3979 b6bd 5097 96bc f563 13bb
00000300: 7f00 87bd 1a92 ea3c 12bc 5c3a 0cd6 9ebd
00000310: eddc 9a3d 228a ff3a b9fb 893d d8d5 733d
00000320: c4f8 8c3d 60ae 883c 20d4 823d 478d 543d
00000330: 1cfc 9a3d dfc6 e5bc f884 b03d e045 5cbc
00000340: e886 aabd 4507 bebd 8475 ec3c 0396 343d
00000350: ced7 383d ebdf f23b 8512 c2bd d2da d2bb
00000360: fa52 413d f16f fa3c 0bf1 a83d e619 933d
00000370: b2bf 35bd ebf3 043e 83e9 113c b6b1 b23c
00000380: 15ae c33c 4718 d33d 44f8 b83d 375b f13c
00000390: 1f6f c5bc ab44 5cbc 18ef 103d f476 603c
000003a0: 981f e5bc a40e 483d 0d48 e43c 16d5 5fbd
000003b0: 7835 063d 27b4 5abc 8652 23bd 7242 abbd
000003c0: 2834 b5bd e2d8 47bd 508a 033d 6fd5 21b8
000003d0: 2c7f 69bd 9b23 9fbc da7a d2bd 2482 543d
000003e0: 519a b2bd 3fa0 9d3c 163b 763d b696 fe3c
000003f0: 6125 7bbd cacc 133d 9a74 11bd 2269 5d3d
-0.0112985745 0.025527423 0.029495263 -0.06775621 0.05287946 0.047109038 0.057139758 0.06267412
0.12124006 -0.059306286 0.0015289518 -0.020280318 -0.012013247 -0.029163577 0.053722017 0.07668875
-0.07585972 0.00070814346 0.033741865 -0.090217285 -0.03803721 0.016262686 -0.02204484 0.045904625
-0.03499248 0.07374886 0.016644321 0.02697746 0.12551174 0.069542386 0.0035554047 0.0016694936
0.0015320731 -0.027281975 0.015503049 0.025228769 0.053561486 0.03669684 0.073859476 0.039699018
0.01000191 0.008496691 -0.024407005 0.049972292 -0.023010375 0.017863857 0.0964933 0.051559094
-0.009425023 0.06034774 -0.019766439 -0.06479881 -0.0017845149 -0.061975963 0.065341435 0.035579726
0.084473826 -0.010594374 -0.038952984 -0.04326052 0.03605818 -0.05022911 -0.0013079167 -0.054185495
0.03593127 -0.012521704 0.036917638 0.09346642 0.00915109 0.06938952 -0.076095745 0.0453779
-0.056411806 -0.078144476 -0.0043884823 0.03545754 -0.028068574 0.019691128 -0.006837746 0.08338039
-0.060329493 0.051374435 -0.019210165 -0.0065517807 -0.03489379 0.0039741285 -0.022332733 0.03156084
0.0021602532 0.0451277 -0.0060394304 0.04045806 -0.02679283 -0.004335962 0.039081655 -0.030086257
-0.026499506 0.062935516 0.020390552 0.0017857668 -0.044145204 0.008764408 -0.0022335956 0.05028411
0.017419888 0.07653484 0.05355976 0.107297584 -0.048644327 0.0004279154 0.00080559874 0.015227638
-0.050662182 0.0052166143 -2.4092546e-05 0.029085996 -0.0059305346 0.022622462 0.061357893 -0.01582125
0.02414046 0.053795367 -0.0596978 0.06149608 0.0054683303 0.034800474 0.10183903 0.060255166
0.049841374 0.0150590325 0.11003439 -0.021475852 0.027233727 -0.0071732174 0.014378271 -0.040809385
0.040620867 0.051228393 -0.039667755 0.06533036 -0.0075982027 0.07240845 0.04978103 -0.03957117
0.08397238 -0.057637062 0.04911412 -0.057692215 -0.011732851 -0.047498696 0.050416842 0.01590233
-0.012891278 -0.007794862 0.024589047 0.10160093 0.05296752 0.008576009 -0.035153165 -0.007265456
-0.007968827 0.04268082 0.03837435 0.012335942 -0.007840043 -0.017134292 -0.058437888 0.04747014
0.003911062 -0.036923267 -0.006590479 0.07009406 -0.0749593 0.07646782 0.0045220708 0.0072778296
0.07366371 0.11639955 0.043722864 -0.04870342 0.09509275 0.015840739 0.07199117 -0.019902693
0.00066777103 -0.012447336 -0.0074209473 0.060351428 0.02800767 -0.0890984 -0.018382698 -0.002249
-0.065918915 0.02863412 0.00084203586 -0.0775567 0.075616695 0.0019496123 0.067374654 0.05953011
0.06883386 0.016684711 0.06388116 0.051892545 0.07567617 -0.02804893 0.08619112 -0.013444394
-0.083265126 -0.0927873 0.02886463 0.044088375 0.045127682 0.007411947 -0.094761886 -0.006434777
0.047198273 0.030570956 0.082491 0.07182674 -0.044372268 0.12983672 0.008905771 0.021813255
0.02388672 0.10307365 0.09031728 0.02946244 -0.024100838 -0.013444106 0.035384268 0.013700236
-0.027969167 0.048842087 0.027866388 -0.054646574 0.032765836 -0.013348616 -0.039873622 -0.08362283
-0.08847839 -0.04879082 0.032114327 -3.8584167e-05 -0.057006046 -0.019426158 -0.10277338 0.051881924
-0.0872084 0.01924145 0.060114942 0.031077724 -0.061314944 0.036083974 -0.03551159 0.05405534

fc2.bias f4 [128]
00000000: 6cfa cd3d 0a60 973b 5ae5 3b3d 3c90 f13d
00000010: 72a5 973d 002b 223d aec5 c03d 3c60 df3d
00000020: 1134 153e 4d7a 233d a943 c23d d55a c33b
00000030: a175 fc3c a24d 8c3d 9dc8 aa3d 5ef3 30bc
00000040: 77fa e73d 55e5 863d 53a4 ee3d e869 bd3d
00000050: e39c b53d 4081 f43d d82b cd3d 5f02 a5b9
00000060: 787f 7c3b 35b1 ab3d d65e 4c3d f88a 3f3a
00000070: ac89 123d fd2a 933d d504 ea3d 8065 c13d
00000080: 510d c9bc 9bae fe3b df94 e0bb 5e69 cf3d
00000090: 36cd ccba 3ffd c53c 1ca5 3b3d d079 58bc
000000a0: a064 1f3d f3e7 513d 5cca cf3d 16cb 793d
000000b0: 3c78 9eba 54de 013e 9eb0 763d 2424 b93d
000000c0: 5412 b23d 13ad cb3c 902e 443b efe5 d83c
000000d0: 8111 8a3c 0181 67bc 02fd eabc fcec 98bc
000000e0: 1b2a 003e 20bb d53d 8668 6b3a 3d31 da3d
000000f0: f528 953c 9631 4abc 3353 873d 11ed 58bc
00000100: 8a48 9a3d 2b47 833d ffed ce3c 8a65 243d
00000110: b86e a33d 1c80 533d 57a2 f73d ef8e a93d
00000120: 3c66 c43d faa2 0b3e 52d3 343d 7292 003e
00000130: cffa 003c 1a9e 2b3c 72e8 3bbd 0c6c 5c3d
00000140: 96dc 453d 7911 bc3d a0b5 013e 6903 f83c
00000150: 0a04 513d 9972 f93b 177f 9bbc 2797 873c
00000160: 6f55 e5bb a663 823d 3e5f 293b 562c 103d
00000170: af7e b3bc c3c5 4d3c 2967 c63d 851e 893d
00000180: 2d27 f63d b674 863d 4eda 1d3c d299 923d
00000190: 2d1a 333d 28c8 8ebb 18b0 bf3d 5861 363d
000001a0: c465 103c 9493 fd3d 00a8 ae3d 6e4a ae3d
000001b0: 84ec 873d 9df3 603d 10b7 f63c bcaf 8f3d
000001c0: 6c7f d93d b8ac c73d 1189 943d 803b be3d
000001d0: 818e 6a3c cf3e 733d 2480 a93c 7aa2 bb3d
000001e0: fda8 00bd 01d0 933d 7a8b b53d ded1 8e3d
000001f0: 7d5e 7abc 916c 883c 40cc b23d 434d a03d
0.1005753 0.004619603 0.045873024 0.11795089 0.07404603 0.03959179 0.094127044 0.10907027
0.14570643 0.039911557 0.094855614 0.0059617558 0.030817809 0.06850745 0.08339045 -0.010800211
0.11327069 0.0658671 0.11652436 0.09248716 0.088678144 0.11938715 0.10018128 -0.0003147302
0.0038528126 0.08383409 0.04989513 0.000730678 0.035775825 0.07185934 0.11426703 0.09443188
-0.024542483 0.0077722794 -0.0068536843 0.10127519 -0.0015625122 0.024168609 0.045811757 -0.013212636
0.038914323 0.051246595 0.10146019 0.060984693 -0.0012090276 0.12682468 0.06022703 0.090400964
0.08694902 0.024862802 0.002993498 0.026476828 0.01685405 -0.014129878 -0.028685097 -0.01866769
0.12516062 0.10436082 0.0008980114 0.10653923 0.018208006 -0.012340924 0.06607666 -0.013240115
0.07533367 0.064100586 0.02525997 0.040135898 0.07980102 0.051635846 0.12091511 0.082792155
0.09589812 0.1363639 0.044146843 0.12555864 0.007872297 0.010474706 -0.045875974 0.05381398
0.04830607 0.0918302 0.1266694 0.030275064 0.051029243 0.007612538 -0.0189815 0.016551567
-0.00699871 0.06366663 0.0025844122 0.035198532 -0.021910993 0.012559357 0.09687645 0.06695274
0.12019191 0.065652296 0.009634567 0.07158245 0.043726135 -0.0043573566 0.09359759 0.044526428
0.008813325 0.12381664 0.08528137 0.0851029 0.06636909 0.054919828 0.030116588 0.070159405
0.10620007 0.0974974 0.07252706 0.092886925 0.014316202 0.05938607 0.020690985 0.09161849
-0.03141116 0.07217408 0.08864494 0.06973623 -0.015281317 0.016653331 0.08730364 0.078272365

fc3.weight f4 [64, 128]
00000000: ae09 0f3e b056 a93d 99aa ad3d b452 b03d
00000010: 2964 673c 5d72 95bc 9f70 e13d 1d7d de3d
00000020: 98b9 163d 6eb2 713d 82cf a13d aed9 d13b
00000030: 3b56 d43d 4cd8 16bb 6b03 813d 7275 d83c
00000040: 2306 e0bc 8d36 7f3d 5eb8 493d 6dd1 603d
00000050: 9c8c 0a3d dc19 24bd 2a82 0c3e bc66 9fbc
00000060: fdda 74bd 6bf3 8ebd 2a74 1d3e 3ea2 80ba
00000070: cca2 a23d 31b8 cabb fa83 383e 2f66 e03c
00000080: 1329 db3c a491 d3bd 51df b0bc e9b3 853c
00000090: cb62 26bd a277 c4bb 3b51 c7bd 7bb6 afbd
000000a0: 6e18 ac3c 6886 8bbd 229b be3d 970e 8ebc
000000b0: 638c 44bd 2a87 e73a 84f4 b43d ab7f b33c
000000c0: 46a2 a63d 4aa9 f5bc ea08 6d3d 47a0 973c
000000d0: f237 503d f92e 293d e5ea c4bc fdb9 063d
000000e0: 2e9f 72bb 67ac c83c 0b2d 4a3a b510 9a3b
000000f0: 6e33 0e3c 8d6a 993d 19bd 1f3e e5e1 253d
00000100: 8bd0 663d c9e5 ec3d 39a4 8939 cee0 8d3d
00000110: c964 86bd faa2 133d 4018 8a3b 0c79 b43d
00000120: 55ca d63c b112 563d 25c9 debd 403d ba3c
00000130: 8bbb 153e c98f f7bc 5c82 d4bd 6868 1d3d
00000140: 5200 d93d 6f8e 0cbd ef0c 2c3d 5585 ee3d
00000150: 93af b63d 6a51 b13d 3fa8 35bd d9e2 7a3d
00000160: ed00 67bc 2162 cf3d a487 d33c e4ab 953d
00000170: 227f e43c 6bf4 efbc 95e0 c93c ff27 9d3d
00000180: bdad 25bc 9b44 193d 1da9 393d c5de babd
00000190: 208e b1bc 23ee 903d 1d74 ab3d dbb6 523d
000001a0: efa3 6bbd f58d 013e 0e50 bb3a 8b53 7e3d
000001b0: e9ac e6bb e92b 6b3c cb71 cb3b 123f 1f3b
000001c0: 5e9f ad3d 2632 c2bc 8e32 423d e2d6 183d
000001d0: c9dd 4f3c b7e8 203d e4bd bbbd aa9f f63d
000001e0: d942 1c3d 749b ca3d 6266 f53c 3275 8f3d
000001f0: 534d a93d 2b90 8abd 6942 0e3e 78df aebb
00000200: a889 53bd 2ca3 b23d b9d7 ab3d 9229 f73d
00000210: ae1d b0bc e2aa 943d a466 d33c 657d 7cbd
00000220: 37de 093e 625e a03d 2a6b 12bc b2ca 98bc
00000230: 0104 563d 7c03 eabc 69ef ac3b 2b9a 413d
00000240: d618 86bd c97c 91bb 9b62 923c 28e3 983d
00000250: 82d2 9c3c 9dd4 e03d 9367 773d ed3b c43c
00000260: f21a 3cbd 1914 923d bff1 b5bc 0746 893d
00000270: 626d 52bc 14f2 b3bc 5bd4 053c 39bd c9bc
00000280: 22c8 b13b b8d6 4dbd ba58 d7ba 9446 943d
00000290: 61af c5bc 7730 173d 38f4 48bd e4ca c93d
000002a0: 2dfd 363d 7a2b 5b3d 4ae8 a53c 659c 333d
000002b0: 0b0c b33d fe58 983c 0093 003b 1251 b43d
000002c0: 4673 b5bc 0a51 143d a6b0 c73d 3a8b b43d
000002d0: 9c08 86bd d761 183d 9b5d 493c 6007 f33d
000002e0: ef9f dc3d f674 10bd 8aa8 253d f0dc e23c
000002f0: 1562 393d 1aa8 b43d 8f8c 6dbd 4d41 823b
00000300: 43d6 183c a946 9e3d 3497 c83d 1b8c 20bc
00000310: 4af3 ab3d ea96 ddbc 242d f7bc 421a ce3d
00000320: 1b73 9f3d 95c0 25bd 5e4d 79bc eac4 3f3d
00000330: 4ac2 433d 405c a33c e9e1 733d 1326 623d
00000340: 494b 69bc 1aab ce3d 6c23 cdbc 7162 943d
00000350: 6bf6 83bc 34cd 15bd 9ece f03c 05b1 65bd
00000360: 0820 8bba b68b 553c bba4 30bd 4d35 c03d
00000370: 2ddd 07bd e3c5 843d 8946 a93d 415c 99bb
00000380: 0a8f 1b3d 08c4 bebc d017 cf3d 1100 c93d
00000390: 3fc8 d93d 4651 94bb a1ca d33d 299a 9fbc
000003a0: 4c2d c63c 741e 9f3d ced6 85bc cd8c 6cbb
000003b0: d664 083d 625e 133e 554c 303c ee80 a53d
000003c0: 4119 24bc eb71 8d3d 823a 343d 3e6f f13a
000003d0: bf9a 5c3d 66e4 4f3d 4bc6 78bd 9d43 18bc
000003e0: 6bd4 9b3d d070 2c3d 702c 0fbd ca7b b33d
000003f0: 06c6 133d 2648 313d 8b8a 8fba 98cb d83d
0.13968536 0.082684875 0.084798045 0.08609524 0.014123001 -0.01824301 0.11007809 0.10863707
0.03679809 0.059008054 0.07900907 0.0064041233 0.1036801 -0.0023017107 0.0629948 0.02642319
-0.027346676 0.062307883 0.049248092 0.054887224 0.0338255 -0.040063724 0.13721529 -0.019458167
-0.059779156 -0.06980022 0.15376344 -0.0009813977 0.07941207 -0.006186508 0.18019095 0.027392475
0.026752984 -0.10330513 -0.02159086 0.01632114 -0.04062156 -0.0059957067 -0.0973229 -0.08579727
0.021007743 -0.06812745 0.09306933 -0.017340941 -0.047985446 0.0017664183 0.088357 0.021911463
0.0813642 -0.02998795 0.05786983 0.018509043 0.050834604 0.041304562 -0.024037788 0.032892216
-0.0037021148 0.02449627 0.00077124004 0.0047016987 0.008679254 0.07491026 0.15599479 0.040498633
0.056351226 0.115672655 0.00026253032 0.06927644 -0.06562192 0.0360441 0.0042143166 0.0881215
0.026219526 0.05226392 -0.10878209 0.022734284 0.14622323 -0.03021993 -0.103764266 0.038429648
0.10595764 -0.034315523 0.042004522 0.11646525 0.08920207 0.086581066 -0.044349905 0.061251495
-0.014099342 0.101261385 0.025821514 0.07308176 0.027892653 -0.029291352 0.024643222 0.07673644
-0.010112223 0.037418943 0.045327295 -0.09124521 -0.021674216 0.07076671 0.08371756 0.051443916
-0.057529386 0.12651809 0.0014290826 0.06209139 -0.0070396555 0.014353731 0.0062086335 0.0024299067
0.084776625 -0.023705553 0.047411494 0.037314303 0.012687155 0.039284434 -0.09167078 0.12042172
0.03814969 0.098929316 0.029956046 0.07004775 0.082667015 -0.06765779 0.13892521 -0.005336698
-0.05164495 0.08722529 0.08390755 0.12068476 -0.021498527 0.07259156 0.025805779 -0.061643023
0.13463674 0.07830502 -0.008936683 -0.01865134 0.052249912 -0.028566115 0.0052775634 0.047266167
-0.06547706 -0.0044399244 0.017869284 0.074652016 0.019143347 0.10978053 0.06040151 0.023954356
-0.045924135 0.071327396 -0.02221 0.0670281 -0.012843462 -0.021966018 0.008168305 -0.024626361
0.005425469 -0.0502536 -0.0016429641 0.07240024 -0.024131479 0.036911454 -0.04906103 0.098531514
0.04467504 0.05350826 0.020252366 0.04385032 0.087425314 0.018597122 0.0019618869 0.088045254
-0.022149693 0.036210097 0.0975049 0.08815618 -0.06544611 0.037202682 0.012290384 0.11866641
0.107726924 -0.035267793 0.040443935 0.027693242 0.045259554 0.08821125 -0.057995375 0.0039750696
0.009328428 0.07728321 0.09794465 -0.009799029 0.08396013 -0.0270495 -0.030172892 0.10063602
0.077856265 -0.040466864 -0.0152162 0.04681865 0.04779271 0.01994145 0.059541617 0.05521209
-0.014239141 0.10091229 -0.025041305 0.07245339 -0.016108712 -0.03657265 0.029395398 -0.056077022
-0.0010614404 0.013033798 -0.04312585 0.09385166 -0.033169914 0.064830564 0.08265407 -0.004680187
0.03797821 -0.023286834 0.10111964 0.09814466 0.10633897 -0.00452629 0.10341383 -0.019482689
0.024191521 0.0776948 -0.016337778 -0.0036094666 0.03329929 0.14391473 0.0107603865 0.08081232
-0.010015787 0.06906494 0.04400111 0.0018419994 0.053858515 0.050754927 -0.060735982 -0.009293464
0.07608875 0.042099774 -0.03495449 0.08763845 0.03607752 0.043281697 -0.0010951323 0.105857074

fc3.bias f4 [64]
00000000: 4b37 863d c44a e73d 0533 123c 65c9 0c3e
00000010: 8673 763d ea84 fe3d 8329 423d 798c b13c
00000020: 1411 2d3e 1d6b 1d3e 3ad0 f03d 8855 853d
00000030: 508a eb3d c523 bd3d 1a52 823c ad09 99b8
00000040: e405 ffbc 0a4e d13c b534 163e 61cd e2bc
00000050: 399e c43c 2bfc e43d 82d6 1a3e eca1 693c
00000060: 4a28 fa3c 48f0 153e 4141 bd3b 6855 203e
00000070: 878e 14bd b336 5d3d d42a 5abd 413a a83d
00000080: a2f5 083e 25a3 1dbd 5f32 d53d c10b 41a9
00000090: 0cea 30bd 2f2a 2b3d 61af 283d 1933 643d
000000a0: b3fd 94bd bdfd c83d 5f9f 083d e6a4 143e
000000b0: 64be c93d c167 b63d ba1f a03d fd91 1a3c
000000c0: db12 803c 0af5 733c 136e 76bc 8e88 813d
000000d0: faeb ed3c 45ac 4b3c 8f69 803c 5a7c 0bb6
000000e0: 0e98 a73d dbb3 ecbc ac3d d8bd 19ec f33d
000000f0: 7ab6 d03d a259 8b3c 826f 703d 8d6a babc
0.06553515 0.11293557 0.008923297 0.13748701 0.060168765 0.12427695 0.04740287 0.021673428
0.16901046 0.15372892 0.11758466 0.065104544 0.115009904 0.09235338 0.01590829 -7.297411e-05
-0.031130739 0.025549907 0.14668544 -0.027685823 0.024001228 0.1118091 0.1512089 0.014259797
0.03053679 0.14642441 0.005775601 0.1565758 -0.036268737 0.054007243 -0.0532635 0.08214236
0.13374951 -0.038485665 0.10409998 -4.2864804e-14 -0.043191954 0.041788276 0.04118288 0.055712793
-0.07274952 0.09814022 0.033355113 0.14516029 0.09850767 0.08906508 0.07818551 0.00943422
0.015633991 0.014889965 -0.015040892 0.06324874 0.029043186 0.012431209 0.015675334 -2.0784996e-06
0.08183299 -0.028894356 -0.10558638 0.119102664 0.10191055 0.017010514 0.058700092 -0.022755885

out.weight f4 [1000, 64]
00000000: 593d 1ebd 960f ec3d d4c3 ba3d 20d6 9d3c
00000010: daaa b93d 88de 07bd 167e debd ea0f 823c
00000020: fcf3 83bc e7f8 763d 0213 f13d 7ac9 5bbd
00000030: 35e5 893c d903 083e afe6 9f3c c227 44b2
00000040: 0237 a53b 5375 27bd 2661 7cbd 91d3 fbbb
00000050: 13c9 ce3d cfb4 4abc 813a aa3d 2ad1 fa3d
00000060: 91a5 e83d 64f5 553d 84f5 8d3c 7dfd d2bc
00000070: 5452 4f3b c7b2 96bd 2d44 533c e7a9 a53d
00000080: f1e7 c33d d395 5f3d 3b5f 413d f05c 0500
00000090: 88bd b13b c748 cb3c dedc 8c3d ae76 033d
000000a0: 7358 2b3d 0cc2 343d 604a d23d 36ba ffbb
000000b0: ae83 ec3d e003 5abc 7897 aa3d cde9 5c3d
000000c0: eb95 943c e854 933d c580 5a3d eb59 3dbd
000000d0: d288 453d fcf7 be3b c5ce babc 14b9 ee19
000000e0: 9f81 f63c 1849 7bbb b8dd a8bd 3201 a7bd
000000f0: 5515 e83d 8b40 28bb 9030 b1bc a3d2 eabd
00000100: d353 f43c 8141 e1bc 1765 813d 1649 9a3a
00000110: b10a fa3d bc7c 0a3e d156 843d 655e 9fbc
00000120: 1c6e 96bc 2686 f23c a195 173e 2e31 f83b
00000130: 1dae 4fbd 28f7 2f3d fb1a 113d 2f24 e8a9
00000140: dbf3 b3bc dd53 933d 9b5c 8ebd 9c28 793d
00000150: 5031 eebc 2aaa e33d 0823 233e 91f4 efbc
00000160: a45d 51bd 46a5 ecbb d28f 35bc c7b2 64bc
00000170: 25b1 04bd 6063 81bd d1c5 42bd 5e46 bfbc
00000180: 48ea 8c3c bfaa 3a3c 6569 773d 4661 0580
00000190: 5c22 b63c e2dd edbc 04df 88bd 5c40 913c
000001a0: 57e0 38bd 45ef 173a e8fd 5cbd 4a9f 543d
000001b0: c0b0 623d 8360 a53a d3c4 903d 944f 833d
000001c0: 4687 b0bc 6d53 c83d 7f59 cf3b f657 b13d
000001d0: 9630 a93d 0a91 76bd ed1e ec3c df5c 0580
000001e0: d822 ae3b b38d 993c b023 8dbd bc8d 263d
000001f0: be93 e9bc b627 9d3c afb7 79bd fb34 c9bc
00000200: 9e92 b4bd 5d4e 6e3c a214 bb3a 2248 3ebd
00000210: 1b0b 82bd dba7 fbbc 36a2 973d 5586 f23d
00000220: 3ece 343d 9250 97bd 2621 983d 70f2 92bd
00000230: cc50 173d 78cf 36bd e6d0 20bc 60df 0180
00000240: 5dca a63d f322 72bd ae76 923d d692 de3c
00000250: fb39 8bbd 7590 d73d 8f87 4c3d 67b3 f43a
00000260: bb59 023e d36a 36bd f5c2 edbc e541 f73d
00000270: 146c c1bc c4bd 183e 75af 513c 8c8f 80bd
00000280: 3d66 35bd bc90 263c 166a fe3c 8758 0580
00000290: 7e20 43bc bcf2 b0bd 1c24 a5ba e798 0a3d
000002a0: a13c e7ba 442f b93d 7aa0 f0bd 0dd2 2d3c
000002b0: ad90 cc3c 08f5 d3bb 0d1e ca3d 8e8c 8abd
000002c0: a52f 8d3c adca d93d 13d2 453d b146 ac3c
000002d0: d2fb bdbd 41aa 27bd 2087 063d 58c2 9595
000002e0: 7978 5fbc 4b04 b03d fa66 3e3d 4261 98bd
000002f0: ce99 4e3d 26ee 17bd 5eda 40bd e4a9 aa3d
00000300: 4565 8dbd c866 4d3c 241e 69ba 77b3 b9bd
00000310: 93ad 9c3d 65bb 66bb f4f2 c33b 4fa6 e5bb
00000320: 417b 1d3d 0144 f7bc 41df d03d 8346 963d
00000330: 498b 2cbc e5f1 723d 0492 9e3d f2bf 868e
00000340: b01f 6a3c 6b0d 9c3c 422f 84bd c9a7 d93c
00000350: b172 abba c378 98bd 8581 75bd 8c7f 933c
00000360: 8766 e53d f90c 56bc c6e9 0ebc 5c0d 8f3d
00000370: 73f3 5cbc e897 023e fc9a f23c 5b45 80bd
00000380: 91cc 983d 2b4e ce3c 6f0e 65bc b660 0500
00000390: 1136 f33b de29 973d 7da2 c13d 521b 5dbb
000003a0: 1741 493c acae 1d3d f979 203d c815 db3d
000003b0: d012 883d 3f5b 5fbc 8466 863d a5ef 2e3c
000003c0: 2c88 97bc dc2b 0d3d 9af5 b1bc 51db 0cbd
000003d0: ce9c e9bc 37ab 84bc 54f4 983c 5561 0500
000003e0: bd50 2f3d 9ad6 4c3c 2c89 3ebb ba5e e4bc
000003f0: 303b ad3d ef1f 253d ccbc 8cbd 2020 02bd
-0.038632724 0.1152641 0.091193825 0.019267142 0.090657905 -0.033171207 -0.10863893 0.015876729
-0.016107552 0.060295966 0.117712036 -0.05365894 0.016832927 0.13282718 0.019519178 -1.1417741e-08
0.005041958 -0.040883373 -0.061616085 -0.007685133 0.100969456 -0.01237221 0.0831194 0.12246926
0.11359704 0.052235976 0.017328985 -0.025755638 0.0031634765 -0.07358318 0.012894672 0.08089047
0.09565724 0.054586243 0.04720996 4.92517e-40 0.005424205 0.024814976 0.068780646 0.032095604
0.0418324 0.04413037 0.10268092 -0.0078041805 0.115485534 -0.013306588 0.083296716 0.053933907
0.018137893 0.07193929 0.05334546 -0.04622833 0.048226185 0.005827902 -0.022803674 2.4683376e-23
0.030091105 -0.0038343128 -0.082454145 -0.08154525 0.11332194 -0.0025673236 -0.021629602 -0.11465957
0.029825127 -0.027497055 0.063181095 0.0011771049 0.122090705 0.13524145 0.064618714 -0.01945419
-0.018363051 0.029604983 0.14803173 0.007574222 -0.050703157 0.042960316 0.03542612 -1.03091465e-13
-0.021966865 0.0719373 -0.06951257 0.060829744 -0.029076248 0.111164406 0.15931332 -0.029291423
-0.051114693 -0.0072218506 -0.011081653 -0.013958639 -0.0323955 -0.063177824 -0.047551934 -0.023348983
0.017201558 0.011393248 0.060403246 -4.94073e-40 0.02223318 -0.029036466 -0.06683162 0.017730884
-0.045135822 0.0005795847 -0.05395308 0.051909722 0.055344343 0.0012617264 0.07068791 0.06411663
-0.021548878 0.09781537 0.0063278074 0.08659355 0.0826122 -0.060196914 0.02882334 -4.92493e-40
0.0053142123 0.018744325 -0.068915725 0.040662512 -0.028512832 0.019183975 -0.06096619 -0.024561396
-0.088170275 0.01454505 0.0014273117 -0.04645551 -0.063497745 -0.030719688 0.07403986 0.11842028
0.044142 -0.073884144 0.074281976 -0.071751475 0.03694229 -0.04463145 -0.00981543 -1.71967e-40
0.081440665 -0.05911536 0.071515426 0.027169626 -0.06798168 0.105256 0.049933966 0.0018669189
0.12729542 -0.04453547 -0.029023627 0.12073115 -0.023611106 0.1491614 0.01279818 -0.062773794
-0.044286955 0.010166343 0.031056445 -4.90935e-40 -0.011909602 -0.08640048 -0.0012599262 0.033837225
-0.001764197 0.09042218 -0.117493585 0.010609162 0.02497133 -0.006468419 0.09869013 -0.0676509
0.017234633 0.106343605 0.048296046 0.021029802 -0.092765465 -0.04093385 0.03284371 -6.048724e-26
-0.013639563 0.08594569 0.046484925 -0.074404255 0.05043965 -0.03709235 -0.04708325 0.08333185
-0.06904081 0.012536712 -0.0008892736 -0.09067433 0.07650294 -0.003520691 0.00597989 -0.007008351
0.038447622 -0.030183794 0.10198832 0.07337668 -0.010531255 0.05931272 0.07742694 -3.3218387e-30
0.014289781 0.019049367 -0.06454326 0.026569264 -0.0013080445 -0.074449085 -0.059937973 0.018005155
0.11201196 -0.013064616 -0.008722728 0.0698497 -0.013485777 0.1275326 0.029614918 -0.062632285
0.07460893 0.025183758 -0.013980492 4.93871e-40 0.0074222167 0.073810324 0.0945482 -0.0033738208
0.012283585 0.03849666 0.039178822 0.10697514 0.06644213 -0.013632595 0.06562522 0.010677253
-0.018497549 0.034465656 -0.021723557 -0.034388844 -0.028517153 -0.016194923 0.018671192 4.94094e-40
0.042801607 0.012502337 -0.002907346 -0.0278772 0.08458555 0.040313657 -0.06871948 -0.031768918

out.bias f4 [1000]
00000000: 6974 0bbd 43a9 77bc db8b d53d ac0e 1abd
00000010: 858b ba3d b5af 50bb b17a 59bb 604f c8bd
00000020: 9bf3 dbbc 0493 9e3d aca8 423d df42 e73c
00000030: 205f a63c 8954 303d 5698 6bbc 1211 773d
00000040: 5a0f 293d 5570 5c3d 29bc 9ebd 9433 6a3d
00000050: aade 423d 8199 9abd 2ca2 003e cd26 183e
00000060: 2f17 143e 8255 af3d cab7 d83c a238 2c3d
00000070: e27e 80bd d030 59bc 9e02 553c 1e97 1b3e
00000080: d30f b73d ef8c d73d d240 ab3d 2831 e8bc
00000090: d6c4 1a3d 92a9 083e fbf3 f7bb b0cd cc3d
000000a0: 1d50 ae3d 2dae 883c cf6f cd3d c3de 903d
000000b0: 116b 513c 67b0 7a3d 2146 203d fede 323d
000000c0: bc43 7ebd 0ed7 08bd 23b4 14bd 4915 ae3d
000000d0: 304d 133d fcf4 ca3d d2a4 963d ea9a 883c
000000e0: 6930 fc3a 17ed e23b c759 02bd 76bf 19bd
000000f0: 2998 c5ba 2371 f63d 3c3f ae3d e1db afbd
00000100: 5e24 67bc cc3a 553d 6f0f d73d e281 ee3d
00000110: e2fa c93d c9cb 6fbd 5d56 9cbd 5579 9cbd
00000120: 3f86 3d3e aeb9 56bd 65a6 9e3d 7fc5 0f3e
00000130: 6735 c33d 78db 533d e08b 72bd 7b34 65bd
00000140: b301 b03d 53c6 2f3d 4df7 043d 4e64 4b3b
00000150: c0a3 37bd 64ef d23d 4064 cfbc ce2c 32bc
00000160: 9c08 8a3d be88 963d 9041 a8bd bf80 b93c
00000170: 4c79 d6bd 68f2 153e 9921 3ebd d951 f13d
00000180: 6b63 3a3d 5748 ea3d a5b9 9bbd 1332 1b3d
00000190: 6dba 663d 3457 a93d fa04 dcbd 1e65 57bd
000001a0: 2a82 2bbc ff70 3abc d1bc 2f3d 695c f4bc
000001b0: 0754 553d dbef 093c 255b 953d 0250 803d
000001c0: a6b7 af3d fbcd 073e f46f 81bd 2d33 573c
000001d0: 8ac5 b63d f4d8 b3bd 3ec9 833d 92b0 0bbd
000001e0: 25ed 8cbc 0e00 f63d e531 81bc 4366 6ebd
000001f0: e099 d63c ab0d d93d 5b44 6ebd 2bf8 b63c
00000200: 43b1 cc3d 1906 893d 8ef6 ee3c 1923 44bd
00000210: 8d67 7c3d b18b afbd 1119 343d 3b00 16bd
00000220: 149a 903c 95d7 033e 7252 323d f6f4 513d
00000230: 4967 843c 24f3 9b3d 8dcd 4b3d 9e9c 0c3d
00000240: ddec 0e3d 249d 4f3d 53a5 13bd cb71 48bb
00000250: 02e1 153e 48db 4dbd cf00 4cbd ab7b 863d
00000260: 3f66 023e 0554 073e 8937 f53d cb87 983d
00000270: 039c 04bb c9a9 e63d ddbe 263d c1c7 023e
00000280: d662 573d aff7 14bd f5f6 fd3d 578f 4e3c
00000290: f32f 023c f14e 8bbd ff44 923c 6904 bdbc
000002a0: 4228 abbd 013d 8c3a 246d aabd 8863 04bd
000002b0: 5e96 083e 2d81 7b3d e46d 22bd 6799 9dbc
000002c0: 8b23 a3bd d6d6 7bbc 3e69 0abd 83e3 323d
000002d0: 842a 423d 29fa f03d 2ac5 8d3d 46aa 693d
000002e0: ceb7 92bd 6e93 5f3d a3e4 a03d bfcd 023e
000002f0: dc5a 643d b7e7 183d dd53 95bc cd2e 05bd
00000300: dfc0 1bbc b90a d03d 58d1 da3d 930d 8c3c
00000310: bb63 24bd 65ad ea3d 7859 553d 7580 d63a
00000320: aad1 033e 79f9 71bc 6f0b c3bd 1dc7 f53d
00000330: 06cb ecbb 6f0e aa3d 6fa0 803d c76d a4bd
00000340: fc94 b3bd 21fb 7bbd c0c4 c0bd 4b13 623d
00000350: 53be 4f3c acbd c73d 81aa 6bbd 722f adbd
00000360: eed3 8e3d b0eb 2a3d fb02 ff3c 5995 903d
00000370: 3904 013e 18bb 3e3d 70eb 8ebd 9c8e 3dbd
00000380: fcd2 b93d ca66 9ebd ce79 0dbd 1012 94bd
00000390: 0309 62bd af6c 853d 4ad1 8dbd fe77 3fbc
000003a0: 623b a13d 648a f53d df8e e73d b5b2 0e3d
000003b0: 9b65 bdbc a49f 013d 6eac 61bd b73b 7abd
000003c0: 527f 103e d8f3 a83d 8c73 5cbd 2e47 83bd
000003d0: a7a1 db3b 7665 34bd ce09 fbbb dee8 ab3b
000003e0: 3b95 c63d 8f7f 6bbd ffff a13c 9c98 723d
000003f0: 723e 163d 806e e33d e1cb 1a3d f7b9 5d3c
-0.034046564 -0.015116039 0.10427066 -0.03761165 0.091086425 -0.003184301 -0.0033184702 -0.097807646
-0.026849559 0.07742885 0.04752414 0.028230129 0.020309031 0.04304937 -0.014379581 0.060319014
0.041274406 0.053818066 -0.077507325 0.057178095 0.04757563 -0.0754881 0.12561864 0.14858551
0.14461969 0.08561231 0.026454825 0.042046197 -0.06274201 -0.013256267 0.013001112 0.15194365
0.08938565 0.10524928 0.08361973 -0.028343752 0.037785374 0.13345936 -0.0075669265 0.10000169
0.08511374 0.016684616 0.100310914 0.070737384 0.012781874 0.061203387 0.03912938 0.043669693
-0.062076315 -0.033408217 -0.036304604 0.085001536 0.035962284 0.09910008 0.07355656 0.016675431
0.0019240502 0.006925236 -0.0318239 -0.037536107 -0.0015075254 0.12033298 0.08508155 -0.085868604
-0.014107792 0.052058026 0.105009906 0.11645867 0.09862305 -0.058543954 -0.0763366 -0.0764033
0.18508242 -0.05242317 0.07746581 0.14040183 0.0953167 0.051722974 -0.059215426 -0.055958252
0.08594074 0.042913746 0.032462407 0.0031035128 -0.0448339 0.102995664 -0.025316358 -0.01087494
0.06739923 0.073503 -0.0821563 0.022644399 -0.10472354 0.14643252 -0.04641876 0.11783189
0.04550497 0.11439579 -0.07603768 0.03788955 0.056330133 0.08268586 -0.10743137 -0.052586667
-0.010468045 -0.011379479 0.04290468 -0.02982922 0.052082088 0.008419002 0.07292775 0.0626526
0.0857995 0.13262169 -0.063201815 0.01313476 0.08924396 -0.08781615 0.06434868 -0.034103937
-0.017202923 0.12011729 -0.015770862 -0.058202993 0.02619642 0.1059831 -0.058170658 0.022335133
0.099947475 0.06690616 0.0291703 -0.047885034 0.06162219 -0.08571566 0.043969218 -0.036621314
0.017651595 0.12875207 0.043535657 0.051259004 0.016162531 0.07614735 0.049756575 0.03432905
0.03489386 0.05068697 -0.036046337 -0.0030585404 0.14636615 -0.05025795 -0.04980546 0.065665565
0.12734316 0.13215645 0.11973483 0.074477755 -0.0020234592 0.11262853 0.040709365 0.12771513
0.05258449 -0.036369022 0.12400619 0.012607417 0.007946002 -0.06802166 0.017855166 -0.023073392
-0.08357288 0.0010699333 -0.08321598 -0.032321483 0.1333861 0.06140249 -0.03965558 -0.019238187
-0.07965764 -0.015371045 -0.033791773 0.043674003 0.047403827 0.11766464 0.06922372 0.05704715
-0.07163964 0.05458396 0.07856109 0.12773798 0.055750713 0.037330355 -0.018228466 -0.032515336
-0.009506433 0.10158295 0.106844604 0.017096316 -0.040134173 0.11458854 0.052087277 0.0016365187
0.12872949 -0.014768952 -0.09523665 0.120008685 -0.0072263507 0.08303534 0.062806 -0.08028751
-0.08768651 -0.061518792 -0.09412527 0.05519418 0.012679654 0.09752974 -0.057535652 -0.08456315
0.06974016 0.041728675 0.03112935 0.07059736 0.12599267 0.046565145 -0.069785 -0.04627858
0.09073445 -0.07734449 -0.03453999 -0.07230008 -0.055184375 0.065148704 -0.06924684 -0.011686323
0.078726545 0.119892865 0.113065474 0.034838397 -0.023119738 0.031646386 -0.055096082 -0.061092105
0.14111069 0.082496345 -0.05382113 -0.06410061 0.00670262 -0.044042073 -0.007661081 0.005246266
0.09696432 -0.057494696 0.019775389 0.05922757 0.036680646 0.111050606 0.03779209 0.013533107
