models/MLP_DDQN_20251201_185005.pt (torch, 633932 bytes, 8 tensors)

fc1.weight f4 [256, 200]
0.05492813 0.047598 0.0035470622 -0.025724294 0.041315544 -0.06680777 0.028473148 -0.026474938
0.0537523 0.0073757707 -0.013592525 0.01380541 0.033156805 0.036789972 0.06279616 -0.015321763
0.014062734 -0.015657866 -0.007091432 -0.004715819 0.0046818177 -0.007643242 -0.05264244 0.06158794
0.028221173 0.06012259 0.073362745 0.0029764373 -0.051552635 -0.02585507 0.058314297 0.020385914
0.016435131 -0.06340563 0.015630307 0.041591287 -0.02066367 -0.022468816 -0.054845646 -0.010983607
-0.021626424 -0.035546273 -0.0447036 0.037671573 -0.03711103 0.022107666 0.05757382 -0.008063948
0.0052172556 -0.06445073 0.014547269 0.047109023 0.03803786 0.041508626 0.0543237 0.005341584
0.054698758 0.059387363 -0.023749808 -0.017782029 -0.056464013 0.057868063 -0.051212456 0.03106908
-0.044983193 0.05550543 -0.025775451 -0.04937661 0.023339095 0.033556685 0.031538177 -0.057098802
0.05482117 0.031081531 0.024006916 -0.018262781 0.037511513 -0.034895387 -0.0028211777 -0.051288884
0.03847248 -0.039831385 0.04608491 0.02042387 0.019913528 -0.05096262 0.075292304 -0.005520147
0.0900622 0.03988543 -0.020539206 -0.019568978 0.0018981235 0.04478019 0.0074861427 -0.0014042075
-0.065519914 -0.04631246 -0.048809808 0.027101243 0.041521396 -0.008562505 0.013775905 0.048613515
0.021119025 -0.06687616 -0.02545249 0.009245912 -0.03764328 -0.012364821 -0.01882935 0.02840367
0.07607346 0.018579446 0.037434015 -0.022534365 -0.061247244 -0.0543521 0.008756288 -0.040532254
0.025771609 0.023873698 -0.05310804 -0.032952815 0.052310437 0.014372465 -0.03806778 0.04811186
0.023474278 -0.061374333 0.00015907301 -0.0053462656 0.025433086 0.02852301 0.02613693 0.011047213
-0.019899648 0.06236749 0.026852068 0.0071858875 -0.017832628 0.012044374 -0.071760364 -0.0335106
-0.05133547 -0.04942021 0.015442191 -0.028929442 -0.0075616115 0.0013488859 0.01840633 0.060105104
-0.013163011 -0.027115468 -0.0060057547 -0.017424528 0.024868933 -0.019216932 0.056352336 0.010895547
0.06180024 0.047496844 0.02849897 -0.0550113 -0.05907127 -0.023396524 0.018863888 -0.017950904
0.015978878 0.036985368 -0.048292182 -0.06261752 -0.0060862848 0.04267646 0.086672485 -0.061125442
0.046530783 0.06427364 0.060090493 0.036875434 0.05887063 0.011104923 0.03508012 -0.07361005
-0.009801422 -0.06053235 -0.019894134 -0.0568896 0.028109593 0.06275265 0.026530221 -0.047397867
-0.033108614 -0.05918215 0.034036364 0.0048208507 0.009999772 0.07036592 0.05772139 0.055418596
-0.018323798 0.03764312 -0.004245706 0.004097536 0.051608536 0.04191188 -0.0026940187 0.0095516555
0.06277968 -0.058289032 0.051130887 0.031961516 -0.04035199 -0.048328985 0.04342281 -0.055728544
-0.044713017 0.0527599 -0.034621835 0.022312244 -0.011189239 -0.06785662 0.020060293 -0.03234299
0.054878987 -0.0574662 0.0106001645 -0.035399392 0.08154134 0.035921883 0.018573407 -0.002832017
-0.009765241 0.04264061 -0.048866812 -0.040429752 0.0603807 0.024391016 0.022890978 -0.025140611
0.041791987 -0.042618655 0.05330554 0.071601324 0.058345202 0.04494443 -0.022173358 -0.005650087
0.04772185 0.02853043 0.05496984 0.06092813 0.018621909 -0.016339751 0.02403472 0.02344041
00000000: 52fc 603d 1ff6 423d d475 683b c1bb d2bc
00000010: 7d3a 293d 83d2 88bd 8540 e93c f8e1 d8bc
00000020: 5f2b 5c3d 73b0 f13b 2fb3 5ebc 1630 623c
00000030: 6ecf 073d 15b1 163d 469b 803d 2208 7bbc
00000040: 6267 663c ed44 80bc 3e5f e8bb 2887 9abb
00000050: ef69 993b 2974 fabb 999f 57bd a343 7c3d
00000060: 1730 e73c 1b43 763d 353f 963d 5510 433b
00000070: db28 53bd 03ce d3bc f9da 6e3d 5c00 a73c
00000080: f8a2 863c d0da 81bd 210b 803c a05b 2a3d
00000090: db46 a9bc 8610 b8bc d4a5 60bd 96f4 33bc
000000a0: e629 b1bc f898 11bd 1f1b 37bd 824d 1a3d
000000b0: bc01 18bd 231b b53c 87d2 6b3d a61e 04bc
000000c0: 83f5 aa3b bffe 83bd ab57 6e3c 64f5 403d
000000d0: 96cd 1b3d f304 2a3d 8782 5e3d 7408 af3b
000000e0: ce0b 603d 2a40 733d f58e c2bc 9eab 91bc
000000f0: cf46 67bd 1007 6d3d 27c4 51bd 9584 fe3c
00000100: 4c40 38bd a959 633d 0a27 d3bc 213f 4abd
00000110: a131 bf3c bc72 093d 2d2e 013d 6fe0 69bd
00000120: 2a8c 603d b29e fe3c 27aa c43c d49b 95bc
00000130: aca5 193d 77ee 0ebd 82e3 38bb 4b14 52bd
00000140: 5295 1d3d 3c26 23bd 88c3 3c3d f64f a73c
00000150: b221 a33c 2ebe 50bd da32 9a3d 59e2 b4bb
00000160: 8872 b83d e85e 233d d641 a8bc 1f4f a0bc
00000170: 75ca f83a 6f6b 373d 514e f53b 630d b8ba
00000180: 4e2f 86bd 22b2 3dbd cbec 47bd 6d03 de3c
00000190: 5712 2a3d c049 0cbc 55b4 613c f71e 473d
000001a0: ce01 ad3c 5ef6 88bd be81 d0bc 2a7c 173c
000001b0: d72f 1abd d195 4abc 0240 9abc d0ae e83c
000001c0: 67cc 9b3d ec33 983c 6954 193d fd99 b8bc
000001d0: 64de 7abd 4fa0 5ebd 8976 0f3c 2605 26bd
000001e0: fb1e d33c c692 c33c d187 59bd 88f9 06bd
000001f0: 7843 563d 7d7a 6b3c f6ec 1bbd f110 453d
00000200: 214d c03c a763 7bbd d6cc 2639 ba2f afbb
00000210: 0c59 d03c 16a9 e93c 1d1d d63c 5fff 343c
00000220: 9604 a3bc 0e75 7f3d def8 db3c 9877 eb3b
00000230: bb15 92bc c455 453c 19f7 92bd 6942 09bd
00000240: 2445 52bd d96c 4abd 3e01 7d3c 70fd ecbc
00000250: 65c7 f7bb 1acd b03a dfc8 963c c530 763d
00000260: aba9 57bc 4221 debc eccb c4bb e2bd 8ebc
00000270: efb9 cb3c d46c 9dbc b5d1 663d 3d83 323c
00000280: 4022 7d3d 0d8c 423d ac76 e93c 8753 61bd
00000290: b7f4 71bd 11aa bfbc 7188 9a3c c60d 93bc
000002a0: 23e6 823c f87d 173d 06ce 45bd 9d3d 80bd
000002b0: 756f c7bb 83cd 2e3d 5881 b13d ac5e 7abd
000002c0: 1097 3e3d e6a1 833d 7321 763d b20a 173d
000002d0: 5422 713d 6cf1 353c 2cb0 0f3d dec0 96bd
000002e0: 2596 20bc c5f0 77bd 06f9 a2bc 1205 69bd
000002f0: 1746 e63c 7684 803d e855 d93c 4424 42bd
00000300: e69c 07bd fb68 72bd b769 0b3d 3af8 9d3b
00000310: 15d6 233c 021c 903d 446d 6c3d 9cfe 623d
00000320: ca1b 96bc ac2f 1a3d 901f 8bbb a044 863b
00000330: 7963 533d cbab 2b3d 228e 30bb 8c7e 1c3c
00000340: a292 803d 7bc0 6ebd 9f6e 513d 14ea 023d
00000350: 2148 25bd 9df4 45bd 1edc 313d 9d43 64bd
00000360: ff24 37bd c41a 583d a0cf 0dbd 2bc8 b63c
00000370: 1253 37bc 69f8 8abd 7c55 a43c 157a 04bd
00000380: cac8 603d ae61 6bbd 50ac 2d3c f4fe 10bd
00000390: 25ff a63d d322 133d 4227 983c 5c99 39bb
000003a0: 64fe 1fbc eca7 2e3d 9128 48bd ab99 25bd
000003b0: c151 773d abcf c73c dc85 bb3c aff3 cdbc
000003c0: 132e 2b3d e690 2ebd e956 5a3d b7a3 923d
000003d0: 61fb 6e3d a717 383d e7a4 b5bc 5d24 b9bb
000003e0: fd77 433d a6b8 e93c 0e28 613d c68f 793d
000003f0: f98c 983c f1da 85bc 76e4 c43c 1a06 c03c

fc1.bias f4 [256]
0.071890235 0.033350695 0.047851384 -0.017868614 0.044762764 -0.056576286 -0.0005880006 0.047830373
-0.065941416 -0.018222053 0.059523977 -0.023018602 0.031360812 -0.012663441 0.013019054 0.040550996
0.069818616 -0.027354699 0.01859983 0.044559136 -0.02974774 -0.0359938 0.016978621 0.00028192997
-0.03179491 0.06485847 0.075421356 0.009855415 0.018272405 -0.032771718 0.057610404 0.019803414
-0.043157786 0.02493713 0.043682143 0.042817555 0.05830698 0.04447179 0.05845965 0.06275301
-0.03454453 0.081805326 0.04797589 -0.039676405 -0.046561755 -0.019108582 0.008718419 0.078015216
0.048486236 -0.052674066 -0.025515242 -0.044537578 -0.049025886 0.07866358 0.040466078 0.08509484
0.05711355 -0.019081239 -0.019597571 0.029378371 -0.027565561 0.09034672 -0.021071302 -0.048222847
0.018188734 -0.0290361 -0.038813803 -0.00017258673 -0.030044781 0.02519689 -0.0067938156 -0.041918315
-0.0011135908 -0.0573051 0.069213055 0.009036443 -0.031685717 0.0077050547 0.057807088 0.05908624
-0.053312637 0.0368252 0.04845255 0.033950713 0.029833056 -0.021502802 0.0867063 0.023297789
0.04927026 0.05341178 0.010711275 0.09044803 0.00010513541 -0.034338087 -0.02639696 -0.048326004
0.0019753904 -0.024838652 0.048597533 -0.01356294 -0.018602923 -0.03918204 0.017463528 0.09200569
0.025938371 -0.050818708 -0.007041173 -0.030366203 -0.06396627 -0.0399191 0.039457634 0.051911145
0.044964977 0.01099142 0.03525974 0.036519177 -0.02650704 -0.039934408 0.05445654 0.090012655
-0.017624244 0.093831815 0.032443613 -0.01919214 0.033799782 -0.0051946393 0.0148189 0.10198287
-0.057234995 -0.024515027 -0.041311592 -0.005446552 0.0924823 -0.027437279 -0.010051099 0.04730748
-0.030345982 0.035152484 -0.059836656 0.003222617 -0.056190945 -0.010762741 0.026920613 0.06749687
-0.017427204 -0.058882426 -0.0060916203 -0.029512094 0.017758537 0.06602692 0.06450625 0.026659613
0.022816172 0.031282913 0.07818984 0.05651503 0.022703411 0.084311485 0.084144525 0.0465877
0.030633425 0.033885136 -0.03236221 0.0674957 -0.033786945 0.050639197 -0.0026308754 0.075431585
0.033490375 -0.02855877 -0.020423282 -0.056706127 -0.062198993 -0.010661132 0.0017814494 0.035426315
0.03199527 0.014915719 0.030058065 0.02790444 -0.04127651 0.046280302 -0.019195454 0.05778183
0.0067425063 0.059429932 0.01851864 -0.027660625 0.049952604 -0.0036615173 0.008098455 -0.009088827
0.060132354 0.06581527 0.05698914 -0.0042423964 0.08142676 0.029961517 -0.046050966 0.11217115
0.016118646 0.085956044 0.08739612 0.015570832 0.013049776 -0.05938076 -0.012774851 0.078842156
-0.05297723 -0.022055073 -0.00507903 0.018214315 0.027083522 0.098397754 -0.016434524 -0.0391971
0.022742363 0.06272496 0.078965746 0.05479782 -0.05137596 0.087153465 -0.045555487 -0.025234232
-0.033619337 -0.0013988046 0.083367005 -0.010291781 0.002098087 0.02379552 0.05461598 -0.055707548
0.054121383 0.04056568 0.051424216 0.070331134 0.029796684 0.047611583 0.06894839 0.09866676
0.068348676 -0.04014895 0.06194653 -0.026175229 -0.036601204 0.074484535 0.029983196 0.07798495
0.017108522 0.033511106 0.076147586 -0.04912701 -0.002230591 -0.025290659 -0.02728984 0.07153918
00000000: 303b 933d bd9a 083d d0ff 433d 3361 92bc
00000010: 2959 373d 89bc 67bd 0d24 1aba c8e9 433d
00000020: 4b0c 87bd 6a46 95bc 6acf 733d 8291 bcbc
00000030: 3274 003d 527a 4fbc df4d 553c cd18 263d
00000040: 10fd 8e3d f616 e0bc ac5e 983c a483 363d
00000050: 88b1 f3bc 3c6e 13bd c016 8b3c 00d0 9339
00000060: 613b 02bd 84d4 843d 8376 9a3d 9b78 213c
00000070: 03b0 953c a33b 06bd e3f8 6b3d c53a a23c
00000080: 38c6 30bd f448 cc3c 0cec 323d 7661 2f3d
00000090: 4dd3 6e3d 0d28 363d 6373 6f3d a684 803d
000000a0: 917e 0dbd 8d89 a73d 5e82 443d ba83 22bd
000000b0: 8ab7 3ebd 9a89 9cbc b3d7 0e3c 71c6 9f3d
000000c0: 8199 463d c3c0 57bd 5705 d1bc 096d 36bd
000000d0: 5ecf 48bd 5f1a a13d c2bf 253d 3446 ae3d
000000e0: e6ef 693d 4250 9cbc 168b a0bc e9aa f03c
000000f0: 2cd1 e1bc b307 b93d b99d acbc 5285 45bd
00000100: 8a00 953c 1ddd edbc 39fb 1ebd 66f8 34b9
00000110: 7920 f6bc b569 ce3c a89e debb 8ab2 2bbd
00000120: e8f5 91ba c1b8 6abd 93bf 8d3d 970d 143c
00000130: e2c8 01bd af7a fc3b 20c7 6c3d 6a04 723d
00000140: 5a5e 5abd 05d6 163d 2e76 463d e70f 0b3d
00000150: 7464 f43c a526 b0bc 1393 b13d 01db be3c
00000160: 9dcf 493d 50c6 5a3d 587e 2f3c d13c b93d
00000170: 257c dc38 18a6 0cbd 703e d8bc 7df1 45bd
00000180: 8d75 013b 6e7a cbbc 350e 473d 1837 5ebc
00000190: 2865 98bc 597d 20bd ac0f 8f3c 7b6d bc3d
000001a0: b57c d43c 4727 50bd a4b9 e6bb 8bc2 f8bc
000001b0: bf00 83bd 3682 23bd 549e 213d c8a0 543d
000001c0: 322d 383d 5b15 343c 846c 103d 2295 153d
000001d0: 4b25 d9bc 4392 23bd d20d 5f3d 8e58 b83d
000001e0: b860 90bc e52a c03d 98e3 043d d638 9dbc
000001f0: a471 0a3d cb37 aabb f9ca 723c 65dc d03d
00000200: 3e6f 6abd bdd3 c8bc 5836 29bd fd78 b2bb
00000210: 5c67 bd3d 25c4 e0bc 5dad 24bc 7dc5 413d
00000220: 2398 f8bc 0dfc 0f3d 4817 75bd 8b32 533b
00000230: 7a28 66bd 3556 30bc 9e88 dc3c cd3b 8a3d
00000240: 7fc3 8ebc b32e 71bd 379c c7bb 59c3 f1bc
00000250: 5a7a 913c 1f39 873d da1b 843d 4365 da3c
00000260: fbe8 ba3c 8322 003d ff21 a03d 4e7c 673d
00000270: 81fc b93c 80ab ac3d f753 ac3d bed2 3e3d
00000280: f3f2 fa3c 24cb 0a3d 3d8e 04bd 303b 8a3d
00000290: 2e64 0abd 0c6b 4f3d c46a 2cbb e07b 9a3d
000002a0: 342d 093d 15f4 e9bc ba4e a7bc af44 68bd
000002b0: 5fc4 7ebd 07ac 2ebc 867f e93a 2f1b 113d
000002c0: 790d 033d 0f61 743c 553c f63c da97 e43c
000002d0: 8f11 29bd 6a90 3d3d c93f 9dbc a4ac 6c3d
000002e0: 3ef0 dc3b cd6c 733d 67b4 973c 8998 e2bc
000002f0: 1a9b 4c3d 11f6 6fbb 62af 043c 4ee9 14bc
00000300: 584d 763d 28ca 863d 726d 693d cd03 8bbb
00000310: 13c3 a63d db71 f53c f09f 3cbd fdb9 e53d
00000320: 400b 843c b909 b03d bdfc b23d ce1c 7f3c
00000330: bace 553c 3d39 73bd 9c4d 51bc ff77 a13d
00000340: a7fe 58bd d7ac b4bc fe6d a6bb 3036 953c
00000350: 43de dd3c c384 c93d b2a1 86bc 238d 20bd
00000360: 314e ba3c f275 803d cbb8 a13d ae73 603d
00000370: 996f 52bd 847d b23d 6498 3abd 05b8 cebc
00000380: 6eb4 09bd 1858 b7ba 52bc aa3d dc9e 28bc
00000390: 0f80 093b d3ee c23c 01b5 5f3d 992d 64bd
000003a0: 62ae 5d3d 3328 263d 33a2 523d c509 903d
000003b0: 2d18 f43c 5d04 433d d034 8d3d cc11 ca3d
000003c0: 64fa 8b3d 3a73 24bd a5bb 7d3d 6f6d d6bc
000003d0: 25eb 15bd 598b 983d 529f f53c 93b6 9f3d
000003e0: 2c27 8c3c f142 093d 44f3 9b3d 6739 49bd
000003f0: 1b2f 12bb 5b2e cfbc f18e dfbc 2283 923d

fc2.weight f4 [128, 256]
0.043217387 -0.006139895 0.028976101 -0.00639336 0.051564336 -0.0081634605 0.07417415 0.03342289
0.035697397 0.04043888 -0.013440234 -0.045233622 0.022282846 -0.065177664 -0.043405984 0.0007686096
-0.035865158 -0.022418253 0.043928366 -0.004336851 -0.022971656 0.044801086 -0.027958307 0.018045517
0.038013082 0.05050442 -0.021932203 -0.037894636 0.014049713 0.025664445 0.045525305 -0.036699392
-0.034124475 0.046830576 0.05722004 -0.007242958 0.052299272 -0.05511418 -0.032053053 -0.0030175874
-0.030900426 0.06361478 0.062028073 0.056230765 -0.04359881 0.043286443 -0.050146654 0.050125785
-0.007951056 0.044379216 0.02540625 0.00014515736 -0.018434081 0.0023783864 -0.0066418373 0.06641658
0.013183865 0.028390808 -0.02065896 -0.044544373 -0.038101047 0.0078660045 -0.014226251 0.049974747
0.0044785496 -0.005570643 0.018361725 -0.017221684 0.047292147 -0.056278784 0.026526427 -0.05398714
-0.05777702 -0.03596647 0.052672062 0.057984084 -0.009374811 -0.035993036 -0.009631865 0.0054539437
0.06975493 0.0352602 0.037053686 -0.0026439577 -0.0073266244 0.019269343 0.030020742 -0.02005218
-0.010924784 -0.057961993 0.06732113 0.04104089 0.013615145 -0.003064487 -0.05915972 0.0024926218
-0.056518145 -0.00058144913 -0.014634215 -0.015984721 -0.005024719 0.033188533 -0.032508977 0.018818604
0.014919554 -0.011735933 0.025138935 0.02285869 0.025077416 0.04627279 0.0119958585 0.010637324
-0.0051787356 -0.041947097 -0.012542691 -0.024586217 -0.01938159 0.006316219 0.053665258 0.014226907
0.0017774329 0.008705258 0.0068528512 0.03833727 -0.001959445 0.020268235 -0.03076447 0.039731063
0.023401367 0.048179243 0.030720733 0.016249739 0.02691409 -0.015195585 -0.03109962 0.018395001
0.06813021 0.011398816 -0.040223777 -0.016925635 -0.038045477 0.05003705 -0.0019811806 -0.0009451242
0.038237 0.014984193 -0.0028507325 -0.022394244 -0.03437695 -0.031720407 0.0033472711 -0.039144855
0.016430283 -0.053881403 -0.018595358 -0.021925593 -0.045859735 0.006105569 0.032932956 -0.049790885
0.016903022 0.019360494 0.024092663 -0.020730248 0.043511447 0.059495635 -0.036551263 -0.05148067
-0.01709932 0.033566713 0.010145156 0.011627146 -0.04148748 -0.01677524 -0.011894446 0.0486518
0.03332141 -0.058141693 -0.041478135 -0.044953536 -0.018114977 -0.005859091 0.062236335 -0.012237091
0.041179646 -0.022490662 -0.029774958 -0.06315505 0.03322059 0.060084093 0.026689665 -0.045352004
0.054587577 0.06440555 0.00037484447 0.026990483 0.034255706 0.0006260402 0.004314315 -0.00211
0.011298281 0.004018137 0.04959296 0.041009627 0.05663506 0.05204301 -0.03567534 0.025485814
-0.003890612 0.043838035 0.052220095 -0.012079489 0.034382228 -0.03484775 -0.021064479 0.033091545
0.0361975 0.010587085 0.018227398 0.06928647 0.028942885 -0.050240032 -0.06298979 0.04084368
-0.0077715395 -0.052279826 -0.05713938 -0.055967458 0.011224582 0.048426494 -0.010668819 -0.06527148
0.058909565 0.054703012 -0.006428299 -0.015977817 0.020622699 -0.042530015 -0.012416301 0.045979906
-0.0013142849 0.037703253 -0.021958174 0.055552565 -0.003884957 -0.028739404 -0.046473335 0.004567709
0.009589115 -0.005371361 0.028651092 0.0062763835 0.05144803 -0.046976957 0.04911578 0.030375585
00000000: b704 313d 2c31 c9bb 4a5f ed3c 647f d1bb
00000010: 2035 533d 09c0 05bc 9ee8 973d 71e6 083d
00000020: 6f37 123d 3da3 253d 6d34 5cbc e446 39bd
00000030: 848a b63c de7b 85bd 79ca 31bd 847c 493a
00000040: 58e7 12bd 7ca6 b7bc 3bee 333d 251c 8ebb
00000050: 0e2f bcbc 5881 373d d208 e5bc 31d4 933c
00000060: 9bb3 1b3d b9dd 4e3d 2aab b3bc 6837 1bbd
00000070: c430 663c 3e3e d23c be78 3a3d 1a52 16bd
00000080: 1bc6 0bbd 6bd1 3f3d 905f 6a3d 5656 edbb
00000090: c337 563d 68bf 61bd 104a 03bd b7c2 45bb
000000a0: e422 fdbc 7748 823d 2611 7e3d 3b52 663d
000000b0: aa94 32bd 204d 313d 9466 4dbd b250 4d3d
000000c0: 2545 02bc fbc6 353d c520 d03c 6235 1839
000000d0: 1203 97bc b4de 1b3b c5a3 d9bb 6a05 883d
000000e0: 2301 583c d793 e83c fb3c a9bc 2974 36bd
000000f0: d80f 1cbd 6ae0 003c 3915 69bc 52b2 4c3d
00000100: ccc0 923b f189 b6bb 546b 963c 7d14 8dbc
00000110: 69b5 413d 9584 66bd f34d d93c 9f21 5dbd
00000120: 99a7 6cbd 9451 13bd a9be 573d b880 6d3d
00000130: cf98 19bc 6f6d 13bd f8ce 1dbc ffb6 b23b
00000140: acdb 8e3d 006d 103d 9bc5 173d 4046 2dbb
00000150: 2e14 f0bb beda 9d3c 0fee f53c 7844 a4bc
00000160: ddfd 32bc 8e69 6dbd a9df 893d 7e1a 283d
00000170: 0f12 5f3c 8fd5 48bb 7651 72bd 415b 233b
00000180: 927f 67bd 646c 18ba 59c4 6fbc 64f2 82bc
00000190: 66a6 a4bb b3f0 073d 2228 05bd 7929 9a3c
000001a0: 2571 743c 1248 40bc 2bf0 cd3c 2642 bb3c
000001b0: 276f cd3c 8988 3d3d 478a 443c 2c48 2e3c
000001c0: 62b2 a9bb b8d0 2bbd dc7f 4dbc 0969 c9bc
000001d0: 24c6 9ebc 49f8 ce3b 1ad0 5b3d f917 693c
000001e0: c0f8 e83a 80a0 0e3c e28d e03b 8b07 1d3d
000001f0: 086a 00bb 9209 a63c c505 fcbc 0abd 223d
00000200: 39b4 bf3c 9957 453d 0caa fb3c 2c1e 853c
00000210: f07a dc3c e7f6 78bc a1c4 febc 1db1 963c
00000220: da87 8b3d 19c2 3a3c b0c1 24bd a1a7 8abc
00000230: 93d5 1bbd a6f3 4c3d b2d6 01bb 36c2 77ba
00000240: 679e 1c3d 4380 753c 5bd3 3abb 2274 b7bc
00000250: d8ce 0cbd 42ed 01bd e45d 5b3b 5b56 20bd
00000260: cd98 863c bfb2 5cbd 4b55 98bc 4d9d b3bc
00000270: 6bd7 3bbd 3a11 c83b b5e4 063d 87f1 4bbd
00000280: 3578 8a3c e699 9e3c fa5d c53c 7bd2 a9bc
00000290: 0f39 323d b2b1 733d c7b6 15bd 65dd 52bd
000002a0: e013 8cbc 407d 093d de37 263c c97f 3e3c
000002b0: c7ee 29bd 3a6c 89bc ece0 42bc 1c47 473d
000002c0: 087c 083d fc25 6ebd fae4 29bd 3321 38bd
000002d0: dc65 94bc 9efd bfbb 87eb 7e3d 147e 48bc
000002e0: fdab 283d 563e b8bc 9dea f3bc 6f57 81bd
000002f0: 5012 083d bd1a 763d 49a4 da3c 06c3 39bd
00000300: 3997 5f3d 0fe7 833d c686 c439 251b dd3c
00000310: b64f 0c3d d91c 243a 195f 8d3b ed47 0abb
00000320: 6d1c 393c 94aa 833b fd21 4b3d b6f9 273d
00000330: 2afa 673d 0d2b 553d 4e20 12bd a0c7 d03c
00000340: a3f9 7ebb 838f 333d bde4 553d 0de9 45bc
00000350: 61d4 0c3d 84bc 0ebd 6a8f acbc 008b 073d
00000360: d443 143d 7475 2d3c a051 953c 11e6 8d3d
00000370: a119 ed3c 7ec8 4dbd cb00 81bd b44b 273d
00000380: 66a8 febb 5f23 56bd fc0a 6abd 223e 65bd
00000390: 4fe7 373c dc5a 463d 45cc 2ebc 0ead 85bd
000003a0: 284b 713d 4410 603d 7ba4 d2bb e9e3 82bc
000003b0: eff0 a83c f433 2ebd be6d 4bbc 6d55 3c3d
000003c0: 1544 acba ba6e 1a3d a1e1 b3bc 168b 633d
000003d0: c39a 7ebb e66e ebbc d35a 3ebd b8ac 953b
000003e0: aa1b 1d3c 3e02 b0bb b2b5 ea3c 1faa cd3b
000003f0: 2bbb 523d e96a 40bd a12d 493d 38d6 f83c

fc2.bias f4 [128]
0.035524275 0.018810468 -0.027174741 -0.026213944 -0.049704794 0.013590158 0.0060291192 0.029993573
-0.053290315 0.05732796 0.04848147 0.078436695 -0.052261755 -0.031882863 0.07659815 0.08274404
0.048230406 -0.007476906 -0.025184887 0.05589007 0.03076997 -0.01508596 0.010656719 -0.026941989
0.032573104 -0.009131236 0.011287218 0.047573734 0.06205848 -0.020658195 -0.019541757 0.031770553
0.028550392 0.027562425 0.005530666 0.047158696 -0.030002221 0.018153504 0.08162764 -0.023971707
0.06206851 -0.059026483 -0.025776131 -0.020982128 0.041541815 -0.029234767 0.057597257 0.028154898
-0.02372142 0.0465769 0.039247308 0.027765997 0.022947427 0.06367674 -0.033990063 -0.012441604
-0.05803957 0.073203444 0.030248791 -0.036680695 0.03137116 0.038798522 0.0020983494 -0.002546602
-0.054345123 0.059930786 0.027336583 -0.0004040671 -0.012017391 -0.019870492 -0.056263506 -0.051602993
-0.014360388 0.081235684 0.059674855 0.044259265 -0.017162276 0.08159908 -0.041022576 -0.0054275366
0.021945994 0.060608517 -0.015614806 -0.059772808 -0.018861745 -0.012588566 0.040757883 0.08258949
0.06631669 0.043164838 -0.023369715 -0.002810592 0.07177641 0.011739057 0.05175163 -0.02269546
-0.040038135 0.006518364 -0.019702984 -0.004242866 -0.038117297 0.0210575 -0.014658683 -0.029902501
0.07448203 0.0641173 -0.0235289 0.03603068 -0.03791426 -0.03907158 -0.039326146 -0.012938343
0.034949012 0.027104812 0.022836206 -0.050206646 -0.052958034 -0.052553162 -0.018907476 0.031579223
0.015235681 0.04563625 0.040394645 0.01166069 0.036929086 0.06331018 -0.020103285 -0.01719354
00000000: e781 113d 6918 9a3c 909d debc a0be d6bc
00000010: 4197 4bbd 41a9 5e3c eb8f c53b 15b5 f53c
00000020: f246 5abd b9d0 6a3d 8294 463d 6ba3 a03d
00000030: 6c10 56bd 9b97 02bd 7edf 9c3d b575 a93d
00000040: 3f8d 453d d500 f5bb 8950 cebc fcec 643d
00000050: 4e11 fc3c 1a2b 77bc 8599 2e3c 72b5 dcbc
00000060: 606b 053d 2e9b 15bc 06ee 383c addc 423d
00000070: 0831 7e3d 603b a9bc 0916 a0bc d721 023d
00000080: 83e2 e93c 98ca e13c 973a b53b 7a29 413d
00000090: 38c7 f5bc a8b6 943c 642c a73d 5060 c4bc
000000a0: 8d3b 7e3d c1c5 71bd 7728 d3bc b6e2 abbc
000000b0: c027 2a3d c07d efbc 1aeb 6b3d 1aa5 e63c
000000c0: 6c53 c2bc 6bc7 3e3d c9c1 203d 8475 e33c
000000d0: 3efc bb3c f368 823d 2a39 0bbd dfd7 4bbc
000000e0: e6ba 6dbd b0eb 953d 50cc f73c 7f3e 16bd
000000f0: 0c7f 003d 33eb 1e3d 7684 093b e4e4 26bb
00000100: fe98 5ebd fc79 753d f8f0 df3c f8d8 d3b9
00000110: 97e4 44bc 71c7 a2bc 9074 66bd a95d 53bd
00000120: d547 6bbc e55e a63d 9f6d 743d 3449 353d
00000130: e797 8cbc 6b1d a73d 4a07 28bd 7ad9 b1bb
00000140: 16c8 b33c a340 783d 3ed5 7fbc 55d4 74bd
00000150: f283 9abc 4640 4ebc bdf1 263d ae24 a93d
00000160: 0bd1 873d 9dcd 303d d871 bfbc e931 38bb
00000170: 83ff 923d 2c55 403c 84f9 533d d4eb b9bc
00000180: 07ff 23bd 0098 d53b 2768 a1bc bd07 8bbb
00000190: e220 1cbd c780 ac3c f92a 70bc 17f6 f4bc
000001a0: 098a 983d ee4f 833d aebf c0bc e894 133d
000001b0: fc4b 1bbd 8509 20bd 7414 21bd 58fb 53bc
000001c0: b226 0f3d e90a de3c ff12 bb3c 7ca5 4dbd
000001d0: 86ea 58bd fc41 57bd dae3 9abc 3759 013d
000001e0: 149f 793c 14ed 3a3d db74 253d 7b0c 3f3c
000001f0: f442 173d c5a8 813d a5af a4bc 78d9 8cbc

fc3.weight f4 [64, 128]
0.06608299 -0.05250858 0.08684875 -0.042599924 -0.054316904 0.07643275 -0.04239935 0.053529456
0.006867526 0.0849388 -0.009590906 0.106826544 0.052224793 0.101490065 0.100440554 -0.05134032
0.00010883902 0.054581296 0.06423815 -0.0011935434 -0.05851934 -0.0039951704 0.07161807 0.03022492
0.06826935 0.09725531 -0.010639464 0.07585201 -0.040162355 0.016615208 0.049607757 0.09372708
-0.048627343 0.04607805 0.09624434 0.060855683 -0.0060246913 0.04369323 -0.05213172 -0.0014267148
0.02411839 0.07262084 0.050312493 0.0187545 -0.07705134 -0.0016856106 -0.053408016 -0.032223552
0.0553392 0.0631731 -0.029573148 0.08390262 0.020286776 0.10131866 0.10802127 0.027087219
-0.025578404 -0.00750821 0.024955435 -0.043053456 -0.048379805 -0.031837557 0.008868852 0.003948306
0.09454028 0.045374926 0.0063196295 0.002589955 0.010741657 -0.065378085 -0.046621192 0.022049896
0.03583214 0.06591026 0.091345094 0.016978264 0.040535916 -0.010111971 0.002357556 -0.035470847
0.03913127 0.10428179 0.06379001 0.07822773 0.05560534 0.0384573 -0.03414525 -0.04200597
0.0256867 -0.04704747 0.062055722 0.00834969 -0.049721587 0.08333314 0.10186236 0.11248318
0.030659763 0.0630667 0.085908934 -0.039699573 0.055355195 0.054337673 0.0074771773 -0.015859045
0.056192935 0.027667461 -0.025963726 0.11122575 0.017753588 0.008785111 0.082046725 -0.044500075
0.047446817 -0.026066128 -0.027973734 -0.042210862 0.03851726 0.032738987 0.04376934 -0.0005019426
-0.045360688 0.08549768 0.04879967 -0.06259687 0.005685891 0.10858453 -0.057186138 -0.027090915
0.02015703 -0.025868308 -0.006150424 -0.00693407 -2.4152188e-05 -0.015859747 -0.04161038 0.014536757
0.024521664 -0.02513644 -0.029794011 0.07548181 0.0011661486 0.017685814 -0.057653163 -0.0006479079
-0.03835479 0.042676374 -0.031414185 0.046612933 0.05452075 -0.02585035 -0.06361859 -0.019761452
0.06198727 -0.014890584 -0.05373484 0.068568565 0.0025249973 -0.0019182974 -0.04078477 -0.02353012
-0.020305064 -0.0009053865 -0.037324917 -0.0090709105 0.006297587 -0.009249361 -0.026769336 0.0351535
0.024869133 -0.016652167 -0.009502849 0.014574534 0.03560396 0.015470796 0.026988102 -0.03494
0.012578033 -0.030283013 0.05704739 0.032372545 -0.011594534 -0.04149859 -0.039410233 -0.011288261
0.017952302 -0.00976086 0.058957517 -0.012839959 0.0032053767 0.03320771 -0.0072828745 -0.025210598
0.00053016277 -0.01361515 -0.043376934 -9.666353e-06 -0.05284653 -0.016414162 0.044320427 -0.029845787
0.037455887 -0.035975896 -0.042591784 0.0012837603 -0.041842446 0.010501301 -0.018608635 -0.0038631673
-0.019212034 -0.033473052 -0.022169635 0.047889896 -0.0005087046 0.011029492 -0.03379022 -0.07179629
0.034170713 -0.0310226 0.045374878 0.049825665 0.054272845 0.03507784 0.0052504037 0.024609273
0.0680153 0.03142145 -0.0038420332 -0.0384738 -0.013256443 0.014650139 0.017322987 0.003193438
-0.038141076 0.017021155 -0.021273373 0.015846899 -0.016047992 0.009688619 0.0009700181 -0.0025765414
0.06315763 -0.023755709 -2.1558328e-05 5.186254e-05 0.05655008 0.03915671 0.0021817295 0.04997394
0.00094028347 0.028561385 -0.04713687 0.0074968073 -0.02070955 -0.060518246 -0.009575789 -0.0075020436
00000000: 8556 873d 3d13 57bd c2dd b13d 427d 2ebd
00000010: 677b 5ebd c688 9c3d f1aa 2dbd b441 5b3d
00000020: fc08 e13b 65f4 ad3d 2d23 1dbc e0c7 da3d
00000030: aae9 553d 06da cf3d c7b3 cd3d 3a4a 52bd
00000040: 8140 e438 a390 5f3d 4b8f 833d ac70 9cba
00000050: fab1 6fbd ebe9 82bb 7fac 923d 409a f73c
00000060: cdd0 8b3d cb2d c73d 2551 2ebc 4c58 9b3d
00000070: 4881 24bd 9e1c 883c 8131 4b3d fcf3 bf3d
00000080: 772d 47bd 56bc 3c3d c11b c53d cf43 793d
00000090: c66a c5bb acf7 323d 1288 55bd 9b00 bbba
000000a0: ee93 c53c 3cba 943d 7914 4e3d 0aa3 993c
000000b0: 18cd 9dbd b5ef dcba 5dc2 5abd d8fc 03bd
000000c0: 5bab 623d e660 813d 6343 f2bc 23d5 ab3d
000000d0: 7430 a63c 2880 cf3d 413a dd3d 04e6 dd3c
000000e0: cd89 d1bc 6e07 f6bb 576f cc3c d258 30bd
000000f0: e729 46bd 1968 02bd a94e 113c cb60 813b
00000100: 569e c13d 0fdb 393d e514 cf3b 3cbc 293b
00000110: c6fd 2f3c f2e4 85bd ddf5 3ebd fca1 b43c
00000120: b9c4 123d f5fb 863d 2313 bb3d 0016 8b3c
00000130: fd08 263d aeac 25bc 3a81 1a3b e149 11bd
00000140: 1c48 203d b191 d53d 56a4 823d dc35 a03d
00000150: 6dc2 633d 6785 1d3d e4db 0bbd 740e 2cbd
00000160: ea6c d23c d9b4 40bd 242e 7e3d 23cd 083c
00000170: dda8 4bbd 91aa aa3d 379d d03d 955d e63d
00000180: 2f2a fb3c 1d29 813d 06f1 af3d 059c 22bd
00000190: 21bc 623d 2e91 5e3d 1c03 f53b d4ea 81bc
000001a0: 902a 663d dfa6 e23c e1b1 d4bc 53ca e33d
000001b0: f96f 913c 6def 0f3c 1d08 a83d b645 36bd
000001c0: 9857 423d a288 d5bc 2c29 e5bc 4ce5 2cbd
000001d0: 46c4 1d3d 5119 063d 7b47 333d cc94 03ba
000001e0: 21cc 39bd 6819 af3d 2ae2 473d ca32 80bd
000001f0: b650 ba3b 9161 de3d 033c 6abd c4ed ddbc
00000200: 5b20 a53c c6e9 d3bc 7f89 c9bb 3237 e3bb
00000210: 6e9a cab7 4dec 81bc a56f 2abd 942b 6e3c
00000220: a8e1 c83c efea cdbc 9212 f4bc 3596 9a3d
00000230: 74d9 983a d7e1 903c b925 6cbd 5dd8 29ba
00000240: ea19 1dbd 6ccd 2e3d 29ac 00bd 34ed 3e3d
00000250: 2651 5f3d 1dc4 d3bc 774a 82bd c5e2 a1bc
00000260: 5de6 7d3d a3f7 73bc 1019 5cbd ad6d 8c3d
00000270: 6d7a 253b 616f fbba ee0d 27bd 3dc2 c0bc
00000280: ce56 a6bc 7657 6dba 03e2 18bd 289e 14bc
00000290: fd5b ce3b a28a 17bc 5e4b dbbc 1efd 0f3d
000002a0: 5aba cb3c 206a 88bc d6b1 1bbc 07ca 6e3c
000002b0: 75d5 113d 3979 7d3c 2716 dd3c 3f1d 0fbd
000002c0: 1814 4e3c 1514 f8bc 86aa 693d 1399 043d
000002d0: 00f7 3dbc 6dfa 29bd a06c 21bd 66f2 38bc
000002e0: b510 933c 04ec 1fbc 707d 713d b15e 52bc
000002f0: 4c11 523b cf04 083d 2ea5 eebb 7586 cebc
00000300: 9ffa 0a3a 1412 5fbc 03ac 31bd ac2c 22b7
00000310: 9a75 58bd fe76 86bc 5689 353d 277f f4bc
00000320: 586b 193d 765b 13bd b974 2ebd d943 a83a
00000330: fc62 2bbd a60d 2c3c 2371 98bc 312d 7dbb
00000340: 8e62 9dbc 0a1b 09bd 189d b5bc 3228 443d
00000350: 965a 05ba 0bb5 343c 9d67 0abd ef09 93bd
00000360: 97f6 0b3d 1c23 febc 02db 393d ff15 4c3d
00000370: 344d 5e3d c8ad 0f3d 940b ac3b 6399 c93c
00000380: 9b4b 8b3d c7b3 003d 9fca 7bbb b496 1dbd
00000390: 8d31 59bc 2307 703c f0e8 8d3c 0049 513b
000003a0: d139 1cbd f36f 8b3c 7f45 aebc 5bd1 813c
000003b0: 1477 83bc 03bd 1e3c d048 7e3a 31db 28bb
000003c0: ca58 813d 559b c2bc 28d8 b4b7 fa86 5938
000003d0: 0fa1 673d c962 203d 59fb 0e3b 79b1 4c3d
000003e0: 5b7d 763a 91f9 e93c 9712 41bd c7a7 f53b
000003f0: 13a7 a9bc fbe1 77bd c5e3 1cbc b4d3 f5bb

fc3.bias f4 [64]
-0.050485995 0.02863443 0.048376597 -0.006966752 0.06269685 0.058521017 -0.0374138 0.08936978
-0.012501663 -0.044335905 0.103343 0.039928824 -0.010361805 -0.04119028 -0.029838812 0.021491285
0.008547537 0.048767343 0.08654019 -0.06570246 0.014633832 0.02423365 -0.008832252 0.016831689
-0.017481038 0.03004034 0.069055185 0.006361359 0.010025424 0.09722075 0.11344179 0.06768208
0.091694176 0.07691329 0.06667047 -0.05754629 -0.049678273 -0.013162305 -0.011176942 -0.07801006
-0.023617357 0.0814079 -0.06788181 0.049850337 0.099013545 0.031682257 0.09053869 -0.029495195
-0.003621017 0.02445271 -0.021066789 0.09641587 0.055004768 -0.08077411 0.054979213 -0.060238026
0.050721806 0.029962799 0.010798097 -0.05563219 -0.039999112 0.057527073 0.10366107 0.0024011491
00000000: 67ca 4ebd c192 ea3c 8a26 463d 5a49 e4bb
00000010: 3567 803d bcb3 6f3d 363f 19bd 8107 b73d
00000020: c6d3 4cbc 9199 35bd 7fa5 d33d 688c 233d
00000030: 8fc4 29bc 24b7 28bd 8670 f4bc 7e0e b03c
00000040: f80a 0c3c 44c0 473d fc3b b13d 038f 86bd
00000050: bdc2 6f3c a685 c63c 26b5 10bc 9ce2 893c
00000060: 6534 8fbc 2917 f63c ce6c 8d3d f272 d03b
00000070: ad41 243c ac1b c73d 2b54 e83d e79c 8a3d
00000080: 28ca bb3d b784 9d3d 878a 883d a9b5 6bbd
00000090: 727b 4bbd b5a6 57bc 7e1f 37bc bdc3 9fbd
000000a0: 3079 c1bc 2fb9 a63d 9e05 8bbd de2f 4c3d
000000b0: 9dc7 ca3d 41c5 013d 596c b93d e89f f1bc
000000c0: 964e 6dbb 0d51 c83c 4294 acbc af75 c53d
000000d0: ae4c 613d e66c a5bd e231 613d 26bc 76bd
000000e0: abc1 4f3d 8b74 f53c 80ea 303c 94de 63bd
000000f0: 1cd6 23bd 82a1 6b3d 414c d43d 995c 1d3b

out.weight f4 [1000, 64]
0.0836238 -0.026393896 -0.054699056 0.06348095 -0.062553644 0.008292977 -0.030714817 -0.09143587
0.02734807 -0.04851148 0.13054904 -0.088474534 -0.0070581026 0.021005476 -0.040583145 -0.08518838
0.0048390045 0.026683373 -0.088315725 -0.026117548 -0.056373168 -0.06937526 0.029260058 -0.07761021
0.074923575 0.039155036 0.12787394 -0.031718954 -0.028389076 -0.059737835 -0.057464514 0.006380589
-0.053468633 -0.07706024 -0.03450934 0.1317852 0.10033328 0.05608052 0.06506395 0.006331449
-0.0030148656 -0.023386745 2.0922869e-14 0.14582933 -0.052414943 -0.06341551 0.11730653 0.015867116
-0.0069193705 0.1270103 -0.05932136 0.055520695 0.095494114 -0.001020775 0.118619606 0.015113084
0.06435998 0.0050872075 0.06754178 0.06987351 0.11873127 -0.07025675 0.06460578 -0.029029904
0.009045964 0.0021645091 0.07155075 -0.029316256 0.12409884 0.0850323 0.0145203285 0.12817796
0.08486571 0.00081906904 -0.08257684 0.08428142 0.011307835 -0.030574426 -0.093063176 0.039357208
-0.07650908 0.059755653 -0.09519378 -0.004413593 -0.09145003 0.06541667 0.12504147 0.08154948
-0.032286745 0.017990902 0.12240591 0.031148318 -0.051902812 0.10140213 -0.0587212 0.0110478625
0.001521955 -0.07347377 -0.053287026 -0.01850791 0.068565756 -0.07951286 0.097343534 0.0036333038
-0.0017978359 -0.026107002 4.93549e-40 -0.002259851 0.01956744 0.044771366 -0.09642884 -0.025989575
-0.023628743 0.09338137 -0.03051087 0.1323515 -0.0675938 0.0014160348 0.05431397 -0.07307749
0.01761807 0.014644138 0.075443536 0.07075129 -0.06973228 -0.051320393 0.14063405 -0.073535316
0.04868113 0.000890533 0.05277793 0.04073232 -0.009147061 -0.033846475 -0.016954593 -0.07626615
-0.10157006 -0.05998765 -0.009421658 0.11000474 -0.043150313 -0.006155678 0.058298755 0.024952237
0.0019994495 -0.111398734 0.017253479 0.042030863 0.06582813 -0.07544369 -0.10983696 0.09988032
0.010239752 -0.07713477 -0.014097058 0.12072517 0.017046126 0.059151504 0.10066886 0.09638942
-0.10869062 0.10717194 -0.11026434 0.0269219 0.08605357 -0.10710228 -0.009234607 -0.0022238449
0.0017273386 0.1169909 3.709987e-15 -0.077338934 -0.052924022 -0.016775755 -0.03495181 0.044878397
-0.004793067 0.0072443904 -0.059268054 0.009697316 0.047557782 -0.021280205 0.043259308 0.005120767
0.0631019 0.06374874 0.005855906 0.06282742 0.042709 0.0400361 -0.012030296 0.04505573
-0.0063788164 -0.0019307368 -0.045545798 -0.055727273 -0.087129936 -0.005369146 -0.040517803 0.050642405
0.05094969 0.056939922 0.09693905 0.075867906 -0.006582566 0.004347015 0.08788434 0.056503296
-0.043516226 -0.12109968 -0.060892183 0.043950506 0.100337155 0.013132348 -0.05942542 0.005533953
0.032189965 -0.05539617 -0.10442969 -0.01880185 0.10417881 -0.009613858 0.09604126 0.0206322
-0.12728527 -0.0020624434 0.09008083 -0.0025535922 -0.0833911 0.01400219 0.0524214 -2.9822754e-06
0.0053340327 0.10648253 1.3975747e-07 -0.05963721 0.07816028 -0.06582479 0.074258804 0.026986657
0.027988374 0.041309264 0.07367402 -0.045149308 0.004794639 -1.329354e-06 0.05818934 0.0054408326
-0.03296741 -0.100476615 -0.043732837 0.014286481 0.09070694 -0.08540373 0.10219382 -0.088007055
00000000: f442 ab3d 0338 d8bc 1e0c 60bd 4d02 823d
00000010: 201c 80bd 44df 073c a49d fbbc bb42 bbbd
00000020: 0f09 e03c f9b3 46bd a6ae 053e 2332 b5bd
00000030: a847 e7bb ad13 ac3c 833a 26bd 3f77 aebd
00000040: 8390 9e3b 1797 da3c e0de b4bd 78f4 d5bc
00000050: 8de7 66bd 9e14 8ebd cab2 ef3c 1af2 9ebd
00000060: 8871 993d 0861 203d 63f1 023e bceb 01bd
00000070: 3590 e8bc a9af 74bd e95f 6bbd 4314 d13b
00000080: ed01 5bbd c2d1 9dbd aa59 0dbd b3f2 063e
00000090: 897b cd3d b0b4 653d 4040 853d 0b78 cf3b
000000a0: 0d95 45bb 8f95 bfbc da74 bc28 4954 153e
000000b0: 0db1 56bd fedf 81bd 683e f03d c1fb 813c
000000c0: e3bb e2bb fd0e 023e f4fa 72bd ab69 633d
000000d0: 6b92 c33d 86cb 85ba d6ee f23d de9c 773c
000000e0: 2acf 833d 97b2 a63b 5853 8a3d d819 8f3d
000000f0: 6129 f33d c5e2 8fbd 0950 843d 1fd0 edbc
00000100: 8635 143c 70da 0d3b 3389 923d a528 f0bc
00000110: 8827 fe3d 6a25 ae3d ace6 6d3c 1541 033e
00000120: 13ce ad3d cbb6 563a 0c1e a9bd bd9b ac3d
00000130: 7f44 393c 3877 fabc e897 bebd 0635 213d
00000140: cbb0 9cbd 58c2 743d f5f4 c2bd e79f 90bb
00000150: 274a bbbd 2df9 853d df0a 003e 6a03 a73d
00000160: 1b3f 04bd a861 933c f3af fa3d c22a ff3c
00000170: 0b98 54bd ecab cf3d a485 70bd 1802 353c
00000180: 567c c73a 6a79 96bd 7f43 5abd e79d 97bc
00000190: 346c 8c3d a3d7 a2bd 0c5c c73d b91c 6e3b
000001a0: 5da5 ebba 5ade d5bc d05f 0500 021a 14bb
000001b0: e54b a03c 2e62 373d 7c7c c5bd 17e8 d4bc
000001c0: 1191 c1bc bb3e bf3d eff1 f9bc 2787 073e
000001d0: 9e6e 8abd 3e9a b93a 5378 5e3d a7a9 95bd
000001e0: c553 903c f7ed 6f3c 2482 9a3d 0de6 903d
000001f0: cccf 8ebd 5535 52bd 5f02 103e af99 96bd
00000200: dd65 473d a872 693a ac2d 583d efd6 263d
00000210: 8edd 15bc 9aa2 0abd 5ce4 8abc 6d31 9cbd
00000220: f703 d0bd 9cb5 75bd 4c5d 1abc 2a4a e13d
00000230: 62be 30bd 92b5 c9bb adca 6e3d a268 cc3c
00000240: 3209 033b 0525 e4bd 2b57 8d3c 8e28 2c3d
00000250: e6d0 863d 3982 9abd 33f2 e0bd 0e8e cc3d
00000260: a2c4 273c d6f8 9dbd 59f7 66bc c23e f73d
00000270: 51a4 8b3c d948 723d 7a2b ce3d d167 c53d
00000280: 3099 debd f67c db3d 45d2 e1bd 518b dc3c
00000290: db3c b03d 7158 dbbd c04c 17bc edbd 11bb
000002a0: de67 e23a ed98 ef3d 97aa 8527 e063 9ebd
000002b0: dcc6 58bd 4f6d 89bc a129 0fbd 69d2 373d
000002c0: 290f 9dbb 5a62 ed3b 0fc3 72bd 7ee1 1e3c
000002d0: f3cb 423d d353 aebc ac30 313d 1bcc a73b
000002e0: 923b 813d b38e 823d e6e2 bf3b aaab 803d
000002f0: a2ef 2e3d e5fc 233d b81a 45bc 5b8c 383d
00000300: 6405 d1bb c710 fdba 3b8e 3abd 4842 64bd
00000310: 2e71 b2bd a9ef afbb fff5 25bd 696e 4f3d
00000320: 9fb0 503d d639 693d fb87 c63d a260 9b3d
00000330: 91b2 d7bb 6871 8e3b b4fc b33d 0070 673d
00000340: 123e 32bd 1c03 f8bd 156a 79bd 7205 343d
00000350: 917d cd3d 0f29 573c 1268 73bd 2a56 b53b
00000360: a0d9 033d 18e7 62bd 3cdf d5bd 5606 9abc
00000370: b35b d53d 7183 1dbc 48b1 c43d dc04 a93c
00000380: 1257 02be 0f2a 07bb 4c7c b83d 2b5a 27bb
00000390: f4c8 aabd 7169 653c d2b7 563d 1a23 48b6
000003a0: 1cc9 ae3b 8313 da3d 3e10 1634 2646 74bd
000003b0: 7f12 a03d 26cf 86bd 0015 983d 1f13 dd3c
000003c0: e047 e53c e733 293d 68e2 963d 7bee 38bd
000003d0: 591c 9d3b 416c b2b5 f257 6e3d 0349 b23b
000003e0: d608 07bd afc6 cdbd 3421 33bd d811 6a3c
000003f0: 8fc4 b93d 27e8 aebd fe4a d13d 0b3d b4bd

out.bias f4 [1000]
0.101721056 0.023005603 -0.06862669 0.0024828606 0.045654505 0.07739945 -0.018936455 0.046858102
-0.0864102 -0.024192123 -0.09878945 0.12513043 0.12756233 0.032718997 -0.03348307 0.08570426
-0.10806573 0.118515655 0.102941714 -0.00051293575 0.1322981 -0.0586232 0.0983139 0.01471696
-0.1071372 0.08958496 -0.0755046 -0.090050414 0.065812744 -0.002639952 0.03516111 0.09701303
-0.03502436 -0.050710257 -0.117645495 -0.051972248 0.09823002 0.039680533 -0.11084496 -0.024036424
-0.049422532 0.10634315 -0.09103887 0.0893732 -0.030334944 0.030941471 0.063378096 -0.06104589
0.037551943 0.07397163 -0.07229965 -0.05689085 0.06642508 0.05098405 0.011325028 -0.113942795
0.08929431 0.086693764 0.013185096 -0.015516222 -0.0046959533 -6.4774686e-05 -0.06321301 0.06431634
-0.06500722 0.091476336 0.018396094 0.035568528 0.10665982 0.11481584 0.08519916 0.016133677
0.057886418 0.099278644 -0.026152989 0.11123173 -0.06195577 0.06079665 0.10125966 -0.04813847
-0.031041088 -0.09551543 -0.029960332 -0.0873377 -0.076732226 -0.0055042533 -0.03838443 0.074328534
-0.07848352 0.15512827 0.020542806 -0.015455896 -0.083763435 0.09046802 0.084276706 0.12431844
-0.03560202 -0.057350997 0.066000946 -0.10237329 0.04308287 0.07069772 -0.10527852 -0.014575803
-0.036157515 -0.07237977 0.122269504 0.008113364 -0.104161985 0.015469431 0.0108647365 0.08893755
0.109255426 -0.01873956 -0.0649395 -0.062432896 -0.0625348 -0.0061269617 0.11729195 0.11680104
0.08014784 -0.059572134 0.0042647375 0.10000529 -0.017546428 -0.046810064 0.005225059 0.121076874
0.11651458 0.036619052 0.13254303 -0.056216493 -0.024179248 -0.031979743 0.0203839 0.043585096
0.041172754 -0.091515236 0.08408876 -0.058543857 0.031714085 0.021410195 -0.06479249 -0.009223873
-0.003676073 -0.106499255 -0.025087107 0.08183613 -0.0981115 -0.086818196 -0.042592645 -0.019772608
-0.0035033578 -0.0371296 0.011224746 0.0148941055 0.0580922 -0.07615032 0.015490408 -0.02164324
-0.006156935 -0.09241539 0.07209264 0.014191853 0.06395932 0.0775034 0.12970904 0.09614613
-0.0739084 0.074972026 0.06582925 0.054079313 0.108150855 0.12556785 -0.027721144 0.00600106
0.034131736 -0.019987453 0.116846524 -0.106982574 -0.10757938 0.13040242 0.10338357 -0.1089757
0.096093126 -0.07274013 -0.078365415 0.04517655 -0.06924709 -0.016057892 0.064563245 0.027517702
0.0814222 0.060894247 0.039582264 0.029587766 0.07278927 0.100955054 0.054454684 -0.004717694
-0.009771917 -0.10615286 -0.05162209 -0.059593726 0.12784271 -0.106372155 -0.006451984 -0.0736258
0.029746419 0.028015524 -0.060320765 0.110067986 0.026104359 -0.026192276 0.09050521 0.083347835
0.04953186 0.01777889 -0.06127525 -0.06308143 0.09117469 -0.08186703 -0.08662695 0.094558075
0.039707858 -0.053475518 0.103813544 -0.09943373 0.01739694 -0.04260575 -0.099741526 -0.036505178
0.0856709 -0.038850877 0.017632222 0.112061396 0.112798735 -0.042937286 -0.036177684 0.04951089
-0.101696044 0.018080704 0.099431 -0.020118328 0.07731813 0.036459953 0.06979202 -0.048301578
0.02698036 0.049444906 -0.07153869 -0.069613636 0.10162084 0.0066564474 0.08917563 0.11279808
00000000: 2153 d03d 3f76 bc3c 268c 8cbd 7db7 223b
00000010: 3800 3b3d 9a83 9e3d a020 9bbc 48ee 3f3d
00000020: d5f7 b0bd 8f2e c6bc 2052 cabd 3122 003e
00000030: b39f 023e 5b04 063d 8b25 09bd b785 af3d
00000040: 9151 ddbd 56b8 f23d 1bd3 d23d 8976 06ba
00000050: 2779 073e e11e 70bd cc58 c93d 671f 713c
00000060: c06a dbbd 5278 b73d 28a2 9abd 5a6c b8bd
00000070: d5c8 863d 0c03 2dbb 1905 103d c4ae c63d
00000080: b475 0fbd 8fb5 4fbd 1ff0 f0bd dae0 54bd
00000090: d22c c93d 0e88 223d af02 e3bd 09e8 c4bc
000000a0: 486f 4abd 70ca d93d 9672 babd 4c09 b73d
000000b0: fd80 f8bc f878 fd3c 60cc 813d 410b 7abd
000000c0: 11d0 193d 707e 973d d711 94bd 6106 69bd
000000d0: df09 883d a7d4 503d 9c8c 393c d75a e9bd
000000e0: efdf b63d 808c b13d 4d06 583c c137 7ebc
000000f0: 83e0 99bb a5d7 87b8 d375 81bd 49b8 833d
00000100: 8122 85bd f257 bb3d 68b3 963c 4eb0 113d
00000110: 7770 da3d 9124 eb3d e67c ae3d c62a 843c
00000120: 4f1a 6d3d 9a52 cb3d cb3e d6bc 76cd e33d
00000130: 55c5 7dbd e805 793d 3a61 cf3d d82c 45bd
00000140: e149 febc 989d c3bd 5f6f f5bc 1cde b2bd
00000150: c925 9dbd 065d b4bb fe38 1dbd 8f39 983d
00000160: f8bb a0bd f2d9 1e3e 6349 a83c ba3a 7dbc
00000170: 2a8c abbd 4c47 b93d 4499 ac3d ab9a fe3d
00000180: 6cd3 11bd e1e8 6abd 812b 873d 16a9 d1bd
00000190: aa77 303d f7c9 903d 449c d7bd 59cf 6ebc
000001a0: e719 14bd d83b 94bd 6f68 fa3d eaed 043c
000001b0: e152 d5bd 7f73 7d3c 0202 323c e424 b63d
000001c0: 4fc1 df3d b583 99bc 00ff 84bd a3b9 7fbd
000001d0: 3f12 80bd aec4 c8bb c336 f03d 6235 ef3d
000001e0: 8d24 a43d e901 74bd 36bf 8b3b 93cf cc3d
000001f0: 87bd 8fbc e9bb 3fbd f936 ab3b 27f7 f73d
00000200: 329f ee3d dcfd 153d 5cb9 073e 4443 66bd
00000210: 8f13 c6bc 31fd 02bd 23fc a63c 4986 323d
00000220: c3a4 283d 576c bbbd ba36 ac3d afcb 6fbd
00000230: a1e6 013d 6f64 af3c edb1 84bd ba1f 17bc
00000240: 45ea 70bb 481c dabd 7a83 cdbc b399 a73d
00000250: afee c8bd bdcd b1bd a075 2ebd 2afa a1bc
00000260: 9798 65bb 3515 18bd ffe7 373c 6806 743c
00000270: 16f2 6d3d b3f4 9bbd 7bcb 7d3c 2a4d b1bc
00000280: 1dc0 c9bb 4844 bdbd 4ea5 933d f284 683c
00000290: 1bfd 823d 1aba 9e3d 72d2 043e 43e8 c43d
000002a0: 4a5d 97bd ef8a 993d 7cd1 863d 4582 5d3d
000002b0: 327e dd3d dc94 003e 7417 e3bc 8aa4 c43b
000002c0: b8cd 0b3d babc a3bc 3b4d ef3d ae19 dbbd
000002d0: 9452 dcbd 3688 053e c4ba d33d a72e dfbd
000002e0: 79cc c43d c7f8 94bd 0c7e a0bd 0c0b 393d
000002f0: 6bd1 8dbd d78b 83bc bc39 843d ce6c e13c
00000300: afc0 a63d 3f6c 793d 0321 223d 0b62 f23c
00000310: 8a12 953d 86c1 ce3d e00b 5f3d e396 9abb
00000320: 641a 20bc ac66 d9bd af71 53bd 8d18 74bd
00000330: 33e9 023e a5d9 d9bd 2a6b d3bb 20c9 96bd
00000340: c3ae f33c d080 e53c e812 77bd 536b e13d
00000350: cfd8 d53c 2f91 d6bc cc5a b93d 45b2 aa3d
00000360: ebe1 4a3d 09a5 913c c2fb 7abd d630 81bd
00000370: ccb9 ba3d e7a9 a7bd 7869 b1bd aaa7 c13d
00000380: b5a4 223d 2509 5bbd 329c d43d e9a3 cbbd
00000390: 0784 8e3c 5e83 2ebd 4945 ccbd 7486 15bd
000003a0: 3a74 af3d 1922 1fbd 7371 903c 7280 e53d
000003b0: 0603 e73d 02df 2fbd 0d2f 14bd eecb 4a3d
000003c0: 0446 d0bd fc1d 943c 7ba2 cb3d 31cf a4bc
000003d0: f858 9e3d 0857 153d 1eef 8e3d e0d7 45bd
000003e0: ea05 dd3c be86 4a3d e082 92bd 9891 8ebd
000003f0: 961e d03d 541e da3b b6a1 b63d ae02 e73d
