models/MLP_DQN_20251205_165726.pt (torch, 279744 bytes, 8 tensors)

fc1.weight f4 [128, 200]
000000 0f ee 0c 3c 01 e9 82 bd ba e2 c0 bd ac c6 c5 3d
       0.0086016795 -0.06392098 -0.09418245 0.09657034
000010 5a 21 1d 3d 42 d2 2f be 5d 2f b0 3d e1 a1 26 3e
       0.038361885 -0.1717005 0.08602784 0.1627269
000020 0f aa 8c bd 4a 67 50 bd 67 7f 86 bd 2f ef b7 3d
       -0.068683736 -0.050879754 -0.06567269 0.089811675
000030 d7 28 10 3e 48 6c fa 3c 5b d4 e7 bc a6 0b b2 bd
       0.14078079 0.03056921 -0.028299501 -0.08693628
000040 e3 7a 1b bc 87 3b 8a 3d 63 1a ac bd fd a9 2a bd
       -0.009489748 0.06749635 -0.0840347 -0.04166602
000050 ed 91 10 bd 4f 46 05 bd f8 f5 cb 3c ed d3 d8 3d
       -0.035295416 -0.032537755 0.02489756 0.10587297
000060 f2 67 ee 3c 95 70 c7 bd 7b cb ef 3c e3 14 08 bd
       0.0291023 -0.0973827 0.029271832 -0.033223044
000070 9b b5 6a bd f2 69 ef bd dd 1a 04 3d 30 ef c9 bd
       -0.0573021 -0.11690129 0.03225218 -0.098600745
000080 6a a3 e2 ba 35 27 8d bc f6 8c 41 bc 38 f6 44 3d
       -0.0017291133 -0.01723061 -0.011813393 0.048086375
000090 82 fe eb 3b 44 78 05 bd cd 96 e4 3d 28 12 15 3d
       0.0072019706 -0.032585397 0.111615755 0.03639427
0000a0 dd a8 10 bd a4 ba 91 3c b2 72 40 bc dc 56 a2 3d
       -0.03531729 0.017789192 -0.0117460955 0.07926723
0000b0 d8 0e 99 3d fa 71 a1 bb 47 fd 03 be ae a9 63 3d
       0.07473534 -0.004926917 -0.12889586 0.05558174
0000c0 14 ba 07 be 9b da 33 3e b5 63 0d bd ef 46 e0 bd
       -0.13254577 0.1756386 -0.034518916 -0.109510295
0000d0 b8 fb 77 bb 30 a7 01 3c f0 7c 1e 3c 04 45 80 bd
       -0.0037839245 0.007913396 0.009673342 -0.06263164
0000e0 15 3c bd bc 75 39 f3 3b e4 00 42 bd 4e fa 08 be
       -0.023099938 0.007422621 -0.04736413 -0.13376734
0000f0 a5 8f bc 3d a3 9a 90 3d c4 be 13 3e 20 ad a5 3d
       0.092070855 0.070607446 0.1442824 0.080896616
000100 ec da 1f 3c e4 de 91 bd 05 61 20 3e 61 c6 d8 bd
       0.009756785 -0.07122591 0.1566201 -0.10584713
000110 45 ef 52 3d c1 43 11 3e e1 e1 aa 3d c1 da 27 be
       0.051497716 0.14186002 0.08343864 -0.16392042
000120 02 ea 06 3e 7b 67 b5 bd 97 d4 c3 bd e4 c8 67 bd
       0.13175204 -0.08857628 -0.09562033 -0.05658807
000130 1b 6b 6d bd 80 89 f7 bc 6e 4b 75 3d 98 fb 53 3c
       -0.05796347 -0.030216932 0.05988639 0.012938403
000140 a8 b7 24 3d 79 58 26 bd 7f c8 bc 3d 54 14 c7 3c
       0.04021421 -0.040611718 0.09217929 0.024301685
000150 fc 45 d7 3d 15 6c aa bd 71 59 60 3d 1b d5 00 bd
       0.10511395 -0.08321396 0.054772798 -0.031453233
000160 3f 0b 88 3c e1 e6 96 3d cb 54 81 3e 45 fb 8f 3c
       0.016606925 0.073682554 0.25260004 0.01757587
000170 2d 6f 2a 3d 5a 62 3e bd 0d 7e 31 3d 12 aa 66 bd
       0.04160993 -0.046480514 0.043333102 -0.056314535
000180 a5 f5 ac 3d 6d 36 62 3d 3f d6 30 be ee 86 7e bd
       0.084452905 0.055227686 -0.17269228 -0.062140398
000190 d0 de f8 3c d1 09 a0 3d 60 e2 84 3e 64 f0 a5 3d
       0.030379683 0.07814372 0.2595396 0.081024915
0001a0 bd d1 03 bb 53 34 34 bd 39 08 b8 3d 9f a6 59 bd
       -0.0020114027 -0.043995213 0.08985943 -0.053137418
0001b0 d4 5e e6 bd 60 62 bf 3d 54 2b c0 bd 40 34 16 3d
       -0.11248556 0.093449354 -0.09383264 0.036670923
0001c0 0b b4 a1 3d 31 e9 07 bc 7d 89 ce bc 54 62 96 3d
       0.078956686 -0.008295343 -0.025212044 0.07342973
0001d0 bf ee 8a 3c e9 14 05 bd ea b8 ec bd ff 52 3a bd
       0.016959546 -0.032490645 -0.11558707 -0.045489307
0001e0 81 54 0a 3d 13 a2 58 3d 5d 0c 04 3e 02 59 ed 3c
       0.033771995 0.05288894 0.12895341 0.028973106
0001f0 99 5a 99 bd 14 e1 41 bd 14 d4 11 3e 5a 08 44 bd
       -0.07487983 -0.04733379 0.14241058 -0.047859527
000200 83 6d 02 3e 9f d3 94 bd 89 08 cc bc fe 1a b5 bd
       0.12737088 -0.07266926 -0.024906414 -0.08843039
000210 fa 9a 7d 3d f5 46 84 bd 93 af 39 3d 22 2d 9b 3c
       0.061915375 -0.064588465 0.045333456 0.01894242
000220 d7 4a 75 3d 57 6e d6 bc 3b 4d 4c 3c 0e bd 2b bc
       0.059885826 -0.026175661 0.012469585 -0.010482086
000230 34 70 1e 3d 70 f4 9c bd a2 c0 e0 3c 04 d0 36 3c
       0.038681224 -0.0766381 0.027435604 0.011157993
000240 05 80 f4 3b 5f b4 3e bd 91 d3 95 bc 6b 09 63 bd
       0.00746155 -0.046558734 -0.01828936 -0.055428904
000250 bd 71 2e 3d b6 dd 29 3d ac f9 3a bc 24 ee c3 bc
       0.042588938 0.041471206 -0.0114120655 -0.023917265
000260 7c 23 3d 3c b0 30 99 bc ab 78 7e bd 51 57 3e 3b
       0.011544105 -0.018699974 -0.062126797 0.0029043744
000270 19 12 b4 3d 4d b8 31 bd 8a 89 5c bd d2 ab e8 b9
       0.08792514 -0.043388654 -0.053842105 -0.00044378504
000280 5b 95 0c bc 7c a2 23 3d 61 1e 74 bc 63 56 0a 3d
       -0.008580531 0.03994988 -0.014899821 0.03377379
000290 d6 01 47 bd ec 24 a6 bd 42 7a 29 3d 93 3f 72 bc
       -0.048585735 -0.08112511 0.04137636 -0.014785665
0002a0 a2 cd e1 bd 7a 52 95 3d af b7 c8 3b c3 12 3a 3d
       -0.110255495 0.07291122 0.0061254124 0.04542805
0002b0 70 46 2a 3d d1 60 c5 3c 52 c4 b6 3d bb 1e 57 bd
       0.04157108 0.024094017 0.08924164 -0.05251954
0002c0 2e 40 01 3e 12 c3 e0 3d db 7a da bd 7e 55 8d bd
       0.12622139 0.10974707 -0.10667964 -0.06901072
0002d0 79 46 ca bc 42 b6 5b 3d 2c 81 11 bd e8 d0 fe ba
       -0.024691807 0.05364061 -0.03552358 -0.0019440921
0002e0 89 b2 03 3c 9d 7f 17 bd 6e b3 c6 3d 79 8c 41 bc
       0.008038172 -0.036986936 0.09702192 -0.011813276
0002f0 1f ed cf 3c a8 eb 1d 3d be e6 ad 3a 54 74 7f bb
       0.025381623 0.038554817 0.0013267619 -0.003897925
000300 c1 18 88 3d 3c 61 9b bd 50 f4 e4 3d 68 34 c5 bd
       0.066453464 -0.07586905 0.111794114 -0.09629136
000310 ae 46 87 3d ca 96 20 bd 7a 23 b0 3c 51 bc 02 3d
       0.06605278 -0.039206304 0.021501292 0.031917874
000320 d8 43 82 3a 8f 79 12 bb e9 88 8d 3b 8c b5 86 b8
       0.0009938432 -0.0022350287 0.0043192995 -6.423434e-05
000330 d6 a6 b2 b9 c9 ba bf bb 49 67 cc 3b 44 1b ca 86
       -0.00034075108 -0.005851124 0.0062378985 -7.602402e-35
000340 d7 e4 06 bc fb f7 3c ba 5d cb cc ba 13 47 8c 3b
       -0.008233271 -0.0007208583 -0.0015624572 0.0042809336
000350 7d a4 f4 b9 90 bf d7 b5 f3 f0 90 3b c5 2c ef bb
       -0.0004666186 -1.60745e-06 0.0044232546 -0.007299038
000360 d6 75 16 bb ce 6a 30 bc 47 8d 50 3a 52 82 1e 39
       -0.002295842 -0.010767652 0.0007955622 0.00015116602
000370 d0 94 91 bc ea 3f be 3c 88 0d a6 bb b2 17 01 b8
       -0.017771155 0.023223836 -0.005067531 -3.0778065e-05
000380 d2 aa 50 b9 d2 ab b4 ba b6 2a 97 bb e1 84 06 00
       -0.00019900061 -0.0013784117 -0.004613246 5.98681e-40
000390 2d ae b8 bc 1d 65 9d ba d0 68 32 b7 2f 1b 27 b9
       -0.022543991 -0.0012008284 -1.063403e-05 -0.00015936488
0003a0 ad ec 8d 37 78 f1 98 b8 f3 af bf 3a 6f e4 b3 3b
       1.691872e-05 -7.292902e-05 0.001462458 0.005489878
0003b0 b9 81 0c 3c 77 a9 a6 bc 60 a4 6a 3c 32 63 92 3a
       0.00857585 -0.020344479 0.014321417 0.0011168479
0003c0 58 a5 83 bc 71 d7 20 bc 62 5e 50 3b 60 2e 07 b9
       -0.016070053 -0.00981699 0.0031794538 -0.0001289188
0003d0 8b 96 99 3a 51 c1 07 bc 3d 92 94 bb d2 f5 ab b6
       0.0011717839 -0.008285836 -0.0045340345 -5.1248144e-06
0003e0 87 45 40 3b 4d 1e 86 3a bc 36 a5 34 d6 38 5d 3b
       0.0029338317 0.0010232419 3.077347e-07 0.00337558
0003f0 54 28 18 b9 53 9d 48 39 a7 b7 6e bb 6d f5 2c bb
       -0.00014510873 0.00019132094 -0.0036425383 -0.0026391402

fc1.bias f4 [128]
000000 89 d4 07 3c 0e 66 b3 bc ee 70 89 bd 0e a6 7a bc
       0.008290418 -0.02189925 -0.06710993 -0.01529838
000010 b3 46 a3 3d 7d 79 9e bc b7 cd 44 bd 57 33 e9 3d
       0.07972469 -0.01934504 -0.048047747 0.113867454
000020 8d ef b5 bc a7 4b b2 3d 2d 60 c3 3d e5 30 02 3e
       -0.022208953 0.08705836 0.095398284 0.12713964
000030 6d bf c1 bc f6 41 ea 3d 16 11 97 3d f8 f0 00 3b
       -0.02365085 0.11438362 0.07376306 0.0019674879
000040 8b 54 48 bd 7b c9 2c 3d 02 c1 b7 3d 6f 08 8e 3d
       -0.04890875 0.042184334 0.0897236 0.06935202
000050 1a 99 5a 3c f0 95 c7 bd 8e bf fa 3c c6 87 aa 3d
       0.013342166 -0.09745395 0.030608919 0.08326678
000060 bf c9 bf 3a 73 da 94 3d a9 78 c2 3c d7 24 42 bd
       0.0014632269 0.072682284 0.023739176 -0.047398414
000070 83 40 3f bd 9b 4c 78 3d 9f 55 5c 3d 93 4f 5c bd
       -0.046692383 0.06061993 0.053792592 -0.053786825
000080 43 f3 c3 bc a7 d7 33 3d 4d 5a 3d bd 97 37 8d 3d
       -0.023919707 0.043906834 -0.046228696 0.068953685
000090 1d ef 0c 3e 4e 6f 8c bc d9 e1 72 3c 2c 69 99 3b
       0.1376309 -0.017142918 0.014824354 0.004681727
0000a0 a9 9c 83 bd a3 4b 04 3d 09 61 d3 bc f7 66 5d bc
       -0.06426365 0.032298695 -0.025803106 -0.013513318
0000b0 4f e1 f7 3d ff d6 60 bd be 1b 2d bd 35 47 2f bd
       0.12103521 -0.054892536 -0.042262785 -0.042792518
0000c0 4e e0 2e bd 1f 61 1f bd 2e 7d b2 bd eb 41 eb bc
       -0.042694382 -0.03891098 -0.087152824 -0.028717956
0000d0 d9 af 87 3d f4 29 c2 3c ea 15 27 bd 6f 82 63 bd
       0.06625337 0.023701645 -0.040792383 -0.055544313
0000e0 9a 74 5a 3d f6 d9 89 bd db 78 95 bc 1a 08 08 3e
       0.053333856 -0.06731026 -0.018246105 0.1328434
0000f0 83 34 0c bd 83 7d 47 bd 97 1e fe 3c 06 84 0c bd
       -0.034229767 -0.04870368 0.031020446 -0.034305595
000100 5c bf ce bc 49 b3 4a bd a8 1d 7a 3d cb b5 82 bd
       -0.025237732 -0.049487386 0.06106344 -0.063823305
000110 37 8a 1f bb 74 fe 2d bc 26 83 01 bd 85 94 22 3e
       -0.0024343857 -0.010619748 -0.031619214 0.15876968
000120 ff 30 bc 3d 67 d6 c4 3d 8f 11 ac 3c c3 87 a3 3d
       0.09189033 0.096112065 0.021004466 0.07984879
000130 a8 01 e9 bc 91 90 ac bd 4b 00 f8 3c 8d 8d b0 3d
       -0.028443173 -0.08426011 0.030273577 0.08620749
000140 6e 21 ba bc e5 21 89 3d 1a 89 e3 3c 4d 55 e3 3d
       -0.022721019 0.06695918 0.027775336 0.11100254
000150 a6 5e d6 bd 9a 91 97 3d fc d2 97 39 b2 8a 81 3d
       -0.104672715 0.07400818 0.0002895816 0.06325282
000160 1d fe 05 3c 31 c9 28 3e 32 96 a8 3c 5e 29 78 bc
       0.008178261 0.16482998 0.020579431 -0.015146581
000170 dd 9a 65 bd 15 70 e9 3d 56 37 5c bc 65 8b 60 bd
       -0.056055892 0.11398331 -0.0134409275 -0.054820437
000180 ff f6 b5 bd cf ab d5 bc 90 e2 48 bd c1 81 cf 3d
       -0.088850014 -0.026082901 -0.04904419 0.101321705
000190 78 71 8e ba fb e1 5d 3d bc 74 a2 3d 98 c3 d8 3c
       -0.0010867557 0.05417059 0.079324216 0.026460454
0001a0 a4 07 e1 3d 7f 19 53 3c 99 3e 8a 3d 4b 88 fb 3c
       0.109877855 0.012884497 0.06750221 0.030704638
0001b0 30 c3 8a 3d aa f2 d8 bd ab e4 cb 3c d1 81 90 bd
       0.0677551 -0.105931595 0.02488931 -0.070560105
0001c0 01 4d 12 3e 54 60 8b bc 4f 59 4c bc c1 63 2e bc
       0.14287187 -0.017013706 -0.012472465 -0.0106439
0001d0 f2 1a 7a bd 9d ef 2d bd 18 88 a8 3d 5d e7 0f bc
       -0.061060853 -0.04246484 0.08229083 -0.008783189
0001e0 75 13 09 3b 34 32 a3 3d 75 08 85 3d f9 b8 92 3d
       0.0020916138 0.0796856 0.06495754 0.07164187
0001f0 ff 56 bf 3d e8 53 8f 3a 80 0a 95 3b 0b d9 27 bd
       0.09342765 0.001093504 0.004548371 -0.040978473

fc2.weight f4 [64, 128]
000000 46 f3 d4 bd f7 8c 39 bb dc 66 08 3d 6a 43 dc 3b
       -0.10397963 -0.0028312781 0.03330122 0.0067219036
000010 bb ec 15 3b b9 c2 76 3b 56 9c a3 3c 3b cb 08 bd
       0.0022876698 0.0037652685 0.019972008 -0.03339694
000020 ed 87 46 3c 0f d4 8e bd 46 00 8e bc 0f 04 3c bd
       0.012117368 -0.06974041 -0.017334115 -0.045902308
000030 67 dc e3 3a 0d 47 82 3b 0e de 9d bc e9 a8 0f be
       0.0017384411 0.003975755 -0.019270923 -0.14029278
000040 f0 ad 8c bc 89 e8 01 be 17 ab 65 bd bb 1e bd bc
       -0.017172784 -0.12686361 -0.056071367 -0.023085942
000050 34 9d 29 3d b5 6e 54 3d 30 36 9c 3d da 28 bd 3c
       0.041409686 0.05186339 0.07627523 0.023090769
000060 4a f6 8c bc 92 4b b5 3c 0d a4 83 bd 02 66 44 bd
       -0.017207284 0.022130761 -0.064277746 -0.047948845
000070 7d 96 52 3d 38 ca 87 3c 29 23 2c bd 90 d5 13 bd
       0.051413048 0.016575918 -0.04202572 -0.03609234
000080 ae c0 82 3c 1b ef 1c 3d ea ff 07 3d 1e a1 3c 3d
       0.015961017 0.038313966 0.033203043 0.04605209
000090 8d 28 2c 3c bf 91 29 bc 87 66 ae 3c c6 c8 bb 3c
       0.010507715 -0.01034969 0.021289123 0.022922885
0000a0 a5 05 41 3d 6f db 29 3c 48 a7 b1 bd d6 b2 22 37
       0.047124524 0.010367258 -0.086744845 9.697591e-06
0000b0 61 f5 ca b9 5c f5 0f bc 3b 3a 03 3e 2d e2 97 3d
       -0.00038711264 -0.008786526 0.12815182 0.074161865
0000c0 aa 15 2b bd e9 40 de 3b 37 d0 6d 3c c7 31 9e bc
       -0.041768707 0.0067826402 0.014514974 -0.019310845
0000d0 2e cb 9a 3c cc 83 c1 bc e3 19 29 3c c2 5f c0 bd
       0.018895712 -0.023622416 0.010321113 -0.09393264
0000e0 4d 97 88 3d 4c f4 10 bd 99 8c ca 3d 53 cd 21 bd
       0.06669483 -0.03538923 0.09890098 -0.039502453
0000f0 af f1 89 bc 44 9b d4 3c 0f ba 20 bd a5 39 e9 bc
       -0.016838877 0.025952943 -0.03923994 -0.02846987
000100 45 be ba bc 85 51 1b bd 94 b8 04 bd 46 73 16 bd
       -0.022795806 -0.03791954 -0.03240259 -0.036731027
000110 8f 11 7e bd 68 8b 5b bb d4 1d ec bc bb 19 e9 bb
       -0.062028464 -0.003349984 -0.028822817 -0.007113663
000120 78 00 85 3d 8e 24 8d 3d bf 6f a4 3d 34 da 50 bc
       0.0649423 0.06891738 0.080291264 -0.012747336
000130 20 80 fc bc 4f 07 8c 3c 2a 25 5f 3d fd 4b 18 3c
       -0.030822814 0.017093329 0.0544788 0.009295461
000140 f9 b9 9d bd 20 6a 1d 3d 15 b9 88 3d 2b f6 cb bb
       -0.07701487 0.038431287 0.066759266 -0.006224414
000150 3d db 79 3d 05 e9 4e bc 99 cb bd bc f2 b9 bb 3c
       0.061000098 -0.012628798 -0.023168372 0.022915814
000160 f2 a4 3e 3c 2a b3 d6 3d dc b4 4e bc e0 8f ca ba
       0.011636006 0.104833916 -0.012616362 -0.0015454255
000170 34 0c 9f bd 3c a8 99 3d 9d 01 bd bd 53 b7 8e bd
       -0.077659994 0.07502791 -0.09228823 -0.0696856
000180 cb 8c c1 3d 12 60 e1 bc 0a 67 ef 3b 36 6c ff bc
       0.09450682 -0.02751163 0.0073059844 -0.031179529
000190 af 8e 5d bb a1 76 c0 bd 56 8d 8c bd 0d 6b dc bb
       -0.003380697 -0.09397627 -0.06862895 -0.0067266286
0001a0 46 b8 a2 3c f9 56 30 3b 67 28 f9 3c 94 c6 aa bd
       0.019863259 0.0026907308 0.030414773 -0.08338657
0001b0 64 d2 a7 3d 52 73 57 bc cf 64 18 bd fc b4 f6 3c
       0.08194426 -0.013150053 -0.037205514 0.030115597
0001c0 33 ab 6c bd 28 95 63 3d 93 22 6e ba 69 9e af ba
       -0.057780456 0.05556217 -0.00090841315 -0.001339865
0001d0 21 01 d6 3c 3d b9 96 bd 29 fa 21 bd b6 9f 9c 3c
       0.026123585 -0.0735955 -0.039545212 0.019119125
0001e0 bf 3f 1d 3e 3f 64 2b 3d 8b 42 32 bc 18 81 67 bc
       0.15356348 0.04184365 -0.010880123 -0.014129899
0001f0 60 b9 85 3c 46 ca 89 3d 6d 62 f0 bc 69 43 9a 3c
       0.016323745 0.06728034 -0.029343808 0.018830972
000200 2c a7 5f bd 58 3e bb b7 24 85 d2 3d 90 63 df bd
       -0.054602787 -2.2321168e-05 0.10279301 -0.10907662
000210 31 1d 6c bd 82 4b 95 3d a1 32 da 3c 90 0f 90 bd
       -0.057645027 0.072897926 0.02663547 -0.07034218
000220 b1 1b b4 bd 1f 99 78 3d fb 22 7d 3d 5e bb 17 3d
       -0.08794344 0.060692903 0.061800938 0.03704392
000230 d2 c2 9c 3a d4 96 61 bd 6b a3 91 3d d6 0c 69 bc
       0.0011959916 -0.05507548 0.07111248 -0.014224252
000240 68 cd 8f bb 85 16 4e bd eb e5 80 bd fb 8c 9c bd
       -0.0043885 -0.050314445 -0.06293853 -0.076440774
000250 b4 f1 80 bc ad 31 29 3c c2 29 e5 3d cf d2 35 bd
       -0.015740253 0.010326785 0.11189605 -0.044390496
000260 4a a4 79 bd e1 9b eb bc ea fb e6 bc 84 6b 00 3d
       -0.060947694 -0.028760852 -0.028196294 0.031352535
000270 26 b4 10 bd 7b 69 18 bc 15 bd 81 bd 40 5d 84 3c
       -0.035328053 -0.009302492 -0.06334893 0.016157746
000280 93 3c 94 3d e6 82 53 bd a0 bf 12 bd b6 83 2c bc
       0.07238116 -0.051638506 -0.03582728 -0.010529449
000290 cc e1 de bb 62 09 a7 bb ec 0d 66 b9 9e a4 fe bc
       -0.0068018194 -0.005097554 -0.00021939696 -0.031084355
0002a0 17 93 d7 bc 19 d0 d6 bb 04 65 ef 3b db c7 0e b5
       -0.026315255 -0.006555569 0.007305743 -5.318995e-07
0002b0 70 7f a9 bd f7 f3 6a 3d 3c 7d 29 bc fd a9 1c 3d
       -0.0827626 0.05736157 -0.0103448 0.03824805
0002c0 51 0f 9a bd f9 ef f7 bb 45 13 59 3a a2 b6 1b bd
       -0.075224526 -0.0075664488 0.00082807645 -0.03801597
0002d0 28 ec 9a bd 79 eb cc bc f1 47 4d 3d 3d fa b9 bc
       -0.075645745 -0.025014626 0.050117437 -0.02270233
0002e0 de bd ba bc f5 2b 9a 3c f0 6e 30 bd 0f da c7 bd
       -0.022795614 0.018819788 -0.04307455 -0.09758388
0002f0 f5 30 b3 bc 67 dc 3d 3c f0 41 c6 3d d3 ee 39 bb
       -0.02187393 0.011588193 0.09680545 -0.002837111
000300 45 fd 0c bd ab c1 42 bc 8b 22 8f 3c 16 85 95 3c
       -0.034421224 -0.011886994 0.017472526 0.018251937
000310 68 37 93 3c ac b9 a9 b9 1c fe b1 3c 29 6b fb bc
       0.017970756 -0.00032372528 0.021727614 -0.030690746
000320 52 78 3d bd d0 13 22 bb 1f ea b9 bd 10 3d 27 bd
       -0.046257325 -0.0024731047 -0.09077858 -0.040829718
000330 2f 3b 37 3d f3 51 92 bc 94 87 11 3c 4f fe 2e 3b
       0.044734176 -0.017861342 0.008882422 0.0026701873
000340 38 ba 13 bd cf 2f 57 bd 83 97 84 bb a7 ee c6 3c
       -0.036066264 -0.05253583 -0.004046382 0.02428372
000350 15 c0 cf bd 23 57 8b 3d 7b 89 b4 3d cd f3 e4 bc
       -0.101440586 0.068037294 0.08815285 -0.027948285
000360 20 73 94 3c 4d b1 f3 3b c0 bc 31 bd a8 2c 87 39
       0.018121302 0.0074369074 -0.043392897 0.00025782478
000370 60 80 9a 3d 92 02 ed bc ab c4 1d bd 90 b8 33 bd
       0.07544017 -0.02893189 -0.038517635 -0.043877184
000380 1b 50 ab bd b0 a8 a3 bc 92 75 12 bd 62 af 14 bd
       -0.08364888 -0.019977897 -0.035756655 -0.03630007
000390 c6 12 e7 bc a2 02 36 bc 85 48 69 bd 87 6b 9b 3d
       -0.028207194 -0.011109026 -0.056953926 0.075888686
0003a0 ff 5e b2 3c 0e 60 ab bd c4 fb 6d bd 83 ac 1a bd
       0.021773813 -0.0836793 -0.05810143 -0.037762176
0003b0 00 5f af 3d 96 15 70 bd 00 97 83 bd 9c f3 20 bc
       0.08563042 -0.058614336 -0.06425285 -0.009823706
0003c0 7b f0 d1 bd 86 14 70 bd 41 7b 5a bd 8c 8d b4 37
       -0.10250946 -0.058613323 -0.0533402 2.1523585e-05
0003d0 7a 3b c9 bc a4 59 8f bc 2b 08 8f bd 76 ff 5d 3c
       -0.024564493 -0.017498799 -0.0698398 0.013549676
0003e0 4e 30 3f 3b a3 5e 4a 3d a4 e4 22 bc 0f 5c 7c bb
       0.002917308 0.04940666 -0.0099422075 -0.003850702
0003f0 66 59 cb bc c5 d0 97 3c 6f e6 51 bd 6d 0a 07 bd
       -0.024822902 0.018532166 -0.05124515 -0.032968927

fc2.bias f4 [64]
000000 dd b0 76 3d 7d 4f a9 bc a0 2d 50 bc 6f 9a f8 3c
       0.060227264 -0.020667786 -0.01270619 0.030347077
000010 97 b7 2d bd 99 df 87 3d 05 d5 8d 3d 72 2d 69 bc
       -0.042411413 0.06634445 0.06925396 -0.014232026
000020 2b 68 4f 3d 7f 18 63 3d 95 82 c2 3d 3b 9a 99 bd
       0.05063645 0.055443283 0.09497563 -0.0750012
000030 d0 b8 88 bd 55 39 c4 3d ac 3d 98 3d b5 40 16 3e
       -0.06675875 0.09581248 0.07433638 0.14673121
000040 c0 bd de 3c bd 83 08 3d 38 6c 96 3d ce a7 2d bc
       0.02719009 0.03332876 0.0734486 -0.01059909
000050 50 7f e6 bb 4d 01 35 3c b3 41 0c 3d cc f5 3f 3a
       -0.00703422 0.011047673 0.034242343 0.00073226984
000060 4a 0d 52 bb 22 01 8d 9f 7f 02 52 bd 6c 06 13 bc
       -0.0032051378 -5.97177e-20 -0.05127191 -0.008973699
000070 6f 48 c8 3d 87 74 91 bd 29 4c 6a 3b 3c c6 9d bd
       0.097794406 -0.07102304 0.0035750961 -0.07703826
000080 cb 26 83 3c 53 42 25 3e 5c 61 5b bd 50 1c 9a 3d
       0.016009709 0.16138582 -0.053559646 0.075249314
000090 54 6e e5 3d e4 c3 7a 3d d4 e3 d5 3c 67 2d 13 3e
       0.11202684 0.061221972 0.026109613 0.14372788
0000a0 34 3b a4 bd 1d e8 be 3d 38 ca 1d bd 4a 5e 86 bb
       -0.080191046 0.09321616 -0.03852293 -0.0041005956
0000b0 56 d7 30 3e 9a 1a c0 3c 5a 32 fa 3d dd 8c cf 3d
       0.17269644 0.023450185 0.12216635 0.101342894
0000c0 5a ee 69 3d 5d b8 2b bd 5d a6 ff 3c ac 2b 73 bd
       0.057112075 -0.04192387 0.031207258 -0.05936782
0000d0 cd 8c c1 bc 59 b0 5b bd 5f 03 60 bd 66 9f a2 bd
       -0.02362671 -0.053634975 -0.054690715 -0.07940559
0000e0 25 d6 1e 3d 91 8c 2a 3e 01 21 48 3d c1 e9 c7 bc
       0.038778443 0.16655184 0.0488596 -0.024403455
0000f0 71 37 2d bd 34 0f 69 bc 6e 64 36 bd 90 80 a7 3d
       -0.0422892 -0.014224816 -0.04452937 0.08178818

fc3.weight f4 [32, 64]
000000 30 6f ab 3d c3 87 55 bd 7f ee d8 3d e3 89 b2 bd
       0.08370817 -0.052131426 0.105923645 -0.08717706
000010 c3 68 03 bd f7 bc 26 3e 5a a4 46 bb 66 4f 5e 3d
       -0.03208233 0.16283022 -0.0030310364 0.05427494
000020 bc 05 2d bc 5e a3 dc bb 2d 98 4a bd 03 5e 1a 3d
       -0.010560449 -0.006733342 -0.049461532 0.037687313
000030 0a e3 9a bd 10 27 36 bb be 58 04 3e 71 c8 c5 bd
       -0.075628355 -0.002779428 0.12924477 -0.09657372
000040 8f ca 88 3b 03 24 cd bd 03 4c 0f 3d 45 4a 59 3a
       0.0041745375 -0.10016634 0.0349846 0.000828896
000050 66 32 31 3d ed 6f e1 3b bb c7 1d 3e 98 19 46 bd
       0.043260954 0.0068797977 0.15408222 -0.04836425
000060 57 d5 2b be e6 6f 05 80 33 53 72 ba 74 24 d7 bd
       -0.16780601 -4.99319e-40 -0.0009243965 -0.10505
000070 6a d3 19 bc 7d 7b ed bd ea c7 c1 3d fd 71 18 3e
       -0.009388784 -0.11595819 0.09461959 0.14887233
000080 a6 38 d7 3d c3 7d a2 bd 7d 5e 45 3d 67 b7 7e 3c
       0.10508852 -0.079341434 0.048185814 0.015546656
000090 a9 51 bc 3d 17 35 dd 3d 06 fa e0 bd dc 40 c2 3d
       0.09195263 0.10801142 -0.10985188 0.09485027
0000a0 4d de 5a 3b 0a 8e e5 3d b3 d5 6b bc 6e d2 2a ba
       0.0033396662 0.112087324 -0.014394212 -0.0006516342
0000b0 65 9c 96 bd 25 76 30 3d 86 d8 45 3d 7e 47 f8 bc
       -0.07354049 0.04308142 0.048302196 -0.030307528
0000c0 7a 47 f4 3d e5 02 43 bb 7a bc 0b 3e f8 a2 b0 bc
       0.119276956 -0.0029756364 0.13646117 -0.021562085
0000d0 d1 a5 66 bb 1b 17 1e 3c a3 e6 cb bb 19 f6 81 bd
       -0.003519405 0.009649063 -0.0062225624 -0.063457675
0000e0 f3 fc ba 3b bc db 47 3d 74 a2 52 3d 70 0e 59 3d
       0.0057064234 0.04879354 0.05142446 0.052992284
0000f0 55 b8 f2 3b 8a e8 b7 bd 6a 91 2d bb aa 17 9a 3c
       0.007407228 -0.089799 -0.0026484379 0.018810112
000100 de 31 69 bc 1e e0 89 bc 3e ab b2 bc f3 37 1f 3d
       -0.014233081 -0.0168305 -0.02181017 0.038871717
000110 2c 45 00 be 11 be 30 3d d8 43 18 3d e9 a0 47 b5
       -0.12526387 0.04315001 0.037174076 -7.436743e-07
000120 3e b4 0c bd fd c3 a9 b1 e4 98 08 bd 57 23 e0 38
       -0.03435158 -4.9408286e-09 -0.033348933 0.00010687735
000130 f2 ee d8 3a 4b d1 4a bd b2 81 c2 3c 42 9a 58 bc
       0.0016550703 -0.049516004 0.023743484 -0.013220372
000140 ed 7a f6 bb e6 4c 84 3c 08 62 70 bd 2c b0 c1 38
       -0.007521978 0.01614995 -0.05868724 9.235772e-05
000150 1a 03 e6 3b 7c 4f 1f b5 f8 08 03 3d cd f1 d7 bb
       0.0070194127 -5.934778e-07 0.031990975 -0.006590104
000160 0f 53 83 bd 54 6c 05 00 aa 5c 05 80 0f a4 2d bd
       -0.064123265 4.98038e-40 -4.92419e-40 -0.042392787
000170 b4 0c 1a 3c e9 7a b2 bc 40 8b 57 3b 40 97 bd 3d
       0.009402443 -0.021787124 0.0032889396 0.09257364
000180 b7 ac ee 3c ff d7 01 be 05 6d dd bc a5 c3 ba 3b
       0.029135091 -0.12680052 -0.027029524 0.005699592
000190 7d ef 82 bc 1a 5d 32 3b 04 a9 7d bd 9f 2d 85 3d
       -0.015983338 0.0027216137 -0.061928764 0.06502842
0001a0 d1 65 3d b6 db a2 4e bc c9 7a 71 3d a6 e2 76 bd
       -2.822246e-06 -0.01261207 0.058954988 -0.060274743
0001b0 b0 e4 08 bd 3b 5c e9 bc 98 b2 72 bd 98 10 3b 3d
       -0.03342122 -0.028486362 -0.05925235 0.045670122
0001c0 78 31 71 3d 86 21 62 31 14 35 ff bc c9 70 9e 2a
       0.058885068 3.2906384e-09 -0.03115324 2.8144698e-13
0001d0 2d bc 26 bd 0b d4 aa b9 c2 34 b5 b7 17 5a 7d 3d
       -0.040706802 -0.0003258291 -2.1601449e-05 0.061853494
0001e0 d6 d4 4a bd e0 04 7f 3d 1b 83 0c bd 64 82 3c 3d
       -0.049519382 0.06226051 -0.03430472 0.046022788
0001f0 0a 6a 05 80 d9 93 79 bd 77 1c 38 36 77 3a 2c 3c
       -4.97217e-40 -0.060932014 2.7434705e-06 0.010511986
000200 28 ed 05 80 99 a2 05 00 85 83 91 11 fb 9f 05 00
       -5.44253e-40 5.17507e-40 2.2958021e-28 5.16568e-40
000210 97 09 80 36 76 69 09 00 1c 78 06 80 5b 5b 06 00
       3.8158137e-06 8.64352e-40 -5.941e-40 5.83785e-40
000220 5c 81 05 00 50 a2 05 80 68 0c 0c 10 2d b7 06 00
       5.05583e-40 -5.17404e-40 2.761969e-29 6.16724e-40
000230 89 68 05 80 46 ec 46 a0 f7 1b a5 b7 c2 f7 c9 b2
       -4.96678e-40 -1.6849429e-19 -1.9682555e-05 -2.3512147e-08
000240 0b 6d 6f b8 b8 88 fe b1 2f 0e 2b b7 3d 1a 06 00
       -5.7083595e-05 -7.407916e-09 -1.0195697e-05 5.60425e-40
000250 c8 05 60 04 8f 69 05 80 fe 66 a0 b5 cd 1c 06 80
       2.6333728e-36 -4.97045e-40 -1.1950904e-06 -5.61345e-40
000260 24 7e 05 80 14 10 06 80 8f 66 05 80 91 7c 05 80
       -5.04428e-40 -5.56781e-40 -4.95969e-40 -5.03863e-40
000270 50 46 18 35 7f 6b 05 00 96 57 05 80 04 72 05 80
       5.672673e-07 4.9774e-40 -4.90597e-40 -5.00079e-40
000280 9d 50 11 b7 8f 70 05 80 75 93 d2 8d 5b 80 05 80
       -8.661443e-06 -4.99556e-40 -1.2977748e-30 -5.05223e-40
000290 48 5c 29 b5 23 7a dc ad 87 3e b4 38 3d ae cc 80
       -6.3091693e-07 -2.5065344e-11 8.5947155e-05 -1.8796946e-38
0002a0 0b a5 05 80 1a 86 05 80 5b 1e e0 2e 91 8e 05 00
       -5.18384e-40 -5.07284e-40 1.0191733e-10 5.1032e-40
0002b0 53 73 05 80 3b 73 05 80 05 91 05 80 16 f3 a0 b0
       -5.00548e-40 -5.00514e-40 -5.112e-40 -1.1710621e-09
0002c0 8c 90 05 80 e3 5b 05 00 45 19 ae 98 62 71 05 00
       -5.11031e-40 4.9214e-40 -4.500346e-24 4.99852e-40
0002d0 6b 7a 05 00 54 69 05 00 2d fc 05 00 63 ca 05 80
       5.03093e-40 4.96962e-40 5.49641e-40 -5.3178e-40
0002e0 d9 25 4b 37 18 50 a5 ac 7a 65 05 00 58 5b 05 80
       1.2108555e-05 -4.6984742e-12 4.9558e-40 -4.91945e-40
0002f0 04 16 06 80 5b bf 05 80 3b 89 05 80 8a 65 05 80
       -5.5891e-40 -5.27823e-40 -5.08406e-40 -4.95603e-40
000300 35 4a 4c 3d a1 c9 c1 bc 89 d6 15 3d 85 c9 3a bd
       0.049875457 -0.023655714 0.03658155 -0.04560234
000310 00 06 41 3c 2e de ec bc 12 0b 18 bd c9 af 66 bc
       0.011781216 -0.028914537 -0.037119932 -0.014079996
000320 bc e5 13 bc 50 07 fb bc db d3 50 3d 90 41 0b 3c
       -0.009026941 -0.030643135 0.05098329 0.008499518
000330 e3 6b 3a bc 86 56 cb bb 51 4f 37 be e0 7c 33 3c
       -0.011378261 -0.0062053828 -0.1790135 0.0109550655
000340 99 53 86 bd d9 fc 12 be 0a 3a ae bb 8a db 3f bc
       -0.06558914 -0.14354266 -0.0053169774 -0.011710057
000350 0c 69 4e bd 75 fe 23 3c 45 a3 82 3c 8f fd bf bc
       -0.05039315 0.010009398 0.015946994 -0.023436336
000360 9a c6 1f 3e 4e 57 05 00 c3 8c 77 39 63 16 f7 3d
       0.15603104 4.90497e-40 0.00023608193 0.12064817
000370 28 cd 08 be 3d d4 5f 3b ad 20 b9 bc d4 e2 55 ba
       -0.13359511 0.0034153603 -0.022598589 -0.0008159105
000380 c9 46 e4 bd f8 bd a5 3d a0 ba 13 3e f1 15 de 3d
       -0.11146314 0.08092874 0.1442666 0.10844029
000390 9c 9a 7f bd 09 50 40 be 88 e0 24 be 93 b4 0a bd
       -0.062403306 -0.18780531 -0.16101277 -0.033863615
0003a0 8b 88 0a 3c 01 e9 19 bd bd dd d3 bb 48 45 13 3e
       0.008455406 -0.037575725 -0.0064656422 0.14381897
0003b0 1f 0b da 3b a3 81 bd 3d b3 bf da 3d 79 07 c2 3d
       0.006654158 0.09253242 0.10681095 0.094740815
0003c0 19 43 83 3d 2f 6f be bb b0 3b b8 3a bd 85 86 bb
       0.06409282 -0.005811594 0.0014055874 -0.0041052983
0003d0 14 95 18 3d 34 67 80 3a b7 7e 85 bb 32 31 9a 3d
       0.037251547 0.0009796382 -0.0040739435 0.075289145
0003e0 03 74 cb bd b2 99 23 be 34 f4 43 be 76 a5 9d 3c
       -0.09934237 -0.15976599 -0.19136125 0.019243937
0003f0 a6 ff b1 3b f7 bb b7 3d 35 6d 26 b9 59 32 5a 3c
       0.005432087 0.08971398 -0.00015871676 0.013317668

fc3.bias f4 [32]
000000 21 f3 94 3d a6 31 ca bd 3e c0 cd ba bc 57 da 3d
       0.07272936 -0.09872751 -0.0015697551 0.10661265
000010 54 a1 07 3e be b5 b5 3c 9b 59 40 3c b6 0a 56 3e
       0.13245136 0.022181388 0.011740114 0.20902523
000020 37 81 25 3d db 11 58 3e 40 cc 85 3c 08 14 3d 3e
       0.040406432 0.21100561 0.016332746 0.18464673
000030 99 32 41 3e 58 a4 28 3e a5 49 aa 3d 12 43 29 b3
       0.18866958 0.16468942 0.08314828 -3.940938e-08
000040 7d ee 4e 3e dc 6f 38 3d 3c 0f 09 3e 12 77 dd 3d
       0.20208164 0.045028552 0.13384718 0.108137265
000050 8d 94 ba 39 c8 6d b0 bd 00 89 01 bd e0 ad 3f 3e
       0.00035587364 -0.08614689 -0.031624794 0.18718672
000060 5f b9 18 3e 97 72 a2 ba 30 36 83 bd cb 7d fc 3d
       0.14914463 -0.001239377 -0.0640682 0.123286806
000070 bc 59 4c bb 0e 5b 3f bd f0 87 04 3c 48 18 03 3e
       -0.0031181416 -0.046717696 0.008089051 0.12802231

out.weight f4 [1000, 32]
000000 9d b1 c5 3b 10 8b 94 3d f1 89 05 80 55 11 53 3e
       0.006033136 0.072530866 -5.08662e-40 0.2061208
000010 49 5a 01 3d 70 9a ad 3d 3a 54 80 3d 45 20 81 3e
       0.031580243 0.08476722 0.06266065 0.25219932
000020 1b 43 21 3e db b6 71 3d 13 a3 91 3d 8a 34 81 3d
       0.15748255 0.059012275 0.07111182 0.06308849
000030 c8 70 1f 3e f9 58 73 3d a8 ca 00 3e cf 63 05 80
       0.15570366 0.059411023 0.12577307 -4.94982e-40
000040 7f 42 0c bd 3d 51 3f 3d a5 e0 07 3e 34 39 4a bd
       -0.034243103 0.046708334 0.13269289 -0.04937096
000050 82 87 e6 bd cf 35 81 3c fe 9f bf 38 e7 96 ee 3d
       -0.11256315 0.015772728 9.1373906e-05 0.11649876
000060 6b 38 c0 bd 9a e1 d1 81 5d 26 72 3d cf 68 8d 3d
       -0.09385761 -7.7098197e-38 0.059118617 0.06904756
000070 8f 69 05 80 e6 6c 05 00 dd b0 cd bc cf 0d da 3d
       -4.97045e-40 4.98243e-40 -0.025108749 0.10647165
000080 cc 5e ce 3c 39 8a 23 3d 07 eb 05 80 dd c2 23 3d
       0.025191687 0.03992674 -5.4349e-40 0.039980758
000090 ed 93 81 3d b2 1b 19 bd 07 9c 94 bd e8 44 9e bc
       0.06327043 -0.037379928 -0.07256322 -0.019319966
0000a0 09 0b eb 3c b3 29 94 bd df 89 79 3d 83 40 ca 3d
       0.028691785 -0.07234516 0.0609225 0.09875586
0000b0 19 2a a0 3c 5e 33 f0 3d dd 78 2a bd e6 00 06 80
       0.019551324 0.117285475 -0.04161917 -5.51335e-40
0000c0 35 26 4d bc 84 22 44 bd 06 52 96 bd 4d ef 89 bd
       -0.012521316 -0.04788448 -0.073398635 -0.06735096
0000d0 be 6f 89 bd 84 2a 66 3d 5a 0b ec ba b4 0d e7 bc
       -0.06710766 0.05619289 -0.0018008754 -0.028204776
0000e0 92 b7 71 3d aa 7a 05 80 e8 ed aa bc 78 84 9f bd
       0.059012957 -5.03181e-40 -0.020865396 -0.07788938
0000f0 00 2f f6 b1 c1 65 05 80 3c 36 25 bd 11 3c b2 3d
       -7.1648856e-09 -4.9568e-40 -0.040334925 0.08702863
000100 00 98 ce bd 40 ab 8f ba 23 63 05 80 c6 b1 dc 3d
       -0.100875854 -0.0010961071 -4.94741e-40 0.10776095
000110 0c 45 f3 3c 73 b9 84 3c 62 5f 86 3d f5 62 80 3c
       0.02969601 0.01620171 0.065611616 0.015672186
000120 7c c3 0d bd f2 67 9a 3d f7 24 c7 bc 0a 6a c1 bb
       -0.034610257 0.07539357 -0.024309618 -0.0059025334
000130 69 0c a2 3d b9 8b ed 3d 6c 63 87 3c b6 63 05 80
       0.07912523 0.115989156 0.0165269 -4.94947e-40
000140 bb ed 90 3c 76 fd 43 3d 01 1a 1a 3d 32 86 28 3d
       0.017691484 0.04784914 0.037622456 0.041143604
000150 91 28 99 3d 2e a5 1e 38 df eb ea 35 f6 7c 05 3d
       0.074784406 3.782397e-05 1.7503006e-06 0.032589875
000160 bb bf 63 bd d2 61 05 00 38 29 94 3a d0 fa 93 3d
       -0.05560277 4.94269e-40 0.0011303788 0.07225573
000170 77 5e 05 00 62 57 05 00 e0 a7 c2 bc 62 ea a7 3d
       4.93065e-40 4.90525e-40 -0.02376169 0.08199002
000180 62 5f 7d 3d cc 3a 51 3d 99 75 05 80 99 c9 0e 3d
       0.061858542 0.051081464 -5.01364e-40 0.034860227
000190 f1 44 08 3d d6 f2 75 bc 93 a0 8b 3d 61 9e 4d 3d
       0.033268873 -0.01501151 0.068177365 0.05019987
0001a0 85 05 6e 3d 18 ba 98 bd 5b 88 19 bd 08 f3 2d bd
       0.058110733 -0.074573696 -0.037483554 -0.0424681
0001b0 aa a5 b3 bc c6 2d 09 3d fa 98 cb bd a2 80 05 80
       -0.02192958 0.03349092 -0.09941287 -5.05322e-40
0001c0 0a b0 bd bd e5 a3 4c bd 62 51 a6 bd 0e cc df 3c
       -0.092620924 -0.04996099 -0.08120991 0.02731898
0001d0 4f 20 2d 3d 9e f1 0b 3b 0f 5a fd b7 07 70 12 bd
       0.04226714 0.0021353732 -3.0201887e-05 -0.03575137
0001e0 b2 6f 87 3d f1 8a 85 08 9f 66 81 b9 6f 81 02 3d
       0.06613101 8.037311e-34 -0.00024681256 0.03186172
0001f0 3b ab 05 80 24 6f 05 00 eb e2 82 bc 6f 13 90 3c
       -5.20603e-40 4.99047e-40 -0.015977344 0.017587392
000200 a9 05 d7 bc 57 48 68 bd 19 5e 05 00 bc 64 1e be
       -0.026247816 -0.056709614 4.92933e-40 -0.15468115
000210 4c 6e 09 be e1 23 ee 3c 43 54 ce bc 75 85 60 3e
       -0.13420981 0.029069843 -0.025186663 0.2192591
000220 43 da b4 3d 81 9c 06 bd a5 4b 17 bd 33 71 03 3d
       0.088306926 -0.032864098 -0.036937375 0.032090377
000230 68 a8 f2 3b b0 c0 ce 3d b7 3b cf 3d b0 61 05 80
       0.0074053295 0.10095346 0.101188116 -4.94221e-40
000240 67 a9 ab bb 82 49 71 bd bb 6a a6 3d 29 5f f0 3d
       -0.0052387 -0.058907993 0.08125826 0.117369
000250 09 7a 2d 3d f6 16 de 3c 28 96 bc bc e9 dc a6 3d
       0.04235271 0.027110558 -0.023020819 0.08147604
000260 0b bb 17 3e 9e 80 53 b4 e1 db c5 3c 2d 0f 5a 3e
       0.14817445 -1.9697697e-07 0.024152698 0.21294852
000270 4f 6e 05 00 78 62 05 00 65 7f 7f 3d 0f 8e d2 3c
       4.98749e-40 4.94501e-40 0.062377352 0.025702504
000280 ba 23 25 3e 1c 5c e4 3c 61 5f 05 80 17 c9 92 3d
       0.1612691 0.027875952 -4.93393e-40 0.07167261
000290 95 10 c7 bd eb b3 b8 bc 7c eb a4 3d 94 ea 46 3d
       -0.0971996 -0.02254673 0.080527276 0.048563555
0002a0 0c 74 0c bd 3a 58 aa bc 28 0b 04 bd e7 58 0d 3d
       -0.03429036 -0.020794023 -0.032237202 0.034508612
0002b0 9b 72 e4 3c 0b 5e 28 3d 0d b4 a3 bb 2b c1 05 80
       0.02788668 0.04110531 -0.004995829 -5.28473e-40
0002c0 9d f0 61 3d 9e 39 0c 3d 90 c8 e5 3c 91 9f c9 bd
       0.055161107 0.034234636 0.028049737 -0.09844888
0002d0 d2 c3 d9 3b 9a 39 9f bb 53 5a 05 00 8d cd 57 bb
       0.006645658 -0.0048591616 4.9158e-40 -0.0032928914
0002e0 47 d2 8b 3c c6 83 c6 0d fd 64 17 b9 dc 96 a1 3d
       0.017068041 1.2234415e-30 -0.00014438103 0.07890102
0002f0 58 31 09 b4 7d 5c 05 80 df 6f fb 3b 83 35 10 3c
       -1.277707e-07 -4.92356e-40 0.007673248 0.008801821
000300 90 97 05 3c 1e 99 21 3d bb 95 05 80 39 34 cc 3d
       0.008153811 0.039452665 -5.1289e-40 0.09970898
000310 b6 00 97 3d 37 c4 13 bd 2d 15 cf bd a4 f4 43 3e
       0.073731825 -0.036075797 -0.10111461 0.19136292
000320 c6 11 9f bd eb 23 b4 3c 53 4f 52 3c 92 30 54 3d
       -0.07767062 0.021989783 0.012836295 0.051804133
000330 dd df 1f bd 2a c5 c4 3c 02 8c 9e 3d 48 8e 05 00
       -0.039031852 0.024019796 0.07741548 5.10218e-40
000340 90 ce 5d 3e 60 49 c0 bc 4b 15 cc 3d 53 b2 c0 3d
       0.21660829 -0.023472488 0.09964999 0.09409013
000350 38 e5 68 39 96 95 1c bb ac d7 5b 3b e8 3e d0 3c
       0.00022210635 -0.002389287 0.0033545299 0.025420621
000360 9d 64 af bd 7e 69 e0 36 85 62 d6 3c 0e c6 a6 3d
       -0.08564112 6.688001e-06 0.026170025 0.08143245
000370 5e ae 85 8b fa 6a 05 80 15 83 01 3d 2a fc 0d 3e
       -5.1492095e-32 -4.97553e-40 0.03161915 0.13865724
000380 86 34 ec bd f0 f0 25 3c cd 37 06 80 1c d5 5e bd
       -0.115334556 0.010128245 -5.7103e-40 -0.054402456
000390 07 6f ce 3d 31 41 46 3d 4e 2e 33 bd 73 52 f6 3c
       0.100797705 0.048402015 -0.04374533 0.030068612
0003a0 a3 0a 86 3c b6 aa 39 3e 2c 6c 61 bd 85 ae 82 3d
       0.016362494 0.18131527 -0.0550348 0.06380943
0003b0 0a 05 d9 3d ee ba 62 3d f8 70 9b 3b c0 70 05 00
       0.10596664 0.05535405 0.0047436915 4.99625e-40
0003c0 9b 48 bb 3d ea 10 9b bd 77 a4 8d 3d cf ab 58 bd
       0.09144708 -0.075715855 0.06916135 -0.052898224
0003d0 f3 6e e6 bc 27 51 fb 3b 7f 58 05 00 77 da d4 3c
       -0.028129077 0.007669586 4.90924e-40 0.025983078
0003e0 2a 46 11 3e 11 b2 05 80 ca ff 39 b7 73 2e 46 3d
       0.14186922 -5.23056e-40 -1.1086415e-05 0.04838414
0003f0 a4 ca 05 00 5f 5d 05 00 83 5e b0 bc 83 4c f4 bc
       5.31871e-40 4.92673e-40 -0.021529442 -0.02982164

out.bias f4 [1000]
000000 05 4a 04 3e 58 7f 3c 3e 02 c8 96 bc c5 d5 b9 3d
       0.12918861 0.18407953 -0.018405918 0.090739764
000010 35 db 0d bd eb 7b 89 bd 24 cd 25 3c 66 32 ac 3d
       -0.03463288 -0.067130886 0.01011971 0.0840805
000020 84 83 a7 bc 45 5e 88 3d a8 da d0 bd e0 1a eb 3d
       -0.020448454 0.066586055 -0.10197955 0.114797354
000030 af f8 cd bd 82 eb 2b 3d c1 1d a5 3d c5 0c 6f bd
       -0.10057198 0.041972645 0.08062316 -0.058361787
000040 b7 32 f7 bd de 6d 35 3e 2c 56 d9 3d f5 06 5d 3e
       -0.1207022 0.17717692 0.10612139 0.21584685
000050 91 ee df bc 42 a9 9a 3b 94 64 aa 3d ce 90 08 3d
       -0.027335437 0.004719884 0.08319965 0.03334122
000060 3b e2 45 3d ed 60 05 3e 27 d6 3c 3b 08 7f c2 3d
       0.048311453 0.13025256 0.0028814168 0.094968855
000070 7b d5 ad bd 3a 39 3d bd f6 12 98 3d ef aa 25 3d
       -0.08487984 -0.046197154 0.074254915 0.040446218
000080 e8 34 34 bd d2 6c fb bb a8 b0 d0 bd 7d 46 11 3e
       -0.043995768 -0.0076728845 -0.101899445 0.14187045
000090 81 f3 47 3e 8e 6d 89 bd c9 55 d5 3d 9f c7 55 3e
       0.19526483 -0.06710349 0.10416753 0.2087693
0000a0 71 2c 80 3d f9 8e 58 3e c9 48 9c 3c 83 12 e4 bd
       0.062584765 0.2114829 0.019077675 -0.11136343
0000b0 ac 3b 6b bd c9 0f a2 bc 57 72 40 3d 28 21 3c bd
       -0.057429954 -0.019782918 0.046984043 -0.045930058
0000c0 4b ad f1 3d 8c 57 df 3b de bf 25 bd c8 d6 fe bd
       0.11800631 0.0068158563 -0.040466182 -0.1244331
0000d0 d1 ef 34 bd 84 12 03 bd b5 83 3d 3d ab 31 10 be
       -0.04417402 -0.03200008 0.046268184 -0.14081447
0000e0 29 80 c3 3b 9d 80 b4 bc 65 f5 97 3d 7e 68 01 3d
       0.0059662056 -0.022033984 0.07419852 0.031593792
0000f0 b7 f7 83 3d 93 33 fa 3d a6 4c af 3d 14 cb 19 bb
       0.06443732 0.12216868 0.085595414 -0.0023466991
000100 97 3b 92 bd 74 16 bd 3d be 87 0b 3e 1d 7f a3 3c
       -0.07140272 0.09232798 0.13626 0.019958073
000110 10 7f 98 3b 77 69 ef 3d 73 a3 24 3e 0a a2 1e bc
       0.004653819 0.11690038 0.16077976 -0.009682188
000120 19 91 0d 3d 6e 3d c0 bc 6c 7d bc 3d eb 89 de bc
       0.034562204 -0.023466792 0.0920361 -0.027165374
000130 27 e2 e6 bc 64 0f 92 3d 44 5e 2f bd 6a b3 ce 3c
       -0.02818401 0.07131842 -0.042814508 0.025232036
000140 8d 47 5f 3d 04 40 8b 3d 3a 31 5a 3e e3 15 5c 3d
       0.054511596 0.067993194 0.21307841 0.05373181
000150 da 1e 5f 3c 96 57 7b bd 79 43 a6 3d 81 88 39 bd
       0.013618195 -0.061362825 0.08118338 -0.045296196
000160 5a 66 37 3e 3e 31 0e 3e 30 c6 68 3d 27 5d 3e 3d
       0.17910138 0.13885972 0.05682963 0.046475556
000170 3d 0f a3 3d d2 9b c8 3d fb dd 0e 3b 69 ac 71 3d
       0.07961891 0.09795345 0.002179979 0.059002314
000180 cd cb 08 3a fa 90 d9 3c 21 3e ec bc c9 16 20 3d
       0.0005218357 0.026558388 -0.02883822 0.03908423
000190 27 9c 3e 3d e4 d7 f9 3d 80 71 92 bd 53 2c 03 3c
       0.046535637 0.12199381 -0.07150555 0.008006173
0001a0 11 a9 36 3e 40 30 96 3d 9f 92 c6 3d 66 5d bf 3d
       0.17837931 0.07333422 0.096959345 0.09343986
0001b0 b5 f4 6a 3e 26 42 5f bd dc 77 c4 bd 60 61 9f bb
       0.22944911 -0.054506443 -0.09593174 -0.004863903
0001c0 b2 84 a6 bc 7d ee 19 3d b0 12 98 bd b7 82 63 3d
       -0.020326946 0.037580956 -0.07425439 0.05554458
0001d0 57 ec 91 bc 89 37 c1 3d a5 de d0 bd 2b 36 32 3e
       -0.017812891 0.094344206 -0.10198716 0.17403476
0001e0 1e f2 e6 3d fa 7b 93 bd a7 5a 68 bd 97 ea 7c 3d
       0.11276649 -0.07201381 -0.056727078 0.06174716
0001f0 9f 87 3b 3e 3e 7d 21 bd b0 95 aa 3d e3 91 64 bd
       0.18313454 -0.03942608 0.08329332 -0.05580319
000200 53 4a 63 3d a3 ec 1d bb b6 85 b0 bd 3c c8 1b 3d
       0.055490803 -0.0024097345 -0.08619253 0.038032755
000210 0f bf 48 3d 06 33 1b bc 9e dd e3 3d 62 69 ea 3d
       0.049010333 -0.009472614 0.111262545 0.114458814
000220 16 50 a5 3c 70 66 af ba c1 f1 b7 3d 37 ca 9c 3d
       0.02017979 -0.0013381969 0.08981658 0.07655757
000230 12 36 2a 3e 19 86 95 bc 82 ab 7d bc 7e aa 43 3d
       0.16622189 -0.01825242 -0.015482785 0.047770016
000240 c5 82 19 3e ed 2c 62 bd fd 71 8e bd af 58 df bb
       0.14991291 -0.055218626 -0.06955335 -0.006815992
000250 7b 2d 13 3e 25 b9 da 3d 9b ba 3b 3e 28 d4 a9 bc
       0.14372818 0.10679845 0.18332903 -0.020731047
000260 56 d8 5e 3b b9 2d 86 3e b9 d4 9f 3d 51 c1 10 3e
       0.0034003458 0.2620676 0.078042455 0.14136244
000270 69 a7 fb 3d 7e 8c 34 3e 96 fb 42 3e 18 7f 6e bc
       0.1228779 0.17631719 0.19041285 -0.014556669
000280 8e b6 bf bd a0 3b 77 3d 5c f4 f9 3d 65 1f 9e bd
       -0.093609914 0.060359597 0.12204811 -0.07720832
000290 82 2b 29 3e 54 70 a4 3d 46 bc 22 3e b2 0f c9 3d
       0.16520503 0.080292374 0.15892133 0.09817447
0002a0 b9 57 1a be 10 13 21 3e 0e 73 b7 bd 13 7c 87 3d
       -0.15072526 0.15729928 -0.08957492 0.06615462
0002b0 f3 8c c8 bc 2c 02 bf 3d 9f 01 0d 3e 50 a1 96 3c
       -0.024481272 0.09326586 0.1377015 0.018387467
0002c0 91 e3 19 3a 5f c1 f8 3d 91 f3 37 3e d4 62 9e bd
       0.0005870397 0.121462576 0.17964007 -0.07733694
0002d0 5e aa 54 3e c8 4d e4 3c 52 a7 7f bb 18 d9 49 3d
       0.20768115 0.02786912 -0.0039009643 0.049279302
0002e0 f8 af b1 3d 78 0c 47 bc 62 6c e7 3d f2 2f 47 ba
       0.086761415 -0.012148969 0.11299969 -0.0007598392
0002f0 59 c3 46 3a 92 f3 57 3d 5d 71 95 bd 18 cf 1a 3e
       0.00075822097 0.05272252 -0.07297013 0.15118062
000300 04 61 71 bd ba fb 75 bd db b6 75 39 5c bd 0d be
       -0.058930412 -0.06005452 0.0002343314 -0.13841766
000310 bb 47 a7 bd 23 20 06 bd 91 57 84 bc cf 45 3f 3e
       -0.081679784 -0.03274549 -0.016155036 0.18678974
000320 26 72 42 3e 28 db 92 3d 6d f7 23 bc 86 47 eb bc
       0.18988857 0.07170707 -0.010007721 -0.028720628
000330 71 ef b6 3c c1 2c 28 bd 42 33 14 3d 21 f4 f0 3d
       0.022330971 -0.041058306 0.036181696 0.11765314
000340 15 c9 01 3b e0 56 d1 bc b5 37 bd 3b fe fb 2f bd
       0.0019803692 -0.02555412 0.005774463 -0.042964928
000350 c1 8b 5e bd 53 b9 00 3e 71 55 ff bc d6 7c 5e 3d
       -0.0543325 0.12570696 -0.031168671 0.05431827
000360 7d a6 a0 3d 22 84 fc bd 25 94 0f bd 84 34 34 bd
       0.07844255 -0.1232989 -0.03505339 -0.043995395
000370 94 83 b3 bc f0 76 4f 3e 7b e9 98 bd 36 35 b7 bd
       -0.021913327 0.20260215 -0.07466408 -0.08945696
000380 ce c4 e2 3d e0 cb 29 3d be be 07 3d bc 4e c6 3d
       0.11072694 0.041454196 0.03314089 0.09682986
000390 92 4a 60 3d b7 2d a2 bd 24 67 b2 3c 9e 1c dc 3d
       0.054758616 -0.07918876 0.021777697 0.10747646
0003a0 47 fe ae bc 3f ec 0f bb 75 37 d2 3c 80 c0 4f 3d
       -0.021361483 -0.0021960882 0.02566121 0.05072069
0003b0 58 cf 8c 3c 7c 14 74 3c 2a 54 0a 3e 9c b4 97 bd
       0.017188713 0.014897462 0.13508669 -0.074074954
0003c0 26 22 49 bd 76 3a 5c bc d6 9d 0a 3e fb 7f 79 bd
       -0.049104832 -0.013441673 0.13536772 -0.060913067
0003d0 f3 ec 73 bd 13 76 0c 3e f9 c7 26 3c 31 9a 79 3e
       -0.059552144 0.13716917 0.010179513 0.24375226
0003e0 31 50 0a 3c 34 9f d9 3d d9 31 66 3d 93 0c a4 3d
       0.008441971 0.10626069 0.056199882 0.08010211
0003f0 5f 97 59 3e e8 7c 82 3d b5 c9 04 3e 31 31 4a 3e
       0.2124915 0.0637148 0.1296757 0.19745328
